transformer_output/split_1/checkpoint.pt (torch, 831970 bytes, 46 tensors)

attn_layers.layers.0.0.0.weight f4 [74]
0	0x3f806ff5	1.0034167
1	0x3f802887	1.0012368
2	0x3f7fd5e7	0.99935764
3	0x3f7e8c70	0.9943304
4	0x3f802c67	1.001355
5	0x3f7f0446	0.99615896
6	0x3f808e1f	1.0043372
7	0x3f8032a6	1.0015457
8	0x3f804211	1.0020162
9	0x3f805674	1.0026383
10	0x3f7f076c	0.996207
11	0x3f805e9d	1.0028874
12	0x3f80073b	1.0002207
13	0x3f8119a7	1.0085953
14	0x3f800b11	1.0003377
15	0x3f80989e	1.0046575
16	0x3f80bf7c	1.0058436
17	0x3f7f9407	0.99835247
18	0x3f808241	1.003975
19	0x3f80ca9e	1.0061834
20	0x3f800d46	1.0004051
21	0x3f7f7d13	0.99800223
22	0x3f80bb15	1.0057093
23	0x3f80dded	1.0067726
24	0x3f8000ee	1.0000284
25	0x3f8071b1	1.0034696
26	0x3f808c9b	1.0042909
27	0x3f80562a	1.0026295
28	0x3f7f2613	0.9966747
29	0x3f808b7f	1.0042571
30	0x3f800d31	1.0004026
31	0x3f7e40f0	0.99317837
32	0x3f7fed07	0.9997105
33	0x3f8066d5	1.0031382
34	0x3f811100	1.0083313
35	0x3f800394	1.0001092
36	0x3f80e37c	1.0069423
37	0x3f8074f6	1.0035694
38	0x3f7fb120	0.99879646
39	0x3f7efb0f	0.99601835
40	0x3f80cc6c	1.0062385
41	0x3f8054df	1.0025901
42	0x3f8046f0	1.0021648
43	0x3f801e70	1.0009289
44	0x3f7f9b94	0.9984677
45	0x3f7d39bb	0.98916215
46	0x3f7f90f4	0.99830556
47	0x3f805b16	1.0027797
48	0x3f8006c8	1.000207
49	0x3f7f2e1f	0.9967975
50	0x3f7d865f	0.9903316
51	0x3f802d8c	1.00139
52	0x3f807985	1.0037085
53	0x3f81be84	1.0136266
54	0x3f806762	1.003155
55	0x3f80b2a8	1.0054522
56	0x3f8085bd	1.0040814
57	0x3f800f12	1.0004599
58	0x3f8017d8	1.0007277
59	0x3f7f7798	0.9979186
60	0x3f7f43bb	0.99712723
61	0x3f803326	1.0015609
62	0x3f7d5d99	0.98970944
63	0x3f7f2497	0.99665207
64	0x3f7fa214	0.99856687
65	0x3f80620a	1.0029919
66	0x3f800f47	1.0004662
67	0x3f7e477f	0.99327844
68	0x3f7f11ea	0.9963671
69	0x3f7e9945	0.9945262
70	0x3f7fbec0	0.99900436
71	0x3f7ebbef	0.99505514
72	0x3f804c94	1.002337
73	0x3f80f4ec	1.0074744

attn_layers.layers.0.0.0.bias f4 [74]
0	0x3b3077f8	0.0026926976
1	0x3b3be542	0.0028670584
2	0x3a96d1f6	0.0011506665
3	0x3b31c102	0.0027123098
4	0xbb0811c6	-0.0020762547
5	0x3b6c8e20	0.0036095455
6	0xbb0c6b2d	-0.0021426186
7	0xbb6c32a7	-0.0036040933
8	0x3b7c06cf	0.0038456207
9	0x3bf109fd	0.007355927
10	0x3bbd2ef2	0.0057734186
11	0x3b8a5331	0.004221343
12	0xbbd7c717	-0.0065850127
13	0x3bc8c222	0.006126658
14	0xbaff923e	-0.001949854
15	0xba72e191	-0.00092651794
16	0x3ac8fa70	0.0015333425
17	0xbbac1fee	-0.0052528298
18	0x3aa3f621	0.0012509265
19	0xbb20514f	-0.0024462526
20	0x3b2772b2	0.0025550541
21	0xba01d78f	-0.000495308
22	0x3b604094	0.003421818
23	0xb9f8eb70	-0.0004747766
24	0x3b4b0d7a	0.0030983374
25	0x3b3fb21e	0.0029250453
26	0xbb1c122f	-0.002381455
27	0xb799ba8e	-1.8325893e-05
28	0x3b955724	0.004557507
29	0x3aeb3bef	0.0017946939
30	0x3a4f6228	0.000791105
31	0x3bab88be	0.005234807
32	0x3af0662c	0.0018340996
33	0x39fe36f9	0.00048487613
34	0x39dae95f	0.00041754075
35	0xba3a03ad	-0.00070958846
36	0xbb9c5d89	-0.0047718924
37	0x3af4fc92	0.0018690994
38	0x3b640d7e	0.003479808
39	0x3a9cf4cb	0.001197481
40	0x398872e3	0.0002602554
41	0x3b90be29	0.0044172
42	0x3b29e1b1	0.0025921876
43	0x3b86fcb1	0.0041194786
44	0x3bd5b2e0	0.0065215677
45	0x3bffd7dd	0.0078077153
46	0x3aecaa2a	0.0018056084
47	0xb8f54670	-0.000116956304
48	0x3b72c3af	0.0037042906
49	0x3bbbcead	0.005731425
50	0x3b9a99a9	0.0047180247
51	0xbb653bd6	-0.0034978292
52	0x3b6ab74b	0.0035814818
53	0xb9de21d9	-0.00042368358
54	0x3b229878	0.0024810117
55	0x3a4d739d	0.0007837357
56	0xbb134ad4	-0.002247502
57	0x3a45ead4	0.0007549946
58	0xbb2eea88	-0.0026690084
59	0xbbebf8d3	-0.007201293
60	0xbabbf452	-0.0014339781
61	0xbb0cefff	-0.0021505354
62	0xbc0f928a	-0.008762965
63	0xbb8f6783	-0.004376353
64	0xba802f80	-0.0009779781
65	0xba11f8de	-0.0005568395
66	0xbaedbdb1	-0.0018138197
67	0xbb6dbe1d	-0.0036276646
68	0xbba6cda0	-0.0050904304
69	0xbb98ddc0	-0.0046651065
70	0xbb2e23b3	-0.0026571571
71	0xbb39c3c2	-0.002834544
72	0x3ac0dade	0.0014713665
73	0x3bd8fffe	0.0066223135

attn_layers.layers.0.1.to_q.weight f4 [64, 74]
0	0xbd180f47	-0.037123945
1	0x3ce46b9e	0.027883347
2	0x3bddf9cd	0.0067741633
3	0x3dc5ad1b	0.09652158
4	0xba980cd5	-0.0011600504
5	0x3d008668	0.03137818
6	0xbd19655f	-0.03745019
7	0xbcf452da	-0.029824663
8	0xbdce88df	-0.100847
9	0xbd7b0193	-0.0612808
10	0xbd1f315a	-0.038865425
11	0x3a89ce7c	0.0010513808
12	0x3d64b90d	0.05584054
13	0x3d9eda9d	0.07756541
14	0xbda66673	-0.081250094
15	0xbd71b204	-0.05900766
16	0x3cc12a47	0.02357973
17	0x3dc9653c	0.09833762
18	0xbd12d14a	-0.035844125
19	0x3d9f1fcd	0.077697374
20	0xbcf7fcea	-0.030271966
21	0x3b61e470	0.0034468435
22	0x3dd0d4f4	0.101968676
23	0xbde513c5	-0.11185411
24	0xbd9355f1	-0.071941264
25	0xbd10d448	-0.035358697
26	0xbd6fac16	-0.058513723
27	0x3daa5428	0.08316833
28	0xbd97a202	-0.074039474
29	0xbd638ec2	-0.055556066
30	0xbdabb6cb	-0.08384474
31	0xbddf1243	-0.10892155
32	0xbd9c4504	-0.07630351
33	0x3de0afae	0.10971008
34	0x3d3c0dc4	0.045911565
35	0x3d7cdf7e	0.061736576
36	0x3c1e4934	0.009661008
37	0xbd49234f	-0.04910594
38	0x3ce2e3ed	0.027696574
39	0xbddf279f	-0.10896229
40	0xbda1466e	-0.078747615
41	0xbd307a01	-0.043085102
42	0x3db65c71	0.089043505
43	0x3d905cdb	0.07048961
44	0xbd2dc485	-0.042423744
45	0x3b801c3e	0.0039096167
46	0x3da992d2	0.08279957
47	0x3ddd8c67	0.10817795
48	0x3d15e902	0.036599167
49	0x3cb061ca	0.021531004
50	0x3db24181	0.087039
51	0xbd60802d	-0.054809738
52	0x3ce2c3c5	0.02768124
53	0xbdb7c31b	-0.0897276
54	0xbda96393	-0.082709454
55	0xbd70faed	-0.05883305
56	0x3d86b821	0.065780886
57	0x3d354960	0.04425943
58	0xbda22921	-0.07918001
59	0x3ccc7ea8	0.024962738
60	0x3d6f09ef	0.058359083
61	0xbcab31eb	-0.020897826
62	0xbb0004d5	-0.001953413
63	0x3c9c3bb3	0.019071436
64	0x3d86bcab	0.06578954
65	0x3de1648a	0.110055044
66	0xbdcb89ee	-0.099384174
67	0xbd4eb0df	-0.050461646
68	0x3d18ff54	0.037352875
69	0x3dbda313	0.092596196
70	0x3dc2d82d	0.095138885
71	0x3dc6a218	0.09698886
72	0x3c9508c7	0.018192662
73	0xbde40388	-0.11133486
74	0x3cd37f26	0.025817465
75	0xbd769e04	-0.06020929
76	0xbdb3eee4	-0.08785799
77	0x3df57f72	0.11987199
78	0x3dd42be2	0.103599325
79	0xbdd308e4	-0.1030443
80	0x3cf197cf	0.029491333
81	0xbcc1cd4c	-0.023657463
82	0x3b30bfd0	0.0026969798
83	0xbd12e52b	-0.035863083
84	0x3d64800d	0.05578618
85	0xbd9c3409	-0.076271124
86	0x3d792a31	0.060831252
87	0x3d99ffeb	0.075195156
88	0x3dbbe360	0.09174228
89	0x3d1c9115	0.0382243
90	0xbe074cf5	-0.1321295
91	0xbdb9daa3	-0.09074905
92	0x3d1e8953	0.03870518
93	0x3b979505	0.004625919
94	0xbde3bccc	-0.111199945
95	0xbda95246	-0.082676455
96	0x3dc09740	0.09403849
97	0x3d80401d	0.06262229
98	0xbd354e56	-0.04426416
99	0xbd257b96	-0.040401064
100	0xbdd16bad	-0.10225616
101	0xbb82d4d2	-0.0039926553
102	0xbd90d6a6	-0.07072191
103	0xbdaeb15e	-0.08529924
104	0x3a25b7dc	0.00063216477
105	0x3cd1c475	0.025606373
106	0xbd1fe720	-0.039038777
107	0x3dae94ad	0.085244514
108	0xbd6b44d1	-0.057438675
109	0x3dfe1079	0.12405486
110	0x3dbec7b1	0.09315432
111	0xbdac370e	-0.08408938
112	0xbc59acdc	-0.013285842
113	0x3c87b50c	0.016565822
114	0x3d06aa30	0.032877147
115	0x3d6026d9	0.054724548
116	0x3d8373ba	0.064185575
117	0x3cc3b6b1	0.023890825
118	0xbd3a01ae	-0.045411758
119	0x3da2c75b	0.0794818
120	0xbdb6b544	-0.089212924
121	0xbd9920c3	-0.07476952
122	0xbcffb14b	-0.03121247
123	0xbd302e2f	-0.043012794
124	0xbc9dc7ce	-0.019260313
125	0xbd950b22	-0.07277514
126	0xbc046784	-0.008081321
127	0x3d0d204a	0.03445462
128	0xbd8f77e6	-0.07005291
129	0xbb92c833	-0.004479432
130	0x3d9c5d74	0.07635012
131	0xbd0661ea	-0.032808222
132	0xbc996330	-0.018724054
133	0xbcf2180a	-0.029552478
134	0x3bcb6f9e	0.006208374
135	0x3d568be4	0.052379504
136	0x3dc0df4c	0.094175905
137	0x3d57a3cf	0.052646454
138	0x3dbe0125	0.09277562
139	0xbcc74a08	-0.024327293
140	0xbe022386	-0.12708864
141	0xbd992884	-0.07478431
142	0x3d68ba5d	0.056818355
143	0xbc9c1395	-0.019052306
144	0xbd9eb3a0	-0.077491045
145	0xbddd76b2	-0.10813655
146	0xbe01c140	-0.12671375
147	0xbdf51c71	-0.119683154
148	0xbcbf6ba3	-0.023366755
149	0x3d8e8a4b	0.06959971
150	0x3d84e130	0.064882636
151	0xbdf1f7f6	-0.11814873
152	0x3d93a1f4	0.072086245
153	0xbdb0321e	-0.08603309
154	0xbcb132cc	-0.021630667
155	0xbd53adb6	-0.051679336
156	0xbcb3f111	-0.021965535
157	0xbcfbb225	-0.030724594
158	0xbdeab5c1	-0.11460448
159	0xbde7c650	-0.11317122
160	0xbca94d5a	-0.020666767
161	0x3ad8d929	0.0016544211
162	0xbd3f1234	-0.04664822
163	0x3d6588fd	0.056038845
164	0xbdc6948e	-0.09696303
165	0xbc6d1001	-0.014469148
166	0x3dd0a36e	0.10187422
167	0xbd59d3d6	-0.053180538
168	0x3dd48408	0.103767455
169	0x3d3028dd	0.04300772
170	0xbde5492b	-0.11195596
171	0x3d8dee08	0.069301665
172	0xbca41f24	-0.02003438
173	0xbd4b8a06	-0.049692176
174	0x3dd889b1	0.105731376
175	0xbdac3863	-0.084091924
176	0x3c171249	0.009220668
177	0xbccd577a	-0.025066126
178	0x3db407c0	0.08790541
179	0x3ce69599	0.028147506
180	0x3d5d41f5	0.05401798
181	0x3cfec9e2	0.031102125
182	0xbc8d12ca	-0.017220873
183	0xbcc4dccd	-0.024031067
184	0xbdbec7fd	-0.093154885
185	0x3d78268d	0.06058364
186	0x3dba325c	0.090916365
187	0x3da86b9a	0.08223648
188	0xbd9cf56e	-0.076639995
189	0xb902ff00	-0.00012492761
190	0xbdbb2889	-0.09138591
191	0xbd640d88	-0.055676967
192	0xbd96e64c	-0.073681444
193	0x3d223633	0.03960247
194	0xbd844b74	-0.06459704
195	0x3c34df22	0.011039527
196	0x3c59452c	0.013261121
197	0x3d8b1be2	0.067924276
198	0xbdb00ff4	-0.08596793
199	0xbda4af29	-0.08041222
200	0xbd792146	-0.060822748
201	0x3db75a2c	0.08952746
202	0xbd0588d2	-0.032601185
203	0x3dd8efdb	0.10592624
204	0x3cf43560	0.029810607
205	0x3c96dad1	0.018414887
206	0x3b42987c	0.0029692939
207	0xbc9c5dd1	-0.019087704
208	0x3c7309f6	0.014833918
209	0xbce5344b	-0.027979037
210	0xbb257cdc	-0.0025251424
211	0x3c609276	0.013706794
212	0xbdc0e7b0	-0.09419191
213	0xbd8d54e3	-0.069009565
214	0x3dc53edc	0.0963113
215	0xbdc2ed5d	-0.0951793
216	0xbc15ac07	-0.009135253
217	0x3ddbce3a	0.10732694
218	0x3d26dbe3	0.040737044
219	0xba868de3	-0.0010265674
220	0xbddaf01f	-0.10690331
221	0x3d711041	0.05885339
222	0xbdaf2c6d	-0.085533954
223	0xbd0eedc1	-0.03489471
224	0xbd3029fd	-0.043008793
225	0xbca2af38	-0.019858941
226	0xbbfcf1c6	-0.0077192513
227	0x3dc43e63	0.09582212
228	0x3c457a16	0.012053033
229	0x3de42edc	0.1114175
230	0x3d8514fd	0.06498144
231	0xbda21b1a	-0.079153255
232	0x3d481e89	0.048857246
233	0xbda7713c	-0.081758946
234	0xbd74c373	-0.059756707
235	0x3cc96d3a	0.024588216
236	0x3d0759d4	0.03304465
237	0x3db77f84	0.089598686
238	0xbcd3c756	-0.025851887
239	0xbbabe4e8	-0.0052457936
240	0x3d89c33d	0.06726692
241	0xbddc78a5	-0.107651986
242	0x3dbe9c7a	0.09307189
243	0xbdb57454	-0.088600785
244	0x3c502dbf	0.012706219
245	0xbc7ec3be	-0.015549598
246	0xbd86f08f	-0.06588852
247	0x3cc16da2	0.023611847
248	0x3dd913fd	0.105995156
249	0xbccb51b6	-0.024819236
250	0xbd89cccd	-0.06728516
251	0xbd32db25	-0.043666024
252	0xbdd81a2b	-0.10551866
253	0x3d58e759	0.052955005
254	0xbd6af9b5	-0.057367045
255	0xbda88e07	-0.082302146

attn_layers.layers.0.1.to_k.weight f4 [64, 74]
0	0xbc5135fc	-0.0127692185
1	0xbd81f25f	-0.06345057
2	0x3d9aabf4	0.07552329
3	0x3d8c0568	0.06836969
4	0xbdb8092b	-0.08986124
5	0x3cf79471	0.03022215
6	0xbd496c01	-0.049175266
7	0xbd8e1dfd	-0.069393136
8	0xbc963253	-0.018334543
9	0xbcbc200b	-0.022964498
10	0xbd788579	-0.060674164
11	0x3c11093f	0.008852302
12	0x3d60483e	0.054756396
13	0xbcea3638	-0.028590307
14	0xbc6644c9	-0.014054486
15	0xbabf3130	-0.0014586803
16	0xbd27af23	-0.040938508
17	0x3d825f2c	0.06365809
18	0x3dd96618	0.10615176
19	0xba5613a8	-0.0008166381
20	0x3c4af8a2	0.01238838
21	0x3dc0d99a	0.09416504
22	0x3dd4e900	0.10396004
23	0xbdaab6fb	-0.08335682
24	0xbd5367d4	-0.05161269
25	0xbddf3288	-0.1089831
26	0x3da17a19	0.078846164
27	0x3db6de66	0.08929138
28	0xbd1f702e	-0.038925342
29	0x3d01af3c	0.031661257
30	0x3d2b72d6	0.041857563
31	0xbdbdb1ad	-0.092624046
32	0x3d3b30c0	0.04570079
33	0x3d9ebc05	0.07750706
34	0x3bf30089	0.0074158353
35	0x3c7f1f6a	0.015571455
36	0x3cc093b8	0.023507938
37	0x3daa4ffd	0.08316038
38	0x3de087c7	0.109633975
39	0x3c9833bb	0.018579355
40	0x3d666fbc	0.056258902
41	0xbce85f8b	-0.028365871
42	0x3d8c1e42	0.06841709
43	0xbd39b475	-0.045338113
44	0xbdaf3107	-0.08554273
45	0x3d4d04c7	0.050053384
46	0x3d381484	0.04494144
47	0x3cb8fd4b	0.022581717
48	0x3d4ba307	0.049716022
49	0x3c4cb65b	0.012494649
50	0x3cfa487e	0.030552145
51	0x3d276ece	0.040877156
52	0xbd8f3b18	-0.06993693
53	0xbc4db912	-0.012556331
54	0x3c17b9d9	0.009260618
55	0xbccbee7c	-0.024893992
56	0xbdbd76e8	-0.09251195
57	0x3b64d2da	0.0034915716
58	0x3d795d31	0.06087989
59	0xbd97f9a2	-0.074206606
60	0x3ddaf707	0.10691648
61	0x3d368977	0.04456469
62	0x3d11a5b8	0.035558432
63	0xbd13b82a	-0.036064304
64	0xbdaad3d4	-0.08341184
65	0xbd2159d2	-0.0393923
66	0xba4c8018	-0.000780107
67	0xbd233af9	-0.039851163
68	0x3dc1a79f	0.09455799
69	0xbd35298b	-0.04422907
70	0xbda3a27a	-0.07989974
71	0xbcd33319	-0.025781201
72	0x3e0cf809	0.13766493
73	0xbd802fa0	-0.06259084
74	0x3dd9e48f	0.10639297
75	0x3d80c0ed	0.06286798
76	0xbcc13878	-0.023586497
77	0x3d8b0454	0.06787935
78	0x3d350430	0.044193447
79	0xbd7e4e82	-0.06208659
80	0xbcfc899e	-0.03082734
81	0x3dd9b07e	0.10629366
82	0x3d74d6a6	0.059775017
83	0xbd8aea48	-0.06782967
84	0xbd0bf9c3	-0.03417374
85	0x3d8e0114	0.069337994
86	0x3d6b4f92	0.05744893
87	0x3c2a474c	0.010392975
88	0xbd978a34	-0.07399407
89	0xbd9336fd	-0.071882226
90	0xbca6a68c	-0.020343088
91	0x3d43514e	0.04768496
92	0x39438a39	0.00018648141
93	0xbdc2f583	-0.09519484
94	0xbca9c471	-0.020723553
95	0x3e0020a9	0.12512459
96	0xbdbb82d2	-0.09155811
97	0xbda994ca	-0.082803324
98	0x3daa2add	0.08308957
99	0x3df7b8d1	0.12095798
100	0xbdda3757	-0.106550865
101	0xbdba33a1	-0.09091879
102	0xbcec4dde	-0.028845724
103	0x3e05ef74	0.13079625
104	0xbd866487	-0.06562143
105	0x3c8c069d	0.017092997
106	0x3dde10e9	0.10843069
107	0xbd39e1d2	-0.045381375
108	0xbcde308c	-0.027122758
109	0xbd947502	-0.0724888
110	0x3c7d18a7	0.015447772
111	0x3dede166	0.11615257
112	0x3d45915f	0.04823434
113	0x3dbef2cc	0.093236536
114	0xbc6d9bc7	-0.014502472
115	0xbc797f2c	-0.015228074
116	0xbc8efa4a	-0.017453332
117	0x3d82035c	0.06348297
118	0xbce7d19a	-0.028298188
119	0xbddc50e9	-0.1075762
120	0xbd4f3119	-0.050583933
121	0x3d37ccf5	0.044873197
122	0x3de6a270	0.11261451
123	0xbcf7c777	-0.03024648
124	0xbdd7d082	-0.105378166
125	0xbdbdd040	-0.09268236
126	0xbdc61729	-0.09672386
127	0x3d2a0a99	0.041514013
128	0x3da92c45	0.08260397
129	0x3cf23725	0.02956731
130	0x3cd0f974	0.025509574
131	0x3d965f13	0.07342353
132	0x3da14fea	0.078765705
133	0x3d97b293	0.07407107
134	0x3d6db723	0.05803598
135	0x3c761acc	0.015021037
136	0x3d83c731	0.06434477
137	0xbdad72a5	-0.08469132
138	0xbdb764e1	-0.08954788
139	0x3cd7e7ff	0.026355742
140	0x3d0ba2d7	0.034090843
141	0xbdcc7034	-0.099823385
142	0xbd8e4607	-0.069469504
143	0xbdeceb4c	-0.11568317
144	0x3dbeb62b	0.093120895
145	0x3d9371d7	0.071994476
146	0xbdbc4aee	-0.09193979
147	0x3ce68f66	0.02814455
148	0xbccd146b	-0.02503415
149	0x3dc688b8	0.09694046
150	0xbdddaa9f	-0.10823559
151	0xbdad23f0	-0.0845412
152	0xbdcbf84a	-0.09959467
153	0x3d8af337	0.06784671
154	0xbd64a3cc	-0.05582027
155	0x3d96a011	0.07354749
156	0x3d210a18	0.039316267
157	0xbd238d41	-0.039929632
158	0xbc9e7d55	-0.019346872
159	0xbd3b84ee	-0.04578107
160	0x3d466b3e	0.048442118
161	0xbd5feebf	-0.054671045
162	0x3d0a0ca6	0.03370347
163	0xbc594dee	-0.013263209
164	0xbdc75cee	-0.09734522
165	0xbdab1428	-0.08353454
166	0xbdba3264	-0.090916425
167	0x3d812fc5	0.063079394
168	0x3ca3e573	0.02000687
169	0xbc4db4cc	-0.012555312
170	0xbd8d25da	-0.06891985
171	0xbdf5d248	-0.120029986
172	0xbd485f12	-0.04891879
173	0xbdbda818	-0.09260577
174	0xbdebdefa	-0.11517139
175	0xbdfcf075	-0.12350551
176	0xbda47709	-0.08030517
177	0xbe051625	-0.12996729
178	0x3d33c202	0.043886192
179	0x3d31a98b	0.04337458
180	0x3d0e54e7	0.034748938
181	0xbdcd8a40	-0.10036135
182	0x3d92a62a	0.071605995
183	0x3cb35fe2	0.021896306
184	0x3d410291	0.04712159
185	0xbd0fd94e	-0.035119347
186	0x3d73dc64	0.059536353
187	0xbde6fe29	-0.11278946
188	0x3d40da30	0.04708308
189	0x3db96b46	0.09053664
190	0x3d39ac14	0.045330122
191	0xbddb4d1b	-0.10708066
192	0xbc9290ea	-0.017891366
193	0xbc4345a6	-0.011918461
194	0x3d8b0a63	0.067890905
195	0xbd3fa841	-0.04679132
196	0x3ca80fdb	0.020515373
197	0xbcebaa0d	-0.02876761
198	0xbc7d9b4b	-0.015478919
199	0x3b048630	0.0020221584
200	0xbd87803e	-0.06616257
201	0xbda3256e	-0.079661235
202	0x3dc2e1d1	0.09515727
203	0x3dc8d8a9	0.0980695
204	0x3c13aa5e	0.009012787
205	0x3dc8a012	0.09796156
206	0x3da7b51c	0.08188841
207	0xbd9dd400	-0.077064514
208	0xbd33b93f	-0.043877836
209	0xbd7243bc	-0.059146628
210	0x3cefef43	0.029288894
211	0x3bf3bbb2	0.0074381465
212	0x3b2657ac	0.0025381846
213	0x3dbec88c	0.09315595
214	0xbd563e51	-0.052305523
215	0xbd559bda	-0.052150585
216	0xbdbf87db	-0.09352084
217	0xbce30fc2	-0.027717475
218	0x3ddb7392	0.10715403
219	0xbd425f5f	-0.047454234
220	0x3ba405c0	0.0050055683
221	0x3d33b23f	0.04387116
222	0xbdabcc5e	-0.08388589
223	0xbd955c0c	-0.07292947
224	0x3db415df	0.08793234
225	0xbd56403a	-0.052307345
226	0xbd81864c	-0.06324443
227	0xbc1d8dac	-0.009616297
228	0xbc8c3d5d	-0.017119104
229	0x3d02299a	0.031777956
230	0x3d4f98c9	0.050682817
231	0xbdaf19c8	-0.08549839
232	0x3de4f16b	0.11178859
233	0xbddb18a8	-0.10698062
234	0x3d35ea6f	0.044413026
235	0xbce60f50	-0.028083473
236	0xbd3699a4	-0.044580117
237	0x3dc5ab45	0.09651808
238	0xbdf62dda	-0.12020464
239	0xbbced6e4	-0.006312238
240	0x3d82451f	0.0636084
241	0x3dc18c62	0.09450604
242	0xbde43926	-0.11143713
243	0x3a3815f8	0.00070223166
244	0x3dd951f2	0.10611333
245	0xbdfb0fec	-0.12258896
246	0x3c4fa3cc	0.01267333
247	0xbdb14638	-0.08655971
248	0x3c6b2ce9	0.014353969
249	0xbdf5ea19	-0.12007541
250	0x3d56c96f	0.052438196
251	0xbd2299f2	-0.039697595
252	0x3d837ded	0.06420503
253	0xbc1d2830	-0.009592101
254	0xbd101d8e	-0.035184436
255	0xbcf6c65e	-0.030123886

attn_layers.layers.0.1.to_v.weight f4 [64, 74]
0	0x3d10aaf4	0.035319284
1	0x3d169d91	0.03677136
2	0xbdac8095	-0.084229626
3	0xbd102138	-0.03518793
4	0xbdbd853c	-0.09253928
5	0xbdbb9b51	-0.09160484
6	0x3db40141	0.08789302
7	0x3dbb1156	0.09134166
8	0xbd92c4dd	-0.07166455
9	0xbdce994a	-0.10087831
10	0xbdb0cd65	-0.08632926
11	0x3d7f209f	0.06228697
12	0x3ddd9052	0.108185425
13	0xbb0f558d	-0.002187106
14	0xbd127290	-0.035753787
15	0xbdcc595d	-0.09977982
16	0xbc6b6a4c	-0.014368605
17	0x3d732405	0.059360523
18	0x3d54fc91	0.05199868
19	0xbd650eea	-0.055922426
20	0xbd66b752	-0.05632717
21	0x3c25e874	0.010126222
22	0x3d3cec8d	0.04612403
23	0x3dbae0ac	0.09124884
24	0x3ce5a585	0.028033027
25	0x3d8a0858	0.06739873
26	0x3db6ce7d	0.08926103
27	0xbc02ed0d	-0.007991088
28	0xbca348ca	-0.01993217
29	0x3d924b54	0.07143274
30	0x3c768dc8	0.015048452
31	0x3df40532	0.119150534
32	0x3d8dd0e2	0.06924607
33	0x3d09a979	0.033608887
34	0xbdd83462	-0.10556866
35	0x3d995121	0.07486177
36	0xbd1ad2c5	-0.03779866
37	0xbc8205eb	-0.015871963
38	0x3d5f5275	0.054521997
39	0x3d2765c9	0.040868554
40	0xbcf2b5cf	-0.029627709
41	0xbafc33c3	-0.00192415
42	0xbda42da5	-0.080165185
43	0xbd3ad4fb	-0.04561327
44	0xbcac362f	-0.02102193
45	0x3c1746a2	0.009233149
46	0xbca3401e	-0.019928034
47	0x3d8179f7	0.06322091
48	0xbbc7dd71	-0.006099396
49	0xbd8d3bbd	-0.0689616
50	0x3d1e7d07	0.038693454
51	0xbcf41553	-0.029795324
52	0x3dba0bb9	0.09084267
53	0xb92d2cf2	-0.00016515309
54	0x3dd72402	0.10504915
55	0x3dca4a9f	0.09877514
56	0x3df00113	0.11718955
57	0x3c197bd7	0.009367905
58	0x3da427ba	0.0801539
59	0xbc091325	-0.008366381
60	0x3cde675a	0.027148891
61	0xbd80ad43	-0.06283047
62	0xbdcaa21b	-0.098942004
63	0xbdc6335a	-0.09677763
64	0xbdf3b07f	-0.11898898
65	0xbcf9057c	-0.030398123
66	0xbdd99055	-0.10623232
67	0x3dab83dc	0.083747596
68	0xbdd392dc	-0.103307456
69	0x3dacc47a	0.084359124
70	0x3c91f7f0	0.017818421
71	0xbdb9f8a2	-0.09080626
72	0x3dbfdbbf	0.09368085
73	0x3d0af779	0.033927415
74	0xbc28f691	-0.010312692
75	0x3dc701e7	0.0971716
76	0xbdcdf239	-0.10055966
77	0x3da2083a	0.07911725
78	0xbc57a231	-0.013161228
79	0x3b2c2296	0.0026265732
80	0x3d35eef4	0.044417337
81	0xbd3be509	-0.04587272
82	0xbc0fab73	-0.008768904
83	0x3d9f0a31	0.07765616
84	0x3d327ace	0.043574147
85	0x3d5f8ff4	0.054580644
86	0x3dbbcff9	0.09170527
87	0xbdaa8396	-0.08325879
88	0xbcbced12	-0.023062263
89	0x3dd7f090	0.105439305
90	0xbd0b3a75	-0.033991296
91	0x3d09c9d2	0.033639736
92	0x3d3bf847	0.045891073
93	0xbdccd309	-0.10001189
94	0x3b6a250d	0.003572765
95	0x3dd9c539	0.1063332
96	0xbc8f8029	-0.017517166
97	0xbdf0302b	-0.11727937
98	0xbde22614	-0.11042419
99	0x3cdcbc57	0.026945276
100	0xbcd7b9ed	-0.026333774
101	0xbd930248	-0.071781695
102	0x3db6aeb6	0.08920042
103	0xbd8f47be	-0.069961056
104	0xbda5444f	-0.080696695
105	0x3d96f3c1	0.07370711
106	0x3dac955e	0.08426927
107	0x3d128ce4	0.035778895
108	0x3dfc01c5	0.12305025
109	0x3a23530f	0.0006230333
110	0x3db338a3	0.08751037
111	0xbd9381f4	-0.07202521
112	0xbdc286bf	-0.09498357
113	0x3c3594f8	0.01108288
114	0xbd96ef3c	-0.07369849
115	0xbc29e330	-0.010369107
116	0xbccd39db	-0.025052002
117	0x3c936637	0.017993076
118	0xbd014db8	-0.03156826
119	0xbc49f679	-0.01232683
120	0xbdd832c6	-0.10556559
121	0xbd3cfda0	-0.046140313
122	0x3d778e9f	0.06043875
123	0x3dcb9833	0.09941139
124	0x3dc6b4c1	0.09702445
125	0x3c868098	0.01641874
126	0xbcc3b6d8	-0.023890898
127	0x3dc7fa79	0.09764571
128	0x3bf72c16	0.0075430973
129	0x398a4ec3	0.00026380093
130	0x3a190074	0.00058365543
131	0xbd90626c	-0.070500225
132	0xbcf0136f	-0.029306142
133	0xbdd49105	-0.10379223
134	0xbbff575c	-0.0077923965
135	0xbdd7d224	-0.10538128
136	0x3c87017e	0.016480204
137	0x3b434e24	0.0029801214
138	0x3d3060ad	0.043060947
139	0xbd9bdf8d	-0.07610998
140	0x3b61bec1	0.0034445974
141	0xbcf0bf5b	-0.02938812
142	0xbd8ad1cd	-0.067782976
143	0x3db97535	0.090555586
144	0xbde62f1f	-0.112394564
145	0x3da9fca3	0.0830014
146	0xbce4b6a4	-0.027919121
147	0xbd7eb993	-0.062188696
148	0xbdedd28c	-0.11612424
149	0xbdde9747	-0.108686976
150	0xbd3f89ab	-0.04676215
151	0x3d966bc6	0.07344775
152	0x3c91edf2	0.017813656
153	0xbdb0e89e	-0.08638118
154	0x3dce70f4	0.10080138
155	0x3dc6ef12	0.09713568
156	0x3d41cdbb	0.04731534
157	0x3dd6ba0f	0.104847066
158	0x3d90276d	0.0703877
159	0x3c59c1e5	0.013290857
160	0x3d96883e	0.07350205
161	0xbd903608	-0.07041556
162	0xbc09b92f	-0.008405968
163	0xbd6c73d4	-0.05772765
164	0xbc5f3370	-0.0136231035
165	0xbdc1e3ed	-0.094673015
166	0x3d9e99e1	0.07744194
167	0xbd43519b	-0.047685247
168	0x3d05519f	0.032548543
169	0x3dda9c75	0.10674373
170	0x3d20b5ee	0.039236
171	0xbb56a0d7	-0.0032749677
172	0x3ddcc84a	0.107803896
173	0xbe029a0d	-0.12754078
174	0x3de3839f	0.11109089
175	0xbdcc52ee	-0.09976755
176	0x3ddaeeb1	0.10690058
177	0x3aeb0020	0.0017929114
178	0xbd997faa	-0.07495053
179	0xbd2df46f	-0.04246944
180	0xbd8b23ec	-0.06793961
181	0x3d87c04c	0.066284746
182	0x3dce96f6	0.10087387
183	0x3d878369	0.066168614
184	0x3daa7e1a	0.08324833
185	0x3dd862d6	0.105657265
186	0xbdd81268	-0.10550386
187	0x3d42d4fe	0.047566406
188	0x3c415861	0.011800856
189	0x3d8869aa	0.06660779
190	0x3c8d6988	0.017262235
191	0x3c06b6ef	0.008222326
192	0x3d8d6d9f	0.06905674
193	0xbd4e32d8	-0.050341457
194	0xbda99ee9	-0.08282263
195	0xbda67ec6	-0.08129649
196	0x3da68910	0.08131611
197	0x3a86e0d1	0.0010290389
198	0xbdc35400	-0.09537506
199	0x3d1db996	0.038507067
200	0xb9d2f1de	-0.00040234526
201	0xbd70b272	-0.05876393
202	0x3de45fd6	0.11151092
203	0x3da46f81	0.0802908
204	0x3dc96119	0.09832973
205	0xbc8b4a46	-0.01700319
206	0xbd888c1f	-0.06667351
207	0xbdc0233f	-0.09381723
208	0x3caf5d86	0.0214069
209	0xbd9d4bdf	-0.07680487
210	0x3d8e54c8	0.069497645
211	0xbdcd34cc	-0.10019836
212	0xbd9e7bd0	-0.07738459
213	0x3c91c10e	0.017792251
214	0x3d02de4b	0.031950276
215	0xbc3d06ee	-0.011537297
216	0xbca73f02	-0.020415787
217	0xbd6c7f58	-0.057738632
218	0xbd04436a	-0.032290854
219	0x3ca471d8	0.020073816
220	0xbdd10c92	-0.10207476
221	0xbca5b50e	-0.020227935
222	0xbc8cebc3	-0.017202264
223	0xba31bf48	-0.0006780517
224	0x3db3b37b	0.087744676
225	0xbdbfb950	-0.093615174
226	0x3d3689c8	0.044564992
227	0x3d3356d8	0.043783993
228	0x3d00a3d3	0.031406235
229	0xbd0f1282	-0.03492976
230	0x3d961b7b	0.0732946
231	0xbd9ffb61	-0.078116186
232	0xbd394e4f	-0.045240697
233	0xbb07ac04	-0.0020701895
234	0xbc09aa94	-0.008402485
235	0xbddccfd1	-0.10781825
236	0x3d84fe18	0.06493777
237	0x3d803faa	0.06262143
238	0xbde5cab6	-0.11220305
239	0xba22731f	-0.0006196964
240	0xbdcb1685	-0.09916405
241	0xbccf961d	-0.025340134
242	0x3c2f5ad4	0.010702807
243	0x3dcf3648	0.10117775
244	0x3d9cdcab	0.076592766
245	0x3d72ee21	0.05930913
246	0x3c97b614	0.018519439
247	0xbdeb0778	-0.11476034
248	0xbd3ddd1a	-0.046353437
249	0x3dc6adf0	0.09701145
250	0x3c4e12a6	0.012577688
251	0xbcc855c2	-0.024454955
252	0xbd353595	-0.044240553
253	0x3d7b8b2b	0.061412018
254	0x3d9f00aa	0.077637985
255	0xbbf77489	-0.007551734

attn_layers.layers.0.1.to_out.weight f4 [74, 64]
0	0x3da296ee	0.07938944
1	0x3d79c8aa	0.060982384
2	0x3d55dcca	0.052212514
3	0xbdba7375	-0.09104053
4	0x3dfa08b2	0.1220869
5	0xbce268ed	-0.027637923
6	0x3d8f97e0	0.0701139
7	0x3dde1bea	0.10845168
8	0x3d058b6a	0.03260366
9	0xbdc09ffb	-0.09405514
10	0xbbaaeb1a	-0.0052160146
11	0xbd968f22	-0.07351519
12	0xbddd611a	-0.10809536
13	0x3dbe2e33	0.092861556
14	0xbd395ed1	-0.04525644
15	0x3dc6f6c7	0.09715038
16	0xbd9b3718	-0.07578868
17	0x3d6abc1d	0.057308305
18	0xbc013b32	-0.007887648
19	0xbc2a02da	-0.010376656
20	0x3d939419	0.07205982
21	0xbdeac50c	-0.11463365
22	0x3ddc5db8	0.10760063
23	0xbd0cc174	-0.03436418
24	0x3d6e5fbc	0.05819677
25	0xbd9c293e	-0.07625054
26	0xbd802838	-0.06257671
27	0x3a771fc5	0.0009427036
28	0xbce51414	-0.027963676
29	0xbd479a00	-0.04873085
30	0x3d8bc871	0.068253405
31	0xbbfe2382	-0.0077556977
32	0xbd66c37c	-0.056338772
33	0xbc802240	-0.015641332
34	0x3de1525f	0.11002039
35	0xbdded355	-0.10880152
36	0xbcb53eee	-0.022124734
37	0xbd01c49b	-0.03168164
38	0x3d6cdac4	0.05782582
39	0x3dcccbea	0.09999831
40	0xbda2c3d8	-0.079475105
41	0xbcd25690	-0.025676042
42	0xbde615bc	-0.11234614
43	0xbdd6ee78	-0.10494703
44	0x3d4111e1	0.04713619
45	0xbc26b2a7	-0.01017443
46	0x3dcf7bdf	0.101310484
47	0xbc66dc62	-0.014090629
48	0xbd7f77f3	-0.062370252
49	0xbd258852	-0.04041321
50	0x3c2a06cb	0.010377596
51	0x3da7edfe	0.0819969
52	0x3c820f69	0.015876489
53	0x3cf6f192	0.030144487
54	0xbd36b671	-0.044607583
55	0x3d5acd5d	0.053418506
56	0xbda71632	-0.0815853
57	0x3d852802	0.065017715
58	0xbbdae7c4	-0.0066804606
59	0x3dd199f1	0.1023444
60	0xbd841902	-0.06450082
61	0x3e0561e3	0.13025622
62	0x3d993021	0.07479883
63	0xbdcd255d	-0.10016892
64	0xbd20c93f	-0.039254423
65	0x3de3e3d7	0.111274414
66	0x3d3a8caa	0.045544304
67	0x3dda1a8c	0.10649595
68	0xbcb1e416	-0.021715205
69	0xbd59cf09	-0.05317596
70	0x3da63b39	0.081167646
71	0xbd2ee199	-0.042695615
72	0x3dfb8bc7	0.1228252
73	0x3d9087aa	0.07057126
74	0x3e0189dc	0.12650245
75	0x3dbe0b26	0.0927947
76	0xbd2956a4	-0.041342393
77	0x3ddafb4a	0.10692461
78	0xbdc1137a	-0.09427543
79	0x3df6b6f3	0.120466135
80	0xbb508560	-0.003181778
81	0xbd63c76d	-0.05561011
82	0x3d197565	0.03746547
83	0x3d8b0569	0.06788141
84	0xbaa03fbd	-0.0012226027
85	0x3db64b8d	0.08901129
86	0xbbe8c8e1	-0.0071040248
87	0xbe06000f	-0.1308596
88	0x3d9f1de4	0.07769373
89	0x3a3e31b4	0.0007255331
90	0x3d8c4931	0.06849898
91	0xbd6b4ca7	-0.05744615
92	0x3daa7a33	0.08324089
93	0x3d362865	0.044472117
94	0xbd8e4e0c	-0.0694848
95	0xbdde6cf9	-0.10860629
96	0xbc29d143	-0.010364833
97	0x3cc3f285	0.023919353
98	0xbd9e1376	-0.07718556
99	0xbd2525ec	-0.04031937
100	0xbce1289d	-0.027485186
101	0xbdf7112d	-0.12063823
102	0xbd5d8cf5	-0.054089505
103	0xbd85140d	-0.06497965
104	0x3be51672	0.006991201
105	0x3dfb9352	0.122839585
106	0x3da33173	0.07968416
107	0x3d5857c1	0.052818064
108	0x3de2066c	0.11036381
109	0x3c4d02ee	0.0125129055
110	0x3d18cb3e	0.0373032
111	0xbd902f01	-0.07040215
112	0x3d849eb9	0.064755864
113	0x3d85bb24	0.06529835
114	0x3cdf2244	0.027238019
115	0xbd999013	-0.07498183
116	0x3d18e842	0.037330873
117	0x3c87edab	0.016592821
118	0x3d95bf90	0.07311928
119	0xbb9e7501	-0.0048357253
120	0x3de9a40b	0.11408242
121	0xbcf7fb82	-0.030271295
122	0x3d8daed7	0.06918114
123	0x3cb8c061	0.02255267
124	0xbdca0af1	-0.09865368
125	0x3d4a503c	0.049392924
126	0xbdeb571f	-0.114912264
127	0xbddb777a	-0.10716148
128	0x3dcaaa38	0.09895748
129	0xbd99eb35	-0.07515565
130	0xbda63cc3	-0.08117058
131	0xbd11d220	-0.03560078
132	0x3dd2dba8	0.10295802
133	0x3df917da	0.121627524
134	0xbd4bf8bf	-0.04979777
135	0xbd9cf33c	-0.07663581
136	0xbd907614	-0.070537716
137	0xbd74c152	-0.059754677
138	0xbdf5d656	-0.12003772
139	0xbd733c6d	-0.0593838
140	0x3cb5a59d	0.022173697
141	0xbd0d0618	-0.03442964
142	0xbdf3d319	-0.11905498
143	0xbca39e5a	-0.019972969
144	0x3dea1693	0.11430087
145	0x3cf48bd3	0.02985183
146	0x3d26b547	0.040700223
147	0xbdc020be	-0.09381245
148	0xbdce8b75	-0.10085193
149	0xbda6b9d0	-0.0814091
150	0xbd24a620	-0.04019749
151	0xbcb785c2	-0.022402648
152	0xbd649ca8	-0.05581346
153	0x3d2bc052	0.041931458
154	0x3da5e1b9	0.08099694
155	0xbcff6a6a	-0.031178672
156	0xbde5084e	-0.111832246
157	0xbd4874f7	-0.04893967
158	0x3ddd7943	0.108141445
159	0xbdb5c962	-0.08876301
160	0xbd4722d7	-0.04861721
161	0x3d52a203	0.051424038
162	0xbcdf147b	-0.027231446
163	0x3de802b6	0.11328642
164	0xbd23cc57	-0.039989796
165	0x3db01f9a	0.085997775
166	0x3d8b75ea	0.068096
167	0xbde43b5c	-0.111441344
168	0x3df53443	0.11972859
169	0xbda25edc	-0.07928249
170	0x3da577e0	0.08079505
171	0xbda7ad9a	-0.08187409
172	0xbd364221	-0.04449666
173	0x3d42301c	0.047409162
174	0xbc663207	-0.014050013
175	0xbdb0458a	-0.086070135
176	0x3dae9e38	0.085262716
177	0x3d1699a3	0.036767613
178	0x3af0cdd6	0.0018371891
179	0x3dd7ddcc	0.10540351
180	0x3d4ab9b6	0.049493514
181	0x3debfda8	0.115229905
182	0x39af478d	0.0003343191
183	0xbdd42ac1	-0.10359717
184	0x3d9a1447	0.07523399
185	0xbde08e27	-0.109646134
186	0x3d4aac83	0.049480926
187	0xbaf5b11e	-0.0018744802
188	0xbc154588	-0.009110816
189	0xbd5c9545	-0.053853292
190	0xbda217f1	-0.07914723
191	0xbdd8721a	-0.10568638
192	0x3ce47f16	0.02789263
193	0xbc7066f0	-0.01467298
194	0xbd92254c	-0.0713602
195	0x3ddb8b26	0.107199
196	0x3da0f43d	0.07859085
197	0x3cbb3006	0.022850048
198	0x3d05fa10	0.03270918
199	0xbc8491a5	-0.01618273
200	0x3dbd62d4	0.092473656
201	0xbdf75e50	-0.120785356
202	0xbda9618b	-0.08270558
203	0x3dbd1693	0.09232821
204	0x3daedf98	0.08538741
205	0x3bbf2df6	0.0058343364
206	0xbd275046	-0.04084804
207	0x3d5065f2	0.050878473
208	0x3dbb1e4a	0.091366366
209	0xbd2819bb	-0.041040163
210	0x3d642462	0.05569876
211	0x3d7c07de	0.06153094
212	0x3c7ebdd2	0.015548186
213	0xbda1a7d0	-0.07893336
214	0x3c6cc81c	0.014452007
215	0xbcce5b57	-0.025190039
216	0x3d0e0cce	0.03468018
217	0xbdb00d1a	-0.08596249
218	0x3d3b041e	0.045658223
219	0x3dd5fc86	0.10448556
220	0xbd79d90f	-0.06099802
221	0x3dbfb52e	0.09360729
222	0x3d65ec8a	0.056133784
223	0xbc35f226	-0.011105096
224	0xbd995cb2	-0.07488383
225	0x3d8175c7	0.06321292
226	0xbdb4f7bc	-0.08836314
227	0x3d98f998	0.07469481
228	0xbdd416fa	-0.10355945
229	0xbd83a52b	-0.06427988
230	0x3c28098f	0.010256185
231	0x3d78129a	0.060564615
232	0xbdeeb068	-0.116547406
233	0x3d1dcc78	0.038525075
234	0xbb76a6b8	-0.0037635993
235	0xbd99774a	-0.07493456
236	0xbd01433f	-0.03155827
237	0x3dd270bf	0.10275411
238	0xbdbbe018	-0.09173602
239	0xbd782d73	-0.06059022
240	0x3cad2b00	0.021138668
241	0xbdcfda9f	-0.101491205
242	0x3c3dcc58	0.011584364
243	0x3d119410	0.035541594
244	0x3d38353d	0.044972647
245	0x3d23bc4d	0.0399745
246	0x3dd7f9a1	0.1054566
247	0x3b814015	0.0039444068
248	0x3dea62a4	0.114445955
249	0xbd75da20	-0.060022473
250	0x3ca91a8e	0.020642545
251	0xbda7d89d	-0.081956126
252	0xbdfa8660	-0.12232661
253	0x3ca9260f	0.02064803
254	0xbc77b8ad	-0.015119714
255	0xbd82f64b	-0.06394633

attn_layers.layers.1.0.0.weight f4 [74]
0	0x3f7d2efa	0.98899806
1	0x3f7ea9a6	0.9947761
2	0x3f8094b2	1.0045378
3	0x3f7fc486	0.99909246
4	0x3f80da9e	1.0066717
5	0x3f7dc488	0.9912801
6	0x3f7c7e31	0.9863005
7	0x3f7da159	0.9907432
8	0x3f80cb8f	1.0062121
9	0x3f8130b7	1.0092992
10	0x3f8064b9	1.0030738
11	0x3f7dbb10	0.9911356
12	0x3f7ea8b3	0.99476165
13	0x3f81751a	1.0113862
14	0x3f801ff9	1.0009757
15	0x3f7fedf7	0.9997248
16	0x3f80c315	1.0059534
17	0x3f7f26b3	0.99668425
18	0x3f7f58fc	0.99745154
19	0x3f7f2aac	0.9967449
20	0x3f7e705e	0.9939021
21	0x3f806913	1.0032066
22	0x3f7f62ac	0.99759936
23	0x3f80d5e6	1.0065277
24	0x3f7e9c8f	0.9945764
25	0x3f8073c3	1.0035328
26	0x3f809e65	1.0048338
27	0x3f7ff63f	0.99985117
28	0x3f7f1fb0	0.99657726
29	0x3f81e41a	1.0147736
30	0x3f7f48b8	0.99720335
31	0x3f8249c1	1.0178758
32	0x3f7f9718	0.99839926
33	0x3f8011b6	1.0005405
34	0x3f80361a	1.001651
35	0x3f814ecc	1.0102172
36	0x3f7fd258	0.99930334
37	0x3f7f959e	0.9983767
38	0x3f7e316a	0.9929415
39	0x3f7cdafa	0.9877163
40	0x3f7f8569	0.9981294
41	0x3f80a153	1.0049232
42	0x3f7f77f5	0.99792415
43	0x3f7ee38f	0.99565977
44	0x3f80d441	1.0064775
45	0x3f7ee243	0.99564
46	0x3f7d18ca	0.9886595
47	0x3f808f61	1.0043756
48	0x3f7faaa0	0.9986973
49	0x3f7e3109	0.9929357
50	0x3f7e798b	0.9940421
51	0x3f7f625e	0.9975947
52	0x3f80e284	1.0069127
53	0x3f8014ff	1.0006407
54	0x3f7d5942	0.9896432
55	0x3f80332e	1.0015619
56	0x3f8153b3	1.0103668
57	0x3f801e2e	1.000921
58	0x3f809f57	1.0048627
59	0x3f7e0e0a	0.9924017
60	0x3f80b62f	1.0055598
61	0x3f805bae	1.0027978
62	0x3f80144a	1.0006192
63	0x3f802fb9	1.0014564
64	0x3f7f6f4a	0.9977919
65	0x3f803043	1.0014728
66	0x3f7fcb89	0.99919945
67	0x3f7fbb33	0.9989502
68	0x3f802196	1.001025
69	0x3f80f18c	1.0073714
70	0x3f7ee295	0.99564487
71	0x3f7f5eb4	0.9975388
72	0x3f808dc4	1.0043263
73	0x3f7fdf3c	0.99950004

attn_layers.layers.1.0.0.bias f4 [74]
0	0x3b10925b	0.002205989
1	0xbaaa88e5	-0.0013010768
2	0x3ad667f6	0.0016357887
3	0xba38e078	-0.00070524914
4	0x39e8f434	0.00044432434
5	0x3a750221	0.00093463255
6	0x3be18f06	0.006883505
7	0x3b0cd07b	0.0021486569
8	0x3ad7571e	0.0016429161
9	0x3a289d2c	0.0006432112
10	0x3afbcfce	0.0019211711
11	0x3bd4acfb	0.0064903474
12	0x3c22b861	0.009931655
13	0xbb2aa3b7	-0.0026037523
14	0x3b86652f	0.0041014175
15	0x3b28f7ec	0.0025782539
16	0x3a4540ca	0.0007524608
17	0xb8c2199a	-9.2554095e-05
18	0xba2e948a	-0.0006659707
19	0xbb231218	-0.002488261
20	0xbbba3e61	-0.0056837057
21	0xba7c747f	-0.00096303964
22	0xbb11b139	-0.0022230877
23	0xba838771	-0.0010034872
24	0x3997e4bc	0.00028971385
25	0xbad56234	-0.0016279877
26	0x3aca8bec	0.0015453077
27	0x3bb4fa37	0.005522992
28	0x3bb883c9	0.0056309444
29	0xbb7bc23e	-0.0038415338
30	0x3afc72e1	0.0019260311
31	0xbb511c9a	-0.0031907917
32	0x3c15b8ea	0.009138325
33	0xb9b3f1bc	-0.00034321647
34	0xbb4244d0	-0.0029643066
35	0x3b4bce8d	0.0031098456
36	0xba613a36	-0.0008591743
37	0x3a55c2dd	0.0008154342
38	0x3b74a4ff	0.003732979
39	0x3b0b371c	0.0021242565
40	0x3a22f90b	0.000621692
41	0xbab6e4b2	-0.0013953655
42	0x3b4ab389	0.0030929765
43	0xba4aaff8	-0.000773191
44	0x3ac3a1e1	0.0014925563
45	0x3a549b1c	0.00081102713
46	0x3ba3c7df	0.0049981917
47	0xbb779a40	-0.003778115
48	0xbb2863c9	-0.0025694242
49	0x3ad80121	0.0016479829
50	0xbaea96ee	-0.0017897764
51	0x3bb4f198	0.0055219643
52	0xbb3e4370	-0.0029031895
53	0x3b1b8f2f	0.0023736467
54	0x3b9a7661	0.004713819
55	0x3acfb04b	0.0015845386
56	0xb9b5d6a5	-0.00034682933
57	0xb9eb090c	-0.00044829433
58	0xbaef5871	-0.001826061
59	0xbbe51b61	-0.006991789
60	0xbbf7fe0c	-0.0075681265
61	0xbbb70873	-0.005585724
62	0xbb0358ed	-0.0020042018
63	0xbba705d9	-0.0050971326
64	0xbb83b1dd	-0.0040190057
65	0xbb559943	-0.0032592572
66	0xbb84387d	-0.0040350542
67	0xbb8f376e	-0.0043706214
68	0xbbf00494	-0.0073247645
69	0x3824a10a	3.9250626e-05
70	0xbc15ce3d	-0.009143409
71	0xbbc659a8	-0.0060531683
72	0xbb2cef52	-0.0026387763
73	0xbb8f1159	-0.0043660817

attn_layers.layers.1.1.ff.0.0.weight f4 [296, 74]
0	0x3c26898f	0.010164632
1	0xbd8c70a2	-0.068574205
2	0x3d8a1dc3	0.06743958
3	0xbd0a68a8	-0.033791214
4	0x3b1f47f8	0.0024304371
5	0x3dc7c8f3	0.09755125
6	0xbd901cea	-0.07036765
7	0x3dda6796	0.10664289
8	0x3d8378db	0.06419536
9	0xbd92803c	-0.07153365
10	0xbda9b03a	-0.08285566
11	0xbdd28224	-0.102787286
12	0x3da26b6e	0.07930647
13	0x3c1a60db	0.009422506
14	0xbc4a30dc	-0.012340751
15	0x3dc72c2c	0.09725222
16	0xbcccda39	-0.0250064
17	0x3d347112	0.044053145
18	0x3cb677f1	0.02227399
19	0xbc6f9bf3	-0.014624584
20	0xbd80c78d	-0.06288061
21	0xbda1282e	-0.07868992
22	0xbde27d40	-0.11059046
23	0x3db8c365	0.090216435
24	0x3dc83911	0.097765096
25	0x3dddbedb	0.108274184
26	0x3d6578f6	0.05602356
27	0xbd021695	-0.031759817
28	0xbd8ac05b	-0.0677497
29	0xbdf36962	-0.118853346
30	0xbd28ed86	-0.041242145
31	0xbda72ff3	-0.081634425
32	0xbd048de1	-0.03236187
33	0xbdac6d47	-0.084192805
34	0xbdb2589f	-0.087083094
35	0xbaa3cace	-0.0012496354
36	0xbda738b4	-0.08165112
37	0x3c5de8e2	0.013544293
38	0xbb1e235b	-0.002412996
39	0x3db87de0	0.09008384
40	0x3d7e49e1	0.062082175
41	0x3d62eb9a	0.05540047
42	0xbd9d807e	-0.076905236
43	0x3cbcedc9	0.023062604
44	0xbd8584c2	-0.06519462
45	0x3d8a2810	0.067459226
46	0x3ddf160a	0.108928755
47	0xbdc15741	-0.094404705
48	0x3dc74dbc	0.097316235
49	0xbd99e090	-0.07513535
50	0xbd4428a0	-0.047890306
51	0xbd857776	-0.06516926
52	0x3d0c1fef	0.03421014
53	0xbdd8f463	-0.10593488
54	0xbd91992f	-0.071092956
55	0x3ca97dcb	0.020689866
56	0xbd4ac014	-0.049499586
57	0x3dbac884	0.091202766
58	0xbc3fcc28	-0.0117063895
59	0x3d3720a5	0.044708867
60	0x3d5805d8	0.052739948
61	0xbd9bf90d	-0.07615862
62	0x3dce9398	0.10086745
63	0x3d985abd	0.07439182
64	0x3d3fa62c	0.046789333
65	0xbdd66d67	-0.104700856
66	0x3dd6585e	0.104660735
67	0xbda6050b	-0.081064306
68	0x3dcd424b	0.1002241
69	0x3de76bbb	0.11299845
70	0x3b4e919d	0.0031519898
71	0x3d549772	0.051902242
72	0xbdb37e58	-0.087643325
73	0x3da34d3d	0.079737164
74	0x3c1565fb	0.009118552
75	0x3cb6a607	0.022295965
76	0xbcacd2ac	-0.02109655
77	0x3d9a860b	0.07545098
78	0xbdb9c9fe	-0.0907173
79	0x3c68e02f	0.014213606
80	0x3d39bf05	0.045348186
81	0x3d8124cb	0.06305846
82	0xbd76dabb	-0.06026719
83	0x3cac5b91	0.021039756
84	0x3d2b576c	0.04183142
85	0xbd7af5b3	-0.061269473
86	0xbd5f429e	-0.05450689
87	0x3c8eac3e	0.017416116
88	0xbd50aab2	-0.050944038
89	0x3dec76a1	0.11546064
90	0x3cbf2f94	0.023338117
91	0xbd140a3d	-0.036142576
92	0x3cf9a735	0.030475238
93	0xbd3a1636	-0.04543134
94	0xbb6ea601	-0.0036414864
95	0x3ced4889	0.028965252
96	0x3d3a6fd1	0.045516793
97	0x3cb0b048	0.021568432
98	0x3b282cb7	0.0025661418
99	0xbd597d21	-0.053097848
100	0xbdd9d0ab	-0.106355034
101	0x3d9e466a	0.07728274
102	0xbcad64af	-0.021166174
103	0xbdf5cf44	-0.120024234
104	0x3db9d927	0.09074622
105	0x3dddcf6a	0.10830577
106	0xbcd02e5f	-0.025412736
107	0x3bb33518	0.0054689758
108	0xbdac067b	-0.083996736
109	0x3d9ebcc6	0.077508494
110	0xbdca34f3	-0.098733805
111	0x3da6a758	0.08137387
112	0x3d173da0	0.036924005
113	0x3dba493b	0.09095999
114	0xbd85a4ca	-0.06525572
115	0xbaac6aa0	-0.0013154335
116	0x3bc3d1d7	0.0059759426
117	0x3d343b96	0.044002138
118	0x3d0c8686	0.03430798
119	0x3cf57fd0	0.029968172
120	0x3dee1e44	0.116268665
121	0x3cba0d48	0.022711411
122	0xbd9daa74	-0.07698527
123	0xbd62b668	-0.055349737
124	0x3d7acd9d	0.061231244
125	0x3de1b216	0.11020295
126	0xbdea3ad4	-0.11437002
127	0xbdcd3308	-0.10019499
128	0xbdc4dd54	-0.096125275
129	0x3db06f71	0.08615006
130	0xbd6e17d8	-0.058128208
131	0x3d73b4c3	0.05949856
132	0xbd5a01fa	-0.05322454
133	0x3d89d618	0.06730288
134	0xbb3ed51e	-0.0029118727
135	0xbd1ce1f3	-0.03830142
136	0x3db5979f	0.0886681
137	0x3ddf5b0a	0.10906036
138	0xbd35adf1	-0.044355337
139	0x3db8eda8	0.09029704
140	0xbdcb9865	-0.09941176
141	0xbdb93756	-0.090437576
142	0x3a63ead8	0.0008694357
143	0x3dd804a5	0.10547761
144	0x3c1d4239	0.009598308
145	0x3db88fb7	0.090117864
146	0x3d98f682	0.07468893
147	0x3d9617cf	0.0732876
148	0x3d1ca5ee	0.03824418
149	0xbdd8e564	-0.10590628
150	0xbdb1f5fc	-0.08689496
151	0xbdc38146	-0.09546141
152	0x3cf5b324	0.029992647
153	0x3c44fa91	0.01202263
154	0x3ccaf28b	0.024773857
155	0xbdee3054	-0.116303116
156	0x3d0c7c17	0.03429803
157	0xbd80eb0f	-0.06294834
158	0xbdec4417	-0.115364246
159	0x3caa486c	0.020786487
160	0xbadcd0dd	-0.0016846914
161	0xbdbb1da8	-0.09136516
162	0x3a819211	0.000988545
163	0x3d3b838f	0.04577976
164	0xbdf73f36	-0.120726034
165	0xbc055423	-0.008137736
166	0x3db19d5e	0.086725935
167	0x3dc4dd63	0.09612539
168	0xbd34ca14	-0.04413803
169	0xbd1d5f10	-0.038420737
170	0xbd814a13	-0.06312957
171	0xbdc3166f	-0.09525763
172	0xbd547a29	-0.051874314
173	0x3da8cc67	0.08242112
174	0x3dca60a3	0.09881713
175	0xbd1941a1	-0.037416104
176	0x3c573a04	0.013136391
177	0xbd9f367d	-0.07774065
178	0xbc3a38aa	-0.011366049
179	0x3d90e857	0.07075565
180	0x3d9eacdc	0.07747814
181	0xbc76be07	-0.0150599545
182	0xbdaa2e3b	-0.08309599
183	0x3bf5c606	0.007500413
184	0xbd44b5a1	-0.048024777
185	0x3d028517	0.031865206
186	0x3dde009c	0.1083996
187	0x3bb58978	0.005540069
188	0xbc3c823a	-0.011505658
189	0xbc3d3bd8	-0.011549912
190	0xbb771d40	-0.0037706643
191	0x3d02aaa5	0.03190102
192	0xbb26bd72	-0.0025442508
193	0xbdda4f79	-0.106596895
194	0x3de1803a	0.110107854
195	0xbd66e9a5	-0.056375165
196	0x3dee7a59	0.1164443
197	0xbb9ba2f0	-0.0047496483
198	0xbbf0d277	-0.007349308
199	0x3d708300	0.05871868
200	0xbd7b79af	-0.061395343
201	0x3b86b070	0.0041103885
202	0xbd3227f4	-0.043495134
203	0xbdb7a2bb	-0.08966585
204	0x3d94ae5b	0.07259818
205	0x3d9c0412	0.07617964
206	0x3d4b551f	0.049641725
207	0x3debc32a	0.11511834
208	0x3d64af60	0.055831313
209	0x3dd506ed	0.104017116
210	0xbcd02fdc	-0.025413446
211	0x3dababe1	0.08382393
212	0x3cb77430	0.02239427
213	0xbc1683b3	-0.009186673
214	0x3da70603	0.081554435
215	0xbdbea21b	-0.09308263
216	0xbc4d0611	-0.012513653
217	0xbd68bac2	-0.05681873
218	0x3dda78e1	0.10667587
219	0xbc83a525	-0.016069958
220	0x3d0a3181	0.033738617
221	0x3d94d928	0.07267982
222	0x3d56c1a5	0.052430768
223	0xbd4f6192	-0.05063016
224	0xbb343acd	-0.0027500868
225	0x3d6afe30	0.05737132
226	0xbd70b33f	-0.058764692
227	0xb8163060	-3.580784e-05
228	0xbdb9118e	-0.090365514
229	0x3cc4dc6d	0.024030888
230	0x3dbf262c	0.093334526
231	0x3c92aa20	0.017903388
232	0x3cbb5035	0.022865394
233	0x3dc7049c	0.09717676
234	0x3c97eea7	0.018546415
235	0xbd31754f	-0.043324765
236	0x3dc7acde	0.09749769
237	0xbdaee391	-0.085394986
238	0x3d3672f6	0.04454323
239	0x3d909c54	0.07061067
240	0xbc8035b6	-0.015650611
241	0xbdf504e7	-0.11963826
242	0x3d500760	0.050788283
243	0x3dbc1861	0.091843374
244	0xbc46fd10	-0.012145296
245	0x3d8cec05	0.06880955
246	0x3d1bf0fa	0.03807161
247	0x3cef3fe1	0.029205265
248	0x3e028983	0.12747769
249	0xbd8b067f	-0.067883484
250	0x3cadd2ff	0.021218775
251	0xbdc72a1c	-0.097248286
252	0x3de94696	0.11390416
253	0x3d2677db	0.040641647
254	0x3dc2a607	0.095043235
255	0xbdcc534f	-0.09976827

attn_layers.layers.1.1.ff.0.0.bias f4 [296]
0	0x3d9e30e6	0.077241704
1	0x3c959fb3	0.018264627
2	0x3daadd72	0.083430186
3	0xbdb5907d	-0.088654496
4	0x3dbc84b0	0.09204996
5	0xbde5e2f7	-0.11224931
6	0x3cea4bb5	0.028600553
7	0xbdb28467	-0.0871666
8	0xbd7812af	-0.060564693
9	0xbda8c3b7	-0.08240455
10	0xbcdf05fc	-0.027224533
11	0x3ca2b90e	0.019863632
12	0xbb686894	-0.0035462724
13	0xbde2b8ea	-0.11070426
14	0xbd64934f	-0.055804547
15	0xbdb637be	-0.08897351
16	0xbdddc328	-0.10828239
17	0x3dd6335e	0.10459016
18	0x3db55fff	0.088562004
19	0xbab5a189	-0.0013857345
20	0xbd4522c7	-0.04812887
21	0x3d05d8b7	0.03267738
22	0x3de6ec47	0.11275535
23	0x3c125c54	0.008933146
24	0x3d4e1aed	0.050318647
25	0x3d86e7d5	0.06587187
26	0x3d86c0e4	0.0657976
27	0xbdefd2b2	-0.11710109
28	0xbdec5d68	-0.11541253
29	0x3dd04c7b	0.101708375
30	0x3c555427	0.013020552
31	0x3b936aa8	0.0044987984
32	0x3cf0da55	0.029400984
33	0x3daad7ed	0.08341966
34	0x3ccd7788	0.025081411
35	0xbdcca207	-0.09991842
36	0xbd552bf4	-0.05204387
37	0x3dce7197	0.10080259
38	0xbd4ed149	-0.05049256
39	0x3d16f137	0.036851134
40	0xbde8ab4d	-0.11360798
41	0x3d3d48eb	0.046212118
42	0x3d00f8bd	0.031487215
43	0x3c9f666d	0.01945802
44	0x3c416740	0.011804402
45	0xbda99df6	-0.08282082
46	0x3dc2f206	0.095188186
47	0xbd800d78	-0.06252569
48	0x3dc39ca4	0.09551361
49	0xbcb6d328	-0.022317484
50	0xbd75bdea	-0.05999557
51	0x3d8d98c6	0.06913905
52	0x3cf855eb	0.030314406
53	0x3de9133a	0.1138062
54	0x3d3beb0d	0.04587846
55	0xbdda6bf2	-0.1066512
56	0x3d08e09a	0.03341732
57	0x3d6b3091	0.057419363
58	0xbd7254cd	-0.059162904
59	0x3c97301b	0.018455556
60	0xbdb7dbbd	-0.089774586
61	0xbd86dfcf	-0.06585657
62	0xbd9749f4	-0.07387152
63	0x3cb9e506	0.022692215
64	0xbdb7d6eb	-0.08976539
65	0xbdd0a2d0	-0.10187304
66	0x3db9e4dc	0.090768546
67	0xbda1085f	-0.07862925
68	0x3a45ea9a	0.0007549912
69	0x3d671f82	0.056426533
70	0x3d14106c	0.036148474
71	0xbdcb7f63	-0.099364065
72	0xbdad2091	-0.08453477
73	0x3c2997a0	0.010351092
74	0xbd3530d3	-0.044236016
75	0xbd8519cd	-0.06499062
76	0x3d2c6b7c	0.042094693
77	0x3b749c59	0.0037324636
78	0xbde880da	-0.113527015
79	0xbd9940f9	-0.07483096
80	0xbcfaf734	-0.030635454
81	0x3d202921	0.039101724
82	0xbdf0af11	-0.11752141
83	0x3a45ddcb	0.00075480033
84	0xbbc66566	-0.006054568
85	0xbd802f78	-0.06259054
86	0x3d3855a9	0.045003567
87	0xbc92de16	-0.017928164
88	0xbd96075e	-0.07325624
89	0xbdc95084	-0.0982981
90	0xbdc415aa	-0.095744446
91	0x3c445c04	0.011984829
92	0xbd0273dc	-0.031848773
93	0x3cd365dc	0.025805406
94	0x3dc410c7	0.095735125
95	0x3db34705	0.0875378
96	0xbca7516a	-0.020424563
97	0x3c23eba7	0.010004914
98	0xbd80311b	-0.06259366
99	0x3d4a1597	0.049336996
100	0x3dbcfe2e	0.092281684
101	0xbd0e58bb	-0.03475259
102	0xbd94045e	-0.072273955
103	0xbde38287	-0.111088805
104	0x3c596f63	0.013271186
105	0x3d18ab7b	0.03727291
106	0xbd88122a	-0.066440895
107	0xba0634e0	-0.00051195733
108	0xbd8b8fd4	-0.068145424
109	0xbd6bf48d	-0.05760627
110	0xbdbab000	-0.091156006
111	0xbddac1d1	-0.10681499
112	0xbd5a674f	-0.05332118
113	0x3da15d7a	0.07879157
114	0xbd8f2f41	-0.06991435
115	0x3d7c7b52	0.061641045
116	0xbba2397d	-0.004950701
117	0xbda4476f	-0.080214374
118	0xbd3e82d4	-0.046511486
119	0xbbc1e238	-0.00591686
120	0x3dcc3872	0.099717036
121	0xbda43d21	-0.08019472
122	0xbcb50a60	-0.022099674
123	0x3cd3e440	0.025865674
124	0x3dcf02eb	0.101079784
125	0x3b7e52f8	0.0038806777
126	0x3dbc3112	0.09189047
127	0x3d818d76	0.0632581
128	0x3d54a8b1	0.05191869
129	0xbc551465	-0.013005351
130	0x3dd965a1	0.10615087
131	0x3d1ae27c	0.03781365
132	0x3d945d58	0.072443664
133	0xbd2a0097	-0.04150447
134	0x3c9c2f46	0.01906551
135	0x3c301084	0.010746125
136	0x3d0f49e5	0.03498258
137	0x3ccd4d40	0.02506125
138	0xbcef875e	-0.029239353
139	0xbcfdd2f3	-0.030984377
140	0x3d77965a	0.06044612
141	0x3dcb1bc6	0.09917407
142	0x3c11345a	0.008862579
143	0xbdbc0fa4	-0.09182671
144	0xbc00a996	-0.007852932
145	0xbd992bcf	-0.07479059
146	0x3d8ecd14	0.06972709
147	0x3cc51bfd	0.024061197
148	0xbc9fef09	-0.01952316
149	0x3cc24644	0.023715146
150	0x3d5f3706	0.054495834
151	0x3dd58a27	0.10426741
152	0x3cf8cb07	0.030370248
153	0x3d9b70fc	0.075899094
154	0x3da91f49	0.0825792
155	0x3d99203c	0.07476851
156	0x3da482ea	0.080327824
157	0x3d8c3c65	0.06847457
158	0x3d89f6ed	0.067365505
159	0xbd28470e	-0.041083388
160	0x3ad1b522	0.0015999416
161	0x3d4c883b	0.049934607
162	0x3d8f4a98	0.069966495
163	0xbddc147d	-0.10746095
164	0x3d5dc705	0.054144878
165	0x3d7cf257	0.06175455
166	0x3d1e5c77	0.0386624
167	0x3d8a9c70	0.06768119
168	0xbdd7a690	-0.10529816
169	0xbd879afa	-0.06621356
170	0x3dc7f377	0.09763234
171	0xbd699a8f	-0.057032164
172	0xbdd1bdf0	-0.10241306
173	0x3bf9baa0	0.0076211244
174	0x3c0ce865	0.008600329
175	0xbd9a93ce	-0.07547723
176	0x3c8492c4	0.016183265
177	0xbde0449d	-0.10950587
178	0x3ac47f09	0.0014991473
179	0xbc15be14	-0.009139556
180	0x3c494a99	0.012285852
181	0x3d2acd8b	0.041699927
182	0x3dd5e526	0.10444097
183	0xbd0861d3	-0.033296417
184	0xbd7c1cf2	-0.061551042
185	0x3deb6a90	0.114949346
186	0x3cb3e385	0.021959076
187	0xbdd2d675	-0.10294811
188	0x3cfcfaec	0.030881368
189	0xbdca9527	-0.0989173
190	0x3dcc9553	0.09989419
191	0xbd86dd87	-0.06585222
192	0xbdade059	-0.084900565
193	0x3d83e6cf	0.064405076
194	0x3b313de9	0.0027044958
195	0x3c0b09a5	0.008486186
196	0xbbee5664	-0.007273482
197	0xbdafdb95	-0.08586804
198	0xbdd6c646	-0.104870364
199	0x3cd14587	0.025545849
200	0xbdd02729	-0.10163719
201	0xbc1ea23d	-0.009682235
202	0xbd19bf0d	-0.037535716
203	0xbcf6f93d	-0.030148143
204	0x3d20d584	0.039266124
205	0xbcaa5190	-0.020790845
206	0xbd1157b0	-0.035484016
207	0xbd4623ef	-0.048374113
208	0x3c11d73c	0.0089014135
209	0x3d5ffa61	0.05468214
210	0xbd25b8c2	-0.040459402
211	0x3de8a0bb	0.11358782
212	0xbcb17f91	-0.021667274
213	0xbdb3bf9f	-0.08776783
214	0x3dbc4460	0.09192729
215	0x3dd62f62	0.10458256
216	0x3d0773c6	0.033069395
217	0xbddc81fc	-0.1076698
218	0x3c7df543	0.0155003695
219	0x3db19c3e	0.08672379
220	0x3d418cd3	0.04725344
221	0xbdac4050	-0.08410704
222	0xbd645cbe	-0.05575251
223	0xbd3e42c6	-0.0464504
224	0xbd778788	-0.060431987
225	0x3ce38891	0.02777508
226	0xbddfedb5	-0.10934011
227	0xbca5d3c8	-0.020242587
228	0xbdde6e05	-0.10860828
229	0xbd33a7cc	-0.043861195
230	0x3dcc4042	0.09973194
231	0x3dcf29ae	0.10115372
232	0x3c937b8d	0.01800325
233	0xbda9a423	-0.0828326
234	0x3db631b8	0.08896202
235	0x3d922284	0.071354896
236	0x3d03798f	0.03209835
237	0xbd194030	-0.03741473
238	0xbd4e5725	-0.050376076
239	0x3c69e05e	0.014274685
240	0xbd41c94f	-0.047311123
241	0xbdac76c1	-0.08421088
242	0xbce93989	-0.028469818
243	0xbd09305a	-0.033493377
244	0x3cc7a068	0.02436848
245	0xbdc64a05	-0.09682087
246	0xb8034ea6	-3.130608e-05
247	0xbdd6e413	-0.104927205
248	0xbd286419	-0.041111086
249	0x3daa880c	0.0832673
250	0x3c0756f5	0.008260478
251	0x3d1f6239	0.03891203
252	0x3c029123	0.007969174
253	0xbd635b94	-0.055507258
254	0xbda59446	-0.080849215
255	0xbdcd88e9	-0.10035879
