model_outputs/transformer_output/split_3/checkpoint.pt (torch, 831970 bytes, 46 tensors)

attn_layers.layers.0.0.0.weight f4 [74]
0	0x3f81929f	1.012287
1	0x3f806494	1.0030694
2	0x3f7f2e6c	0.9968021
3	0x3f7ea394	0.9946835
4	0x3f7dcdf4	0.99142385
5	0x3f820930	1.0159054
6	0x3f80b744	1.0055928
7	0x3f7d21a8	0.9887948
8	0x3f80afe8	1.0053682
9	0x3f7fb647	0.9988751
10	0x3f7f9002	0.99829113
11	0x3f8008f9	1.0002738
12	0x3f80ce04	1.0062871
13	0x3f80dbb9	1.0067054
14	0x3f821edf	1.0165671
15	0x3f7fccdd	0.9992197
16	0x3f802c3f	1.0013503
17	0x3f80ca82	1.00618
18	0x3f80d544	1.0065084
19	0x3f7fcae0	0.9991894
20	0x3f80bbdc	1.005733
21	0x3f7e5c14	0.9935925
22	0x3f815ab8	1.010581
23	0x3f80ee8c	1.0072799
24	0x3f80299a	1.0012696
25	0x3f80a370	1.0049877
26	0x3f80fae2	1.0076563
27	0x3f813e2b	1.0097097
28	0x3f8021fd	1.0010372
29	0x3f7fc33a	0.9990727
30	0x3f80a809	1.005128
31	0x3f81c8f3	1.013945
32	0x3f812ff5	1.009276
33	0x3f814dc8	1.0101862
34	0x3f7f9676	0.9983896
35	0x3f81bc0c	1.0135512
36	0x3f808b82	1.0042574
37	0x3f8059b3	1.0027374
38	0x3f8044d1	1.0021001
39	0x3f7eabf9	0.9948116
40	0x3f81ced5	1.0141245
41	0x3f7ebc70	0.9950628
42	0x3f80b66a	1.0055668
43	0x3f7e96d6	0.9944891
44	0x3f7d6da1	0.98995405
45	0x3f803806	1.0017097
46	0x3f800c38	1.0003729
47	0x3f832a55	1.0247294
48	0x3f818a65	1.012036
49	0x3f8020ee	1.0010049
50	0x3f7fa189	0.9985586
51	0x3f7f37a2	0.99694264
52	0x3f7f9235	0.9983247
53	0x3f7c6904	0.9859774
54	0x3f819a39	1.012519
55	0x3f8180e5	1.011746
56	0x3f7ea98a	0.99477446
57	0x3f809e05	1.0048224
58	0x3f815b8c	1.0106063
59	0x3f81200e	1.0087907
60	0x3f7fc357	0.9990744
61	0x3f7e89be	0.9942893
62	0x3f7f6e77	0.9977793
63	0x3f7ea158	0.9946494
64	0x3f80421e	1.0020177
65	0x3f7ea80e	0.9947518
66	0x3f7fd99e	0.9994143
67	0x3f7bd042	0.9836465
68	0x3f7f18c7	0.9964718
69	0x3f7f1768	0.9964509
70	0x3f80aed9	1.0053359
71	0x3f812b5c	1.0091357
72	0x3f7ff8bf	0.9998893
73	0x3f7ecb13	0.99528617

attn_layers.layers.0.0.0.bias f4 [74]
0	0x3b2b5272	0.002614167
1	0x3babb1d2	0.0052397037
2	0x3b0fd289	0.0021945557
3	0x3baf736c	0.0053543355
4	0x3c6ebb86	0.014571076
5	0xbac38375	-0.0014916497
6	0x3b70fced	0.003677185
7	0x3c1adda2	0.009452255
8	0x3bc6bc08	0.0060648955
9	0xbbc9df58	-0.006160658
10	0x3ad617da	0.0016334013
11	0x3b45f4c6	0.003020571
12	0x3c1fc686	0.0097519215
13	0xbbd1a61f	-0.006397977
14	0x3b5ec648	0.0033992697
15	0x3b0040f0	0.0019569956
16	0xb9e71913	-0.00044078435
17	0xba17310a	-0.00057675
18	0xbb27f419	-0.0025627671
19	0x3ac50fe4	0.0015034643
20	0x3a2caabe	0.0006586722
21	0xbc13dc8e	-0.009024752
22	0x3761b1a8	1.3452409e-05
23	0xba2f9340	-0.0006697662
24	0xbc725f6e	-0.01479326
25	0xbc9099f1	-0.01765153
26	0x3bde497f	0.0067836638
27	0x3ac635fd	0.0015122291
28	0x3b71d182	0.0036898558
29	0x3bdef474	0.0068040434
30	0xba54fc72	-0.00081247755
31	0xbbf85c2f	-0.0075793485
32	0xbbda42a7	-0.0066607776
33	0x3bb971fd	0.0056593404
34	0x3c27287d	0.010202524
35	0xbb286cdf	-0.0025699658
36	0xbb24600a	-0.0025081658
37	0xbbe2816d	-0.0069124014
38	0xbabecb3c	-0.0014556418
39	0x3bac71f4	0.0052626077
40	0xbc48e5ce	-0.012261821
41	0x3b2d3671	0.0026430155
42	0x3a961a97	0.0011452016
43	0x3bb0e8cd	0.0053988458
44	0x3c566e09	0.013087758
45	0xbb18a741	-0.002329305
46	0xbb12f721	-0.0022425132
47	0xbbf9c522	-0.007622377
48	0xbb547db0	-0.0032423548
49	0x3af61d9e	0.0018777137
50	0x3bbb2266	0.0057108877
51	0x3bbd284a	0.005772625
52	0x3b905205	0.0044043087
53	0x3c28ff4d	0.010314775
54	0x3acadfc5	0.0015478065
55	0x3afb7fc9	0.0019187863
56	0xbc0ab4d0	-0.008465961
57	0xbbc7f361	-0.006102011
58	0x3b71b251	0.0036879967
59	0x3bc34cbe	0.005960076
60	0xbb0310e3	-0.001999908
61	0xbbc0e2b1	-0.0058863987
62	0xbaf42060	-0.0018625371
63	0xbc399110	-0.0113260895
64	0x3bb87b2f	0.005629919
65	0xbc0aaf92	-0.008464711
66	0xbbc3671c	-0.0059632193
67	0xbca402a4	-0.02002079
68	0xbb6c8db6	-0.0036095208
69	0xbb4a9f14	-0.0030917572
70	0xbaf0ae90	-0.001836257
71	0x3b2d913d	0.0026484274
72	0xbbce8fc0	-0.0063037574
73	0xbbabbb6f	-0.0052408497

attn_layers.layers.0.1.to_q.weight f4 [64, 74]
0	0xba90897f	-0.0011027305
1	0x3d4aeed6	0.049544178
2	0xbd1e5836	-0.038658343
3	0x3c3c7c28	0.0115042105
4	0xbde270b2	-0.11056651
5	0x3d55264b	0.052038472
6	0x3d5dab5d	0.054118503
7	0x3d8684c5	0.065682925
8	0x3d36be95	0.044615347
9	0xbd99726f	-0.074925296
10	0x3cd51296	0.026009839
11	0x3caeafee	0.021324124
12	0x3da03539	0.078226514
13	0x3b962891	0.0045824726
14	0xbd5124f4	-0.051060632
15	0xbb143650	-0.002261538
16	0x3dd65d28	0.10466987
17	0xbd5473cb	-0.05186824
18	0x3d8d2f6a	0.06893809
19	0x3d88a961	0.066729315
20	0x3cecef5a	0.028922725
21	0xbbcdf6bc	-0.0062855165
22	0xbdadff1e	-0.08495925
23	0x3d405332	0.04695434
24	0x3c27950b	0.010228406
25	0xbdb800d3	-0.08984532
26	0x3debdaf2	0.1151637
27	0x3dfe0561	0.1240337
28	0x3d9e2470	0.07721794
29	0xbdc6e8ff	-0.09712409
30	0xbd48c009	-0.049011264
31	0xbda8b9f6	-0.08238594
32	0xbd01a711	-0.031653468
33	0xbdccf293	-0.10007205
34	0x3ce80bcb	0.028325936
35	0xbd96aff9	-0.07357783
36	0x3d9d0d15	0.07668511
37	0x3d8a0c42	0.06740619
38	0xbdb44919	-0.08803005
39	0xbbf9612b	-0.0076104603
40	0x3cfd47da	0.03091805
41	0x3c76a744	0.015054528
42	0xbd8b9c68	-0.068169415
43	0x3d1f29b6	0.038858138
44	0xbda653ef	-0.08121478
45	0xbd360162	-0.044434913
46	0xbd859426	-0.06522398
47	0xbdac5854	-0.08415285
48	0x3dda898d	0.10670767
49	0xbd6ff622	-0.05858434
50	0x3d90401d	0.07043479
51	0x3dcd85b6	0.10035269
52	0xbdc52b93	-0.09627452
53	0xbd939717	-0.072065525
54	0xbd9feedc	-0.07809231
55	0x3dadaad7	0.08479851
56	0xbd47f185	-0.048814315
57	0xbce15c4a	-0.027509827
58	0x3d621e39	0.055204604
59	0xbddbaec3	-0.107266925
60	0xbdd73fcc	-0.10510215
61	0x3cea034a	0.028566021
62	0x3dfaaa2a	0.122394875
63	0x3dc4d991	0.0961181
64	0x3d03c3d5	0.03216918
65	0xbc89c495	-0.01681737
66	0xbd382ad8	-0.044962734
67	0x3c08f2b5	0.008358647
68	0xbc051f3d	-0.008125124
69	0xbdc82d98	-0.09774321
70	0x3cd6a153	0.026199972
71	0x3c953854	0.018215336
72	0x3d0ba449	0.03409222
73	0x3d2b428c	0.04181151
74	0x3deefb9c	0.116690844
75	0xbdcee57f	-0.10102367
76	0xbd2076a1	-0.039175633
77	0x389b290e	7.398623e-05
78	0xbcc60646	-0.024172913
79	0xbd8e8401	-0.069587715
80	0xbd5c90c6	-0.053849004
81	0x3d96bc18	0.07360095
82	0xbdc10104	-0.09424022
83	0xbc4f921c	-0.0126691125
84	0x3da90600	0.082530975
85	0x3ca743b3	0.020418024
86	0x3c3a7e6d	0.011382681
87	0xbcb4913a	-0.022041906
88	0xbda235ef	-0.07920443
89	0xbde7dfb9	-0.113219686
90	0xbc2a08b4	-0.010378052
91	0xbc5bb2a5	-0.013409291
92	0x3d7be87e	0.06150102
93	0x3c9dd138	0.019264802
94	0xbdf61498	-0.12015647
95	0xbba66fae	-0.005079231
96	0x3d6fdc56	0.058559738
97	0x3d12d6c5	0.03584935
98	0xbd96d3b6	-0.073645994
99	0x3d310ac3	0.043223154
100	0xbd464b1b	-0.04841147
101	0x3d3b2c50	0.045696557
102	0xbdcafb2f	-0.09911191
103	0x3dcddec8	0.10052258
104	0x3ce6f4c5	0.028192887
105	0x3d15d656	0.03658136
106	0x3d0240fd	0.03180026
107	0xbda9a443	-0.082832836
108	0xbda327d6	-0.079665825
109	0xbd997751	-0.07493461
110	0xbd901ca6	-0.07036714
111	0x3d5a61f4	0.05331607
112	0xbd96133b	-0.07327887
113	0xbcb6d187	-0.022316707
114	0x3d3f736f	0.046740945
115	0xbd99e04a	-0.07513483
116	0xbde3e5bd	-0.111278035
117	0x3ae6fee5	0.0017623572
118	0x3dcf7026	0.101288125
119	0xbd1b857a	-0.03796909
120	0xbd3a7b2a	-0.045527615
121	0xbccd47a4	-0.025058575
122	0xbd9b9bfe	-0.075981125
123	0x3da636b4	0.081159025
124	0xbd30de1d	-0.043180574
125	0xbdb3366c	-0.087506145
126	0xbd9e7932	-0.0773796
127	0xbdbe09bc	-0.092792004
128	0xbd451ca5	-0.04812302
129	0xbd5f9f00	-0.054594994
130	0x3d8804e1	0.066415556
131	0xbc709ea7	-0.014686263
132	0xbd85b35c	-0.06528351
133	0xbddc9d1f	-0.10772156
134	0xbddfb3b4	-0.109229475
135	0x3d62f1c7	0.055406358
136	0x3d90f635	0.0707821
137	0x3d8a32cb	0.06747969
138	0x3d860455	0.06543795
139	0x3dd590cb	0.10428008
140	0xbd9434bf	-0.07236623
141	0xbdd98df3	-0.10622778
142	0x3d8e04ae	0.06934486
143	0x3d20a02b	0.039215248
144	0x3dd88f22	0.105741754
145	0xbd999931	-0.07499922
146	0x3dbf3c8b	0.093377195
147	0x3d19f76a	0.037589468
148	0xbb67aa9e	-0.0035349499
149	0xbde00ef0	-0.10940349
150	0xbdb04077	-0.08606046
151	0x3d9aff8f	0.07568275
152	0x3da61134	0.0810875
153	0x3d8b287a	0.0679483
154	0xbd978692	-0.07398714
155	0xbd31f428	-0.043445736
156	0x3cf6489c	0.03006392
157	0x3dbb5666	0.091473386
158	0x3d5c5d7d	0.053800095
159	0x3d72f3b2	0.059314437
160	0xbc964802	-0.018344883
161	0x3cc0daf5	0.023541907
162	0xbde54c75	-0.11196224
163	0xbd075dc3	-0.033048403
164	0xbb04ea53	-0.002028127
165	0x3d1c010d	0.03808694
166	0x3dd96e3e	0.1061673
167	0x3d863610	0.0655328
168	0xbd59e766	-0.053199194
169	0x3d24cb25	0.040232796
170	0xbd4c8b33	-0.04993744
171	0xbd9194ea	-0.07108481
172	0xbc283140	-0.010265648
173	0x3dafa5a5	0.08576516
174	0xbbb58455	-0.005539457
175	0xbdc3d41c	-0.09561941
176	0x3ddc239f	0.10748982
177	0xbc2ec99c	-0.010668185
178	0xbd25f45f	-0.040516254
179	0xbde42c24	-0.11141232
180	0xbd6314ca	-0.055439748
181	0x39a25cfe	0.00030968332
182	0x3cd9babe	0.026578303
183	0x3caa6ea3	0.020804709
184	0x3d175226	0.036943577
185	0x3d075bdf	0.0330466
186	0x3c1850e7	0.009296632
187	0x3cf887db	0.030338218
188	0xbdb11b55	-0.08647791
189	0xbbe69e66	-0.0070379255
190	0xbdc0b066	-0.09408645
191	0xbd4ea1c7	-0.05044725
192	0x3dae0e0f	0.08498775
193	0xbcf304c4	-0.029665358
194	0x3db56dff	0.08858871
195	0x3db98622	0.09058787
196	0xbdcc54c2	-0.09977104
197	0x3d36e6a0	0.044653535
198	0x3d0b6c44	0.034038797
199	0xbd3003a3	-0.04297222
200	0xbdedb574	-0.11606875
201	0x3c3e8577	0.0116285
202	0x3d83b149	0.06430299
203	0x3daa70a8	0.08322269
204	0xbb3273bb	-0.0027229625
205	0xbd89ace7	-0.06722432
206	0xbdd49c85	-0.10381416
207	0x3d001373	0.03126855
208	0xbc9a9199	-0.018868254
209	0xbdc53513	-0.09629264
210	0x3d3e1429	0.046405945
211	0xbce142d3	-0.027497685
212	0x3c031ecf	0.008002951
213	0xbc359a85	-0.011084204
214	0xbd98ba96	-0.074574634
215	0x3de4230c	0.11139497
216	0x3d16b54c	0.036793992
217	0xbd34b149	-0.044114385
218	0x3d522737	0.05130693
219	0x3d0c09ed	0.034189153
220	0x3daf4c07	0.08559423
221	0x3d8ab24a	0.06772287
222	0x3d0763f8	0.033054322
223	0x3d7d8375	0.061892945
224	0xbb86a027	-0.004108447
225	0x3dc87a5c	0.09788963
226	0xbda1cff4	-0.07900992
227	0xbc14d63b	-0.00908428
228	0xbde1e2f9	-0.1102962
229	0x3dd3b50f	0.103372686
230	0x3dc6b8b9	0.09703202
231	0xbde496fc	-0.111616105
232	0x3dccdc41	0.100029476
233	0x3c894ba8	0.016759709
234	0x3c8da171	0.017288895
235	0x3d727c4c	0.05920057
236	0xbdeb4651	-0.11488021
237	0xbb64c8a3	-0.0034909628
238	0xbd84663f	-0.064648144
239	0x3d67d12a	0.05659596
240	0x3b26f0e8	0.002547318
241	0x3dc4c91d	0.09608672
242	0xbda2bba0	-0.07945943
243	0xbd25b3dc	-0.04045473
244	0x3ce51e32	0.0279685
245	0x3dd57c41	0.1042409
246	0x3dd9ce4e	0.106350526
247	0xbe03161d	-0.12801404
248	0x3c802cd2	0.015646372
249	0xbdfb8ac3	-0.12282326
250	0x3db76faf	0.08956849
251	0xbdfc55da	-0.123210624
252	0x3c98afe9	0.018638568
253	0xbd43f6c6	-0.047842763
254	0x3dc6ddde	0.097102866
255	0xbd78baf0	-0.060725152

attn_layers.layers.0.1.to_k.weight f4 [64, 74]
0	0x3bedba26	0.0072548566
1	0xbd8d7010	-0.0690614
2	0x3cf05baa	0.029340584
3	0xbcc005d4	-0.023440279
4	0x3dc9fd61	0.09862781
5	0xbd6d46dc	-0.057928905
6	0xbda5d900	-0.0809803
7	0xbdd8ec8a	-0.10591991
8	0x3dd4fe06	0.104000136
9	0xbdd52a70	-0.10408485
10	0x3b9b3aa3	0.0047372147
11	0xbdb26656	-0.08710925
12	0xbdefef73	-0.11715593
13	0xbd140cfd	-0.0361452
14	0x3d453c52	0.04815323
15	0xbdd9b3e5	-0.10630015
16	0x3d379178	0.044816464
17	0x3d523b46	0.05132606
18	0xbcc101a9	-0.023560362
19	0xbddd90c1	-0.10818625
20	0xbd8ebed5	-0.06969992
21	0xbca1aeb4	-0.019736625
22	0xbdeb36db	-0.11485072
23	0x3dfd2ae6	0.12361698
24	0xbcd92a97	-0.026509566
25	0xbc9997f4	-0.018749215
26	0x3d8f80d4	0.07006994
27	0xbdb6825b	-0.08911582
28	0xbde84011	-0.11340345
29	0xbdb57d5f	-0.08861803
30	0xbc0ade6b	-0.00847588
31	0x3d83e8dc	0.06440899
32	0x3dd19342	0.10233165
33	0xbd8fed8d	-0.07027731
34	0x3d483f10	0.048888266
35	0x3d362942	0.04447294
36	0x3ceccbdf	0.028905807
37	0xbd4f5616	-0.050619207
38	0x3df14453	0.1178061
39	0xbd6fab0d	-0.058512736
40	0x3dacf895	0.08445851
41	0x3cb4f893	0.022091186
42	0x3d98a37e	0.07453059
43	0xbcd25a80	-0.02567792
44	0x3dcb6c71	0.09932793
45	0x3d8cf1ed	0.06882081
46	0x3d598cda	0.053112842
47	0x3d8e2b03	0.069417976
48	0xbc8bc20b	-0.0170603
49	0x3ca53cd7	0.020170612
50	0xbdbc9f9d	-0.09210131
51	0x3bf63a15	0.007514248
52	0x3d2acebe	0.04170107
53	0xbd9a5054	-0.075348526
54	0xbc470b2a	-0.012148658
55	0x3da902c0	0.08252478
56	0xbd1a6f48	-0.037703782
57	0x3c7e6074	0.015525926
58	0x3c6316da	0.013860429
59	0x3dd8cce9	0.105859585
60	0x3d0b1034	0.033951
61	0xbba87965	-0.0051414245
62	0xb9f86c7a	-0.00047383067
63	0xbd5a270e	-0.0532599
64	0x3cfe0146	0.031006467
65	0x3da5f75f	0.08103823
66	0x3e052ef4	0.13006192
67	0xbde04b86	-0.10951905
68	0xbd5dac1f	-0.054119226
69	0x3d8a5821	0.067550905
70	0xbdf474b2	-0.1193632
71	0x3d91d730	0.07121122
72	0xbd1986bc	-0.03748201
73	0x3dbba218	0.09161776
74	0x3db7310e	0.08944903
75	0x3d1a8d48	0.037732393
76	0x3d624e63	0.055250537
77	0x3ceab69d	0.02865153
78	0xbd8943f9	-0.06702418
79	0xbc8f3eab	-0.017485937
80	0x3d45e0db	0.048310142
81	0xbdb617e9	-0.08891279
82	0x3bcd5aef	0.0062669436
83	0xbc358c1d	-0.011080769
84	0xbdc2cb90	-0.09511483
85	0xbda331d4	-0.07968488
86	0xbba2d29c	-0.0049689543
87	0x3d88ca0c	0.066791624
88	0xbcaf198e	-0.02137449
89	0x3cebc1bb	0.028778901
90	0x3d2c26ef	0.042029317
91	0xbd7d214d	-0.061799336
92	0xbc85d8ab	-0.016338667
93	0xbd2d1eac	-0.04226558
94	0xbde4129b	-0.11136361
95	0xbd3640ec	-0.044495508
96	0x3ce30abd	0.027715081
97	0xbd4a2c56	-0.04935869
98	0x3d86b231	0.06576956
99	0x3c5a2995	0.013315578
100	0xbdb0d043	-0.08633473
101	0x3ce084a3	0.027406996
102	0xbd0a28c0	-0.03373027
103	0xbda00398	-0.078131855
104	0xbdcffe01	-0.10155869
105	0xbdb4b0b3	-0.08822765
106	0xbd1d8a01	-0.03846169
107	0x3c588772	0.013215886
108	0x3bd17b69	0.0063928855
109	0xbd3744d8	-0.04474339
110	0xbdbbc809	-0.09169013
111	0xbd86802b	-0.06567415
112	0xbb8198af	-0.003954969
113	0x3b530cd3	0.0032203689
114	0x3c1d5b62	0.009604307
115	0xbd64d38c	-0.05586581
116	0x3d49c54e	0.04926043
117	0xbdb57f25	-0.088621415
118	0xbcda4d5d	-0.026648218
119	0x3dc54a99	0.09633369
120	0x3dd8f550	0.10593665
121	0xbdaecb8c	-0.08534917
122	0xbdb68bdf	-0.08913397
123	0xbd2728bc	-0.04081033
124	0x3c187b02	0.009306671
125	0xbd1fe0ee	-0.03903287
126	0x3d9d59e2	0.076831594
127	0x3d2a4ea7	0.041578915
128	0x3daaf3f7	0.08347314
129	0xbd025f0a	-0.031828918
130	0xbd9e042e	-0.07715641
131	0xbdfd100b	-0.123565756
132	0xbc915447	-0.017740382
133	0xbc792ebd	-0.015208897
134	0x3d218047	0.039428975
135	0xbddae760	-0.106886625
136	0xb9bab85e	-0.0003561405
137	0xbdedbf91	-0.11608804
138	0xbdcd7157	-0.100313835
139	0x3d8da4b8	0.06916183
140	0x3e0cdac3	0.13755326
141	0x3dcac8da	0.09901591
142	0xbdaf51d5	-0.0856053
143	0xbd758a12	-0.059946127
144	0x3cebb98a	0.028774995
145	0xbc36a19b	-0.011146928
146	0x3e04ef95	0.12982018
147	0xbd9eae67	-0.07748108
148	0x3d588663	0.052862536
149	0xbd800935	-0.06251756
150	0x3d50852a	0.050908245
151	0xbd62b9d7	-0.055353012
152	0x39b0aa34	0.00033696147
153	0xbcd77568	-0.0263011
154	0xbd0d9fe9	-0.03457633
155	0xbc344e84	-0.011005048
156	0xbc3b1eec	-0.011420947
157	0x3d1e2d1f	0.03861725
158	0xbdb0546b	-0.086098514
159	0x3c8f6bb1	0.017507406
160	0xbdb26733	-0.0871109
161	0x3dd85da8	0.105647385
162	0xbca4ad2c	-0.020102106
163	0xbc6614bd	-0.01404303
164	0xbd646ec8	-0.05576971
165	0xbd31d914	-0.043419912
166	0x3d444584	0.047917858
167	0xbdbd46ed	-0.09242044
168	0xbbd95e15	-0.00663353
169	0x3da2d2dd	0.07950375
170	0xbda037c3	-0.07823136
171	0x3d8e3571	0.06943787
172	0x3de0cd19	0.10976619
173	0xbd90ddff	-0.070735924
174	0xbc0d69b9	-0.008631163
175	0xbd50facd	-0.051020432
176	0xbce3117a	-0.027718294
177	0x3c735125	0.014850889
178	0xbd41ee2f	-0.04734629
179	0xbdd89619	-0.10575504
180	0x3cc7f440	0.02440846
181	0xbc9aec55	-0.01891152
182	0xbdfc4c0e	-0.12319194
183	0xbda9d415	-0.082924046
184	0x3c357179	0.011074417
185	0x3db08e4e	0.086208925
186	0xbd9ae169	-0.07562525
187	0xbd47c539	-0.04877207
188	0xbd9a4ef9	-0.07534594
189	0x3ce61a01	0.028088572
190	0x3d498a12	0.04920394
191	0x3d339889	0.04384664
192	0x3c0db747	0.008649654
193	0xbdc60ae8	-0.09670049
194	0xbde481a8	-0.111575425
195	0x3d92cec5	0.071683444
196	0x3dc612fc	0.0967159
197	0xbdd2143f	-0.10257768
198	0x3a239c11	0.0006241212
199	0x3d4915da	0.049093105
200	0xbcfcdc18	-0.030866668
201	0xbd18c421	-0.037296418
202	0xbd4d925f	-0.05018842
203	0xbc8e8fe4	-0.017402597
204	0x3c31bf9a	0.010848904
205	0x3da6dba5	0.081473626
206	0x3cb9d73b	0.022685638
207	0x3d41f77c	0.04735516
208	0xbd1ea964	-0.038735762
209	0x3d7c7db8	0.061643332
210	0xbcbc2e3c	-0.022971265
211	0xbdb4fa4e	-0.08836804
212	0x3db51c6f	0.08843314
213	0x3c89cdef	0.01682183
214	0x3d206a52	0.039163895
215	0xbdec9410	-0.11551678
216	0xbde46818	-0.11152667
217	0xbc43de21	-0.011954815
218	0x3de8791a	0.11351223
219	0x3d1ed0ee	0.03877347
220	0x3d188d79	0.037244294
221	0xbd88c480	-0.066781044
222	0xbc8c646c	-0.017137729
223	0x3dc8c135	0.09802476
224	0xbd7b61cb	-0.06137256
225	0x3dad1474	0.08451167
226	0xbca265a0	-0.01982385
227	0x3c95fb55	0.018308321
228	0x3ce22a5a	0.027608085
229	0xbcb7e91e	-0.022450026
230	0x3d865571	0.065592654
231	0x3da62939	0.08113331
232	0x3b5d1e5c	0.003374002
233	0x3c534072	0.012893783
234	0xbdcb0150	-0.0991236
235	0x3ddbacb6	0.10726301
236	0xbd6e2060	-0.058136344
237	0x3c453f0e	0.012038959
238	0x3d381c85	0.044949073
239	0xbd51335c	-0.05107437
240	0x3a6fd820	0.00091493316
241	0xbcb642a8	-0.022248581
242	0x3b089df6	0.0020846105
243	0xbd9c7b68	-0.076407254
244	0xbbf0b610	-0.0073459223
245	0xbdde2472	-0.10846795
246	0x3d0fcef2	0.035109468
247	0x3d9e7ff7	0.07739251
248	0x3dfbc797	0.12293928
249	0x3cb4d9b8	0.022076473
250	0xbd155ccc	-0.03646545
251	0x3d38fbda	0.04516206
252	0xbdabb9d6	-0.08385055
253	0xbc658c64	-0.0140105225
254	0xbcb242f2	-0.021760438
255	0xbb8ce37b	-0.0042995787

attn_layers.layers.0.1.to_v.weight f4 [64, 74]
0	0xbb5de029	-0.0033855534
1	0x3ce361a4	0.02775652
2	0x3d7de7cb	0.061988633
3	0xbd01795d	-0.03160988
4	0xbd7a0633	-0.06104107
5	0x3ccfe2bc	0.02537667
6	0x3d2041e2	0.03912533
7	0x3dc3d2ef	0.09561717
8	0x3caad60f	0.020854024
9	0x3dc30b06	0.09523587
10	0xbd787ee2	-0.06066788
11	0xbdaed780	-0.08537197
12	0xbd8e7f3b	-0.06957861
13	0xbdc5e7a3	-0.09663322
14	0x3d595cf4	0.053067163
15	0x3c75b635	0.014997055
16	0xbd837c9c	-0.06420252
17	0x3d00ba29	0.031427536
18	0xbcc1c1f7	-0.02365206
19	0xbd9d7f6f	-0.07690322
20	0xbd346abd	-0.044047106
21	0xbdaf27c9	-0.0855251
22	0x3d8ad9b4	0.06779805
23	0xbd26896b	-0.040658396
24	0x3d45ff2e	0.04833906
25	0x3cda9d40	0.02668631
26	0x3d9b667f	0.07587909
27	0xbd9bf6f3	-0.07615461
28	0x3d5b41d1	0.053529564
29	0xbd1f8a68	-0.038950354
30	0x3de86bc5	0.113486804
31	0x3d587f0d	0.05285554
32	0x3da40bdb	0.08010074
33	0xbd72216c	-0.059113905
34	0x3d12a7bf	0.035804506
35	0x3bec4ede	0.00721155
36	0xbd89d779	-0.06730551
37	0x3d8ea3d5	0.06964842
38	0x3ccad291	0.024758609
39	0xbdcf3c77	-0.10118955
40	0xbd66dbd7	-0.056362
41	0x3c9cb2f9	0.01912831
42	0xbd0e8c15	-0.03480156
43	0xbcebb1d0	-0.028771311
44	0x3db36de3	0.087611936
45	0x3dacb258	0.08432454
46	0x3c2ebbdf	0.010664909
47	0xbb0f88e2	-0.0021901657
48	0x3dc95481	0.09830571
49	0xbdcc9068	-0.09988481
50	0x3df6e64e	0.12055646
51	0x3c9781bb	0.018494477
52	0xbdaaa47a	-0.08332153
53	0xbd077f26	-0.033080243
54	0xbd9ac81c	-0.07557699
55	0xbc6c479c	-0.01442137
56	0x3dd43fc4	0.10363725
57	0x3d2b8ca4	0.041882172
58	0x3d720a24	0.059091702
59	0xbd966cbd	-0.07344959
60	0x3d856616	0.06513612
61	0xbd7d9617	-0.061910715
62	0x3a0ce2fc	0.00053743995
63	0xbde3d57a	-0.11124702
64	0x3d26090c	0.04053597
65	0xbd1bd3d1	-0.0380438
66	0x3dbff7e6	0.09373455
67	0x3d5945a7	0.05304494
68	0x3da10177	0.078616075
69	0xbd9fc8cd	-0.078019716
70	0x3c3c59db	0.011496033
71	0x3dbfc09e	0.09362911
72	0x3dc674f9	0.096902795
73	0xbce592a4	-0.028024025
74	0xbda4edd5	-0.08053175
75	0xbdbd01d0	-0.09228861
76	0xbd8f5292	-0.06998171
77	0x3dbc095e	0.09181474
78	0xbdb75d1e	-0.089533076
79	0xbce01711	-0.027354749
80	0x3d26d4a8	0.04073015
81	0x3ca53c0d	0.020170236
82	0xbdb48a85	-0.08815483
83	0x3dc63669	0.09678347
84	0xbbec4997	-0.007210921
85	0xbd7b94f3	-0.061421346
86	0x3dae644f	0.08515226
87	0x3cb20f07	0.021735681
88	0x3d962678	0.07331556
89	0x3d16d0b0	0.036820114
90	0xbd2344f0	-0.039860666
91	0x3ce86f79	0.028373467
92	0xbd84f035	-0.06491128
93	0x3dd3c2cd	0.1033989
94	0xbc9d6b6b	-0.01921626
95	0xbd8092ec	-0.06278023
96	0xbd445825	-0.047935624
97	0xbde0a6b4	-0.10969296
98	0x3d9dd148	0.07705933
99	0x3df5e351	0.12006248
100	0xbd755218	-0.059892744
101	0x3c28ccc6	0.010302728
102	0x3d408c63	0.047008883
103	0x3dd4f72d	0.103987075
104	0x3dd81fa2	0.105529085
105	0x3d700503	0.05859853
106	0xbce72caa	-0.02821954
107	0x3da0b338	0.07846683
108	0xbc1e041a	-0.009644533
109	0xbc5ac36b	-0.013352255
110	0x3cdb58d5	0.026775757
111	0xbca503e2	-0.020143453
112	0x3d2f31fa	0.04277227
113	0xbc8d8bb7	-0.017278535
114	0xbb7762ec	-0.003774817
115	0x3cbab5d0	0.022791773
116	0xbc609c54	-0.0137091465
117	0x3d693a28	0.056940228
118	0xbd362871	-0.04447216
119	0x3d952cb1	0.07283915
120	0xbdcc7165	-0.09982566
121	0xbc62c208	-0.013840206
122	0x3dc33233	0.09531059
123	0xbd54d111	-0.051957194
124	0xbc5042d2	-0.012711244
125	0xbdc66ad4	-0.096883446
126	0xbd4a0ab2	-0.049326606
127	0x3d755825	0.059898514
128	0x3c59f08d	0.013301981
129	0xbd8df74c	-0.06931934
130	0xbc9729df	-0.018452583
131	0xbd50f1d2	-0.051011868
132	0x3d42959d	0.047505964
133	0xbdd4edcc	-0.10396919
134	0xbd58c9e1	-0.0529269
135	0xbb202225	-0.0024434414
136	0xbd21e9ea	-0.03952972
137	0x3d28a0a4	0.041168824
138	0xbda9457d	-0.08265207
139	0x3dc97b47	0.098379664
140	0x3d87257b	0.06598946
141	0xbd61dc62	-0.055141814
142	0x3d3192c4	0.043352857
143	0x3d1e7431	0.038685028
144	0xbd3726ef	-0.044714864
145	0xbb123bd3	-0.002231349
146	0x3d47523e	0.048662417
147	0xbc09e925	-0.008417402
148	0x3e01ea78	0.12687099
149	0xbd8b6484	-0.06806281
150	0xbc9cda7e	-0.019147154
151	0x3c3ef435	0.011654903
152	0xbd0c401e	-0.034240834
153	0xbd433cbd	-0.047665346
154	0x3caae34e	0.02086034
155	0x3ba3a103	0.0049935593
156	0x3d34e35c	0.04416214
157	0xbdb6abac	-0.089194626
158	0xbae21054	-0.0017247298
159	0xbd09aa62	-0.033609755
160	0xbdaeeb5e	-0.085409865
161	0xbd5ecb8b	-0.054393332
162	0x3d643571	0.05571503
163	0x3d42376e	0.047416143
164	0xbddc099a	-0.10744019
165	0xbd67c57c	-0.05658482
166	0x3d4e12b0	0.05031079
167	0xbc4585a0	-0.012055784
168	0xbbee27fe	-0.007267951
169	0xbda7ea5e	-0.08198999
170	0xbcb5c85b	-0.022190263
171	0xbcec6a19	-0.028859185
172	0xbdad5408	-0.08463293
173	0xbdb02cb9	-0.0860228
174	0xbd729edd	-0.059233535
175	0x3c594500	0.01326108
176	0xbdcb3727	-0.09922629
177	0x3d9de36f	0.07709395
178	0x3db99acd	0.09062729
179	0x3d23fe17	0.04003724
180	0xbcb68654	-0.02228085
181	0x3d7e52f4	0.06209083
182	0xbc55bbf8	-0.0130453035
183	0x3db7ae0a	0.08968742
184	0xbdd8ae21	-0.105800875
185	0xbdadbc85	-0.08483223
186	0x3d4ea474	0.050449803
187	0x3d00f07c	0.031479344
188	0xbce6c8cb	-0.028171917
189	0x3cdf12da	0.027230669
190	0x3d5ac659	0.053411815
191	0x3a194243	0.00058463606
192	0x3bf7b056	0.0075588627
193	0x3d8978a0	0.067124605
194	0x3d046af3	0.032328557
195	0x3cf016be	0.02930772
196	0x3cb7173a	0.022349942
197	0xbd46b509	-0.048512492
198	0x3ce476cc	0.027888678
199	0xbd27ab7e	-0.040935032
200	0x3d551cee	0.052029543
201	0xbdd82cc0	-0.105554104
202	0x3d8b0215	0.067875065
203	0xbd63f68a	-0.05565504
204	0xbc72e8ea	-0.014826039
205	0xbd46e3ed	-0.04855721
206	0xbdd40b40	-0.10353708
207	0xbdb5e8d0	-0.08882296
208	0x3dd489e6	0.103778645
209	0xbd92c4b3	-0.07166424
210	0xbddcf273	-0.10788431
211	0x3dbc93a4	0.09207848
212	0xbc4ec060	-0.012619108
213	0x3db7581e	0.08952354
214	0xbca52073	-0.020157075
215	0xbdd42a37	-0.10359614
216	0x3dd1e901	0.1024952
217	0x3d65a4b8	0.05606529
218	0x3d17c08a	0.037048854
219	0xbd3e8446	-0.046512865
220	0x3c1d9392	0.009617703
221	0xbdbe20cf	-0.092836015
222	0x3c1f56d1	0.0097252885
223	0xbdd02c9c	-0.101647586
224	0xbdc8411b	-0.09778043
225	0xbcb463ed	-0.022020305
226	0xbbc56ecd	-0.0060251714
227	0x3df332ec	0.11874947
228	0xbaab15d6	-0.0013052772
229	0xbd20dc91	-0.03927285
230	0x3bf6b43a	0.007528809
231	0x3ce376dd	0.02776664
232	0x3c8c22c4	0.017106421
233	0x3d209a6c	0.03920977
234	0xbda15cb4	-0.0787901
235	0x3dce4ba4	0.10073021
236	0x3cabda61	0.020978155
237	0xbd1be86f	-0.038063463
238	0xbcfc0ea1	-0.030768694
239	0x3d6d250f	0.05789667
240	0x3da97f18	0.08276194
241	0xbdc0b47d	-0.094094254
242	0xbc87b997	-0.016567988
243	0x3dc1d261	0.09463955
244	0x3d7a1980	0.061059475
245	0xbd9d62e1	-0.07684875
246	0x3dbddb60	0.09270358
247	0x3c07725a	0.00826701
248	0x3d856678	0.06513685
249	0x3d81e699	0.06342811
250	0x3dacacd4	0.08431402
251	0xbda4887a	-0.08033843
252	0xbcea2695	-0.02858285
253	0x3dd6c73f	0.10487222
254	0x3b9c8be8	0.0047774203
255	0x3d97c790	0.074111104

attn_layers.layers.0.1.to_out.weight f4 [74, 64]
0	0x3d2c5e1f	0.04208195
1	0x3d3f5b1f	0.04671776
2	0xbd6b9556	-0.057515465
3	0x3d75437a	0.059878804
4	0xbda066ba	-0.078320935
5	0x3dffa8be	0.12483357
6	0xbdb2042f	-0.08692204
7	0xbcc8ccfe	-0.02451181
8	0xbccdcff1	-0.025123568
9	0x3daca3c6	0.08429675
10	0xbe060078	-0.13086116
11	0xbc05d46c	-0.008168321
12	0xbd55ee04	-0.052228943
13	0xbcbc385f	-0.022976099
14	0x3ce1c4a5	0.027559588
15	0x3dc2eabe	0.0951743
16	0x3b2ad917	0.0026069337
17	0xbdbd1999	-0.09233398
18	0xbcd7dba1	-0.026349844
19	0x3cf8f569	0.030390458
20	0x3b957fbf	0.0045623477
21	0xbdbb4275	-0.09143535
22	0xbd831027	-0.06399565
23	0x3d98030d	0.07422457
24	0xbdd54537	-0.10413592
25	0xbd963f49	-0.073362894
26	0xbd2b7bb9	-0.041866038
27	0x3d8920d5	0.06695715
28	0xbd360c4f	-0.044445332
29	0xbdfc172a	-0.12309106
30	0x3d2eec1d	0.042705644
31	0x3d044c82	0.032299526
32	0x3de5deda	0.11224146
33	0x3d5906e1	0.052985076
34	0xbd4a297b	-0.049355965
35	0xbd839496	-0.06424825
36	0x3de957f5	0.113937296
37	0xbd2082b2	-0.03918714
38	0xbdf0d957	-0.11760204
39	0x3d09b2db	0.033617835
40	0x3c97bc65	0.01852245
41	0xbde3c241	-0.11121035
42	0xbd2c4393	-0.04205663
43	0xbdc0e5d8	-0.09418839
44	0x3deccef4	0.11562911
45	0xbd32b336	-0.04362794
46	0x3d5796dd	0.05263411
47	0x3da73760	0.08164859
48	0x3dd62f7b	0.10458275
49	0x3dd008e2	0.10157944
50	0x3d0a0214	0.033693388
51	0xbd6047e3	-0.054756057
52	0xbd70a754	-0.058753327
53	0x3c4638d7	0.012098513
54	0xbd877407	-0.06613927
55	0xbda5857d	-0.080821015
56	0x3e05a0bf	0.13049601
57	0x3de7290a	0.112871245
58	0x3db0a9e7	0.08626156
59	0xbdb8472c	-0.0899795
60	0x3d3840ed	0.044983793
61	0x3d00f05a	0.031479217
62	0xbd01183f	-0.031517264
63	0x3be37f0e	0.0069426363
64	0xbd0840c6	-0.033264898
65	0x3d08cb2e	0.033396892
66	0xbdaa235a	-0.08307524
67	0x3c735dd2	0.0148539115
68	0x3dab2c92	0.083581105
69	0x3d95b29d	0.073094584
70	0xbd2b2823	-0.041786324
71	0xbd5ebc95	-0.054379065
72	0xbbb874ac	-0.0056291427
73	0xbdcc7f62	-0.09985234
74	0x3d84207f	0.06451511
75	0xbcca0f9a	-0.024665643
76	0x3ddb1660	0.10697627
77	0x3db9b641	0.09067965
78	0xbc376d89	-0.011195549
79	0x3dea99c4	0.1145511
80	0x3d005c5d	0.031338084
81	0xbd2ba82e	-0.041908436
82	0xbce6d506	-0.02817775
83	0x3df1c4bb	0.118051015
84	0xbd2d9d0d	-0.042386103
85	0x3ce58411	0.028017076
86	0x3d6503ef	0.055911954
87	0xbd671000	-0.056411743
88	0xbc9b3994	-0.018948354
89	0x3d149173	0.036271524
90	0xbd12ed98	-0.03587112
91	0x3d350ed8	0.04420361
92	0x3b8a3c82	0.004218639
93	0x3ddd1fd1	0.10797084
94	0x3c706fde	0.014675109
95	0xbd26f67b	-0.040762406
96	0x3d58b994	0.052911356
97	0xbc96027b	-0.01831173
98	0x3ba3f088	0.005003039
99	0x3d2b4e19	0.041822527
100	0x3cab66c0	0.020923018
101	0xbd24f51a	-0.04027281
102	0xbdc8fd52	-0.09813942
103	0x3c78f7a2	0.015195759
104	0xbdddf5bd	-0.108378865
105	0xbdc95b40	-0.09831858
106	0xbd55a3c2	-0.052158125
107	0x3c98f7fc	0.018672936
108	0x3c51c63a	0.012803609
109	0x3ddb73cc	0.10715446
110	0x3dc49faa	0.09600766
111	0xbdeee6f4	-0.116651446
112	0xbcf3c05c	-0.02975481
113	0xbd65cf4a	-0.05610589
114	0xbc48307e	-0.012218593
115	0x3dd6f97f	0.10496806
116	0xbc48e0ec	-0.012260657
117	0xbcfff35e	-0.031243976
118	0xbcb7d0f4	-0.022438504
119	0x3ce22a05	0.027607927
120	0xbd8fbdbb	-0.0701861
121	0xbcd1a326	-0.02559049
122	0x3d33929d	0.043840993
123	0x3da64626	0.081188485
124	0x3c843100	0.016136646
125	0x3dce9aa3	0.10088088
126	0x3d8eb173	0.069674395
127	0x3def442d	0.116829254
128	0xbd8ca701	-0.06867791
129	0xbdcb03c2	-0.09912826
130	0xbdd788ee	-0.10524164
131	0xbd983ba8	-0.074332535
132	0x3944c79d	0.00018766378
133	0x3cfe2b15	0.031026402
134	0x3cca4b92	0.024694238
135	0x3dd1713d	0.102266766
136	0x3d4d9a00	0.050195694
137	0xbd9270c3	-0.07150414
138	0xbd6c46a8	-0.05768457
139	0xbbcadc5b	-0.006190819
140	0xbc77a1c4	-0.0151142515
141	0xbdbb9599	-0.09159393
142	0x3bdd1569	0.006746937
143	0x3db2b59d	0.08726046
144	0x3c1726f7	0.009225599
145	0x3c026c85	0.007960443
146	0xbdc5d512	-0.096597806
147	0x3deb1e76	0.11480419
148	0xbc6c56e7	-0.014425016
149	0x3c670e0e	0.014102472
150	0xbdf4eaaf	-0.11958825
151	0xbdfc7c6f	-0.12328421
152	0x3d0c8363	0.034304988
153	0x3d6a21f6	0.057161294
154	0x3dba7477	0.09104245
155	0x3a39ac5d	0.0007082874
156	0xbd650d3e	-0.05592083
157	0xbde47d86	-0.11156754
158	0xbc849e80	-0.01618886
159	0x3d2c0d33	0.042004775
160	0x3de6dc6e	0.112725124
161	0xbe02e4ed	-0.12782641
162	0x3cde9df9	0.027174937
163	0xbdb55042	-0.088531986
164	0xbdd3a2ed	-0.1033381
165	0xbdac13dc	-0.084022254
166	0x3df353cb	0.118812166
167	0xbdad28ff	-0.08455085
168	0x3df3cf3b	0.119047605
169	0xbd59f17a	-0.053208806
170	0xbc33ab95	-0.010966201
171	0x3dc9e4c1	0.098580845
172	0x3d8d872f	0.0691055
173	0xbd2bbaa8	-0.041926056
174	0xbde133be	-0.10996197
175	0xbde1af8b	-0.1101981
176	0xbbd29d9f	-0.0064274813
177	0xbda8b086	-0.08236794
178	0xbd014356	-0.031558357
179	0x3d1449ad	0.036203075
180	0xbd62ae99	-0.05534229
181	0x3c2fdb14	0.010733385
182	0xbdd24040	-0.10266161
183	0xbdd84a0f	-0.105610006
184	0x3db5b842	0.08873035
185	0xbdf804aa	-0.121102646
186	0x3ca3b6bd	0.019984597
187	0x3cb0d2aa	0.021584827
188	0x3dd00ee1	0.10159088
189	0xbdb1a84b	-0.086746775
190	0x3db9d6b0	0.090741515
191	0x3d3706cf	0.044684228
192	0x3d8b4c0a	0.06801613
193	0xbd9e41d7	-0.07727402
194	0x3df6c0db	0.12048503
195	0xbcb1062c	-0.021609388
196	0x3cbe3af7	0.023221476
197	0xbbfa9b93	-0.0076479404
198	0xbdfbe38b	-0.1229926
199	0xbdf05577	-0.11735051
200	0xbd67a561	-0.056554202
201	0xbab50488	-0.0013810555
202	0x3cbe2077	0.02320884
203	0xbd4e0b3b	-0.05030368
204	0xbdc2769a	-0.09495278
205	0x3cb9ac07	0.022665037
206	0xbd80b0fe	-0.062837586
207	0xbd3000ef	-0.04296964
208	0x3cc15c27	0.023603512
209	0x3da5f1c1	0.081027515
210	0xbdc244a4	-0.094857484
211	0xbd443281	-0.047899727
212	0xbd093192	-0.03349454
213	0xbdd35e3b	-0.103207074
214	0xbde1795e	-0.11009477
215	0xbd6c6424	-0.05771269
216	0xbd6ca3ef	-0.057773527
217	0x3c7ce91d	0.015436438
218	0xbddae54a	-0.10688265
219	0xbdeaa011	-0.114563115
220	0x3db34e67	0.087551884
221	0x3b89f08b	0.004209583
222	0xbda1f2ec	-0.07907662
223	0x3d99279c	0.07478258
224	0x3e0627fa	0.13101187
225	0xbd330892	-0.043709345
226	0xbda22298	-0.079167545
227	0x3e037ed9	0.12841357
228	0x3cfcd542	0.030863408
229	0x3cffb38c	0.031213544
230	0x3d37ec6d	0.044903208
231	0x3d0024a2	0.031284936
232	0x3d11f516	0.035634123
233	0xbcc926da	-0.024554659
234	0xbc052d0d	-0.008128417
235	0xbc8ffcdd	-0.01757663
236	0x3ccf7246	0.025323045
237	0xbdba74d6	-0.09104316
238	0xbd4e0fe5	-0.050308127
239	0x3d36882d	0.04456346
240	0x3cfed2d3	0.031106388
241	0x3d857ee7	0.06518345
242	0xbdc33c4f	-0.09532987
243	0x3d918e6b	0.07107242
244	0x3d15b2a1	0.036547307
245	0xbd80662d	-0.062694885
246	0x3d351610	0.044210494
247	0x3cc20559	0.02368419
248	0x3ca43ee4	0.02004952
249	0x3d5a35f3	0.053274106
250	0xbd9c412e	-0.076296195
251	0x3d9d2dd2	0.07674755
252	0xbd9dd4fe	-0.07706641
253	0xbc87c4dd	-0.016573364
254	0x3d1ebb7a	0.03875301
255	0xbd6ecd71	-0.058301393

attn_layers.layers.1.0.0.weight f4 [74]
0	0x3f808fc2	1.0043871
1	0x3f7efda2	0.9960576
2	0x3f7eaec6	0.99485433
3	0x3f7fdd57	0.9994711
4	0x3f7f0772	0.99620736
5	0x3f7ec0ad	0.9951275
6	0x3f7cc1e9	0.98733383
7	0x3f7e69f3	0.99380416
8	0x3f7f7158	0.99782324
9	0x3f804dca	1.0023739
10	0x3f7e3b5a	0.99309313
11	0x3f7ed07a	0.9953686
12	0x3f80bf3c	1.005836
13	0x3f80a9d3	1.0051826
14	0x3f7cc991	0.98745066
15	0x3f7d823c	0.99026847
16	0x3f809599	1.0045654
17	0x3f80edd1	1.0072576
18	0x3f800015	1.0000025
19	0x3f806f6c	1.0034003
20	0x3f7fcb9c	0.9992006
21	0x3f7f3262	0.99686253
22	0x3f7dbae5	0.99113303
23	0x3f805ad8	1.0027723
24	0x3f7fafb2	0.99877465
25	0x3f808b3f	1.0042495
26	0x3f808a0c	1.0042129
27	0x3f820360	1.015728
28	0x3f7e2c6d	0.9928654
29	0x3f7ff755	0.99986774
30	0x3f7d2451	0.9888354
31	0x3f7d9ac5	0.99064285
32	0x3f812c1e	1.0091588
33	0x3f820beb	1.0159887
34	0x3f7d56bc	0.9896047
35	0x3f80a09e	1.0049016
36	0x3f82cd21	1.021885
37	0x3f7e1af6	0.9925989
38	0x3f7f04f3	0.99616927
39	0x3f7e8273	0.994178
40	0x3f7e75d7	0.9939856
41	0x3f7ec250	0.9951525
42	0x3f7eb1e0	0.99490166
43	0x3f7eeea2	0.99582875
44	0x3f808e9a	1.0043519
45	0x3f7fa5aa	0.9986216
46	0x3f7e2208	0.9927068
47	0x3f80ba61	1.0056878
48	0x3f7af8ae	0.98035705
49	0x3f7f4cea	0.99726737
50	0x3f7d0a73	0.9884407
51	0x3f7dfea5	0.9921668
52	0x3f7defb2	0.9919387
53	0x3f7dead5	0.9918645
54	0x3f7e8e2a	0.99435675
55	0x3f804402	1.0020754
56	0x3f8195d8	1.0123854
57	0x3f8045f3	1.0021347
58	0x3f810f36	1.0082767
59	0x3f8201f2	1.0156844
60	0x3f7ebe8c	0.995095
61	0x3f7bcd6a	0.9836031
62	0x3f7ea4d6	0.9947027
63	0x3f7ec73f	0.99522775
64	0x3f80a8ab	1.0051473
65	0x3f80d0b9	1.0063697
66	0x3f7c75ca	0.9861723
67	0x3f81274c	1.0090117
68	0x3f8077ed	1.0036598
69	0x3f801c47	1.000863
70	0x3f80a721	1.0051004
71	0x3f81531d	1.0103489
72	0x3f801b6d	1.000837
73	0x3f8026f5	1.0011889

attn_layers.layers.1.0.0.bias f4 [74]
0	0x3ae15978	0.0017192801
1	0x39ad8293	0.00033094417
2	0x39bda144	0.0003616904
3	0xbb6cfbd7	-0.003616085
4	0xbb25eeb1	-0.0025319273
5	0x3aa2d401	0.0012422801
6	0x3b876947	0.004132423
7	0xbb3399d1	-0.0027404914
8	0x3b39aa49	0.0028330258
9	0x3bcf14cf	0.0063196192
10	0x3afe406c	0.0019397861
11	0x3a9b3f4c	0.0011844425
12	0x3a4a92a8	0.0007727542
13	0xbadb086a	-0.0016710882
14	0x3bc27446	0.005934271
15	0x3bd5bf10	0.0065230206
16	0xb9c77fa6	-0.00038051343
17	0x3b3d3e37	0.0028876194
18	0x3a608e15	0.0008566094
19	0x3bcac051	0.0061874767
20	0xb9adc13f	-0.0003314111
21	0x391ad45e	0.00014765697
22	0xbbdd9b3d	-0.0067628906
23	0x3a2c1347	0.0006564152
24	0xbb103114	-0.002200191
25	0x3b831810	0.004000671
26	0x3ad6fe00	0.0016402602
27	0x3a9bf4c3	0.0011898506
28	0x3b2d81db	0.0026475105
29	0x3bb22402	0.0054364214
30	0x3c41891b	0.011812474
31	0x3c52878c	0.0128497
32	0xbb688430	-0.003547918
33	0xbb762139	-0.0037556423
34	0x3c8b2e22	0.016989771
35	0x3b02190b	0.0019851353
36	0xbaf3c368	-0.0018597664
37	0x3a517152	0.00079896033
38	0x3c01219a	0.007881546
39	0x3c024171	0.007950173
40	0x3c20b81a	0.009809518
41	0xbb14df3f	-0.0022716073
42	0x3935a90a	0.00017324477
43	0x3b5caf1b	0.0033673707
44	0x3a7d9ec8	0.00096748443
45	0x3b731986	0.003709407
46	0xbb97da3c	-0.00463417
47	0xbb5c9a0a	-0.003366115
48	0xbc6afe40	-0.0143428445
49	0xbab1a3d5	-0.0013552854
50	0x3c26f357	0.010189853
51	0x3c0123e2	0.00788209
52	0x3b873316	0.004125963
53	0xbc9b0596	-0.018923562
54	0xbc026b87	-0.007960207
55	0xbabca6ad	-0.0014392935
56	0x3b9bda38	0.0047562383
57	0xbb83c9a8	-0.004021842
58	0xbbd4ba07	-0.0064919027
59	0xbb200211	-0.0024415294
60	0xbb834a62	-0.00400667
61	0xbc94d2fc	-0.018167011
62	0xbb4d61da	-0.0031338842
63	0xbb81ee14	-0.0039651487
64	0xbb896281	-0.004192651
65	0xbb098a3f	-0.0020986942
66	0xbc8a6839	-0.0168954
67	0xbc5a799b	-0.013334657
68	0xbb81d043	-0.0039615943
69	0xbb4fe920	-0.0031724647
70	0xbb990b1e	-0.0046705147
71	0xbb0ef877	-0.0021815577
72	0xbb94b66a	-0.004538347
73	0xbbdc8d05	-0.006730678

attn_layers.layers.1.1.ff.0.0.weight f4 [296, 74]
0	0xbdd30111	-0.10302938
1	0x3d9462f0	0.07245433
2	0x3dd6ce6b	0.1048859
3	0xbd0e8327	-0.034793045
4	0xbddb98f2	-0.107225314
5	0x3bcf140c	0.0063195284
6	0xbd0a7328	-0.033801228
7	0x3dc9cf97	0.09854048
8	0x3dc50c17	0.096214466
9	0xbb5f85a6	-0.003410676
10	0x3ceb0b1b	0.028691819
11	0xbdf1e3d4	-0.11811033
12	0xbdba11fa	-0.0908546
13	0x3dcdfe77	0.10058301
14	0x3cb86fc0	0.022514224
15	0xbc13b018	-0.009014152
16	0xbc94497b	-0.018101444
17	0xbd12a130	-0.03579825
18	0x3d42ad40	0.047528505
19	0x3d58d475	0.05293699
20	0x3d35be5a	0.044370987
21	0x3d673ddd	0.05645548
22	0x3dbd9a3e	0.09257935
23	0x3d93db15	0.07219521
24	0x3dc2e96e	0.095171794
25	0xbc2e77b0	-0.010648653
26	0x3dc06c5b	0.09395667
27	0x3c3bc726	0.011461055
28	0xbd913666	-0.07090454
29	0xbde47f7e	-0.1115713
30	0x3da985d7	0.08277481
31	0x3d8a79dc	0.06761524
32	0xbda708bd	-0.081559636
33	0xbd40e613	-0.047094416
34	0x3da77535	0.08176652
35	0x3dab203b	0.08355757
36	0xbc78e901	-0.015192271
37	0xbdcab892	-0.09898485
38	0xbdbe2029	-0.09283478
39	0xbd2d2258	-0.04226908
40	0xbd0d0ca2	-0.034435876
41	0x3cd8aa2c	0.026448332
42	0xbc380e05	-0.011233811
43	0x3d8b4091	0.067994244
44	0x3db4fbb8	0.08837074
45	0x3da5bad4	0.08092275
46	0xbd50255c	-0.05081688
47	0xbdd57b0e	-0.104238614
48	0x3da6776c	0.08128247
49	0xbc36d49c	-0.011159088
50	0xbd8b3dfc	-0.06798932
51	0x3d231a25	0.039819855
52	0xbd23f07a	-0.04002426
53	0x3d9ba4ed	0.075998165
54	0xbd18a040	-0.0372622
55	0x3d65f1f0	0.056138933
56	0xbd856da3	-0.06515052
57	0xbe0484a1	-0.12941219
58	0x3d28d498	0.04121837
59	0xbda4c7bb	-0.08045908
60	0x3d5d3892	0.054009028
61	0xbd42acaf	-0.047527965
62	0x3cbd9053	0.023140108
63	0xbdd4c41a	-0.10388966
64	0xbce5ac22	-0.02803618
65	0x3d91647b	0.07099243
66	0xbd204d54	-0.039136246
67	0x3d02fa38	0.03197691
68	0x3d5fcb7b	0.054637413
69	0xbce2208c	-0.02760341
70	0xbd86625c	-0.06561729
71	0xbddff47f	-0.10935306
72	0xbda3aaa5	-0.07991532
73	0xbd2546e5	-0.040350813
74	0xbdad7475	-0.08469478
75	0xbd3e8e12	-0.046522208
76	0x3d82c13c	0.06384513
77	0xbd284938	-0.04108545
78	0x3dabe75a	0.08393736
79	0xbdd7b206	-0.10532002
80	0x3dce2076	0.10064785
81	0xbbe6f68f	-0.007048435
82	0x3d9c2063	0.07623365
83	0x3b72e3ed	0.0037062124
84	0xbd1f43dd	-0.03888308
85	0x3b26232a	0.002535055
86	0x3d03757a	0.032094456
87	0xbd8e9bfe	-0.06963347
88	0x3d9a6b95	0.07540051
89	0x3dcf4379	0.10120291
90	0x3d8e19b8	0.06938499
91	0xbd338b94	-0.043834284
92	0xbd9ca153	-0.07647958
93	0xbdd924e1	-0.10602737
94	0x3a8a788c	0.001056449
95	0x3d81f262	0.06345059
96	0xbda08423	-0.07837703
97	0xbce9db4c	-0.028546952
98	0x3d856b79	0.065146394
99	0xbd5b30e4	-0.053513423
100	0x3d5e71f5	0.054307897
101	0x3d2ddf58	0.042449325
102	0xbcd4eae7	-0.025990916
103	0xbcc55795	-0.024089614
104	0xbd56c985	-0.052438278
105	0x3ddcea18	0.10786837
106	0x3d9da97a	0.07698341
107	0x3db0d86a	0.08635028
108	0x3c97c890	0.018528253
109	0xbb9edf82	-0.0048484216
110	0xbdceed27	-0.10103827
111	0x3d77819e	0.060426347
112	0xbccd1de2	-0.025038663
113	0x3c5ac4b2	0.01335256
114	0xbb199d98	-0.002343988
115	0xbc686e65	-0.014186476
116	0x3c828d09	0.015936391
117	0x3dc50b7d	0.09621332
118	0x3de76998	0.11299437
119	0xbdb1de69	-0.086849995
120	0x3d845e8b	0.06463345
121	0xbd7ca6d3	-0.061682533
122	0x3bd0ae80	0.0063684583
123	0xbde0d9e1	-0.10979057
124	0x3c987def	0.018614737
125	0xbdb60b83	-0.088889144
126	0xbde1c1ae	-0.110232696
127	0xbc9e09a4	-0.019291706
128	0x3de11c7a	0.109917596
129	0x3ca280aa	0.019836742
130	0xbe04479d	-0.12917943
131	0x3c746489	0.014916548
132	0xbd3497ba	-0.04409001
133	0xbd8d4403	-0.06897738
134	0x3c70df96	0.014701745
135	0x3daf8607	0.085704856
136	0x3dcd04c7	0.10010677
137	0x3d8143b2	0.0631174
138	0xbd277931	-0.04088706
139	0xbd72b76b	-0.059256952
140	0xbbf58737	-0.0074929255
141	0xbbb4b58e	-0.005514807
142	0xbccf0a50	-0.025273472
143	0xbce7c2c6	-0.028291117
144	0x3dc2dd3b	0.095148526
145	0x3d6c4e71	0.057691995
146	0xbb422b0b	-0.0029627706
147	0x3c67c584	0.0141462125
148	0x3c20c624	0.009812865
149	0xbd48afa3	-0.048995625
150	0xbd0a7618	-0.03380403
151	0x3d848add	0.064717986
152	0xbddf0c16	-0.10890977
153	0x3c958705	0.018252859
154	0x3cf52c79	0.029928433
155	0x3dbaa7b9	0.09114022
156	0x3cfeb8cd	0.03109398
157	0xbc318c0d	-0.010836613
158	0xbd8ad0d3	-0.06778111
159	0xbdc57c38	-0.096428335
160	0xbd8d982f	-0.06913792
161	0x3b48b53b	0.00306256
162	0xbdc0e87f	-0.09419345
163	0xbd97edd6	-0.074184105
164	0x3dbd4b0a	0.09242828
165	0xbd2c11f3	-0.042009305
166	0xbcbf7559	-0.023371385
167	0x3cf4dbd2	0.029889975
168	0xbd87e50c	-0.06635484
169	0xbdd2baeb	-0.10289558
170	0x3df8425b	0.12122031
171	0x3d9ce8ec	0.07661614
172	0xbd7c3371	-0.061572496
173	0xbd88ac1e	-0.06673454
174	0x3d19725f	0.03746259
175	0xbd158765	-0.036506075
176	0x3df3214b	0.118715845
177	0x3dae42d1	0.08508838
178	0xbd31a3fa	-0.04336927
179	0x3db8503d	0.08999679
180	0xbc7c2f01	-0.015392066
181	0xbdbcc61d	-0.092174746
182	0xbcfbe804	-0.030750282
183	0xbd221888	-0.039574176
184	0xbda6ad1c	-0.08138487
185	0x3da6e1bc	0.08148524
186	0xbc511e61	-0.012763591
187	0x3d719366	0.05897846
188	0xbc65f685	-0.014035826
189	0xbdcf9267	-0.10135346
190	0xba209779	-0.0006126087
191	0xbca39655	-0.019969145
192	0xbd8120c3	-0.06305077
193	0xbd47499e	-0.04865419
194	0x3bb40337	0.0054935473
195	0x3dc0f1c4	0.09421113
196	0xbc08d8d3	-0.008352476
197	0xbdeb16ce	-0.11478959
198	0xbc0e4129	-0.008682528
199	0x3d52dd4c	0.051480576
200	0x3d3c6c5b	0.046001773
201	0x3d3d00bb	0.046143275
202	0x3d85b845	0.06529287
203	0xbdfb6de4	-0.12276819
204	0x3d619b74	0.055079892
205	0xbdbdbb00	-0.09264183
206	0xbda8729f	-0.08224987
207	0xbdc6922c	-0.09695849
208	0xbd879fd8	-0.06622285
209	0xbccc98ce	-0.024975207
210	0x3d8b95a2	0.068156496
211	0xbd3fc9fe	-0.046823494
212	0x3dba1b5e	0.09087251
213	0xbd91d792	-0.07121195
214	0x3c873575	0.016504982
215	0xbcb7bd13	-0.022429025
216	0xbdc0cb79	-0.09413809
217	0x3c344c0b	0.011004458
218	0xbd83dd31	-0.06438673
219	0xbc09edb8	-0.008418493
220	0x3d871e90	0.06597626
221	0xbd4332eb	-0.04765598
222	0x3d9d35fe	0.07676314
223	0x3da642c3	0.081182025
224	0x3c175418	0.009236358
225	0x3dc2fe1c	0.09521124
226	0x3d3155b8	0.04329464
227	0x3d4a754e	0.049428277
228	0xbd3a2300	-0.045443535
229	0xbdb39c17	-0.08770006
230	0xbde60a3a	-0.11232419
231	0x3da2bd02	0.07946207
232	0xbd9e8512	-0.07740225
233	0xbda22bdb	-0.07918521
234	0xbc9dfa18	-0.019284293
235	0x3dcb4683	0.099255584
236	0xbd766c0a	-0.060161628
237	0x3d885937	0.066576414
238	0x3ddd4eb3	0.10806026
239	0x3d6c1885	0.05764057
240	0xbae7d182	-0.001768634
241	0xbd146ac9	-0.03623465
242	0xbda1ac9f	-0.07894253
243	0xbd19f0e5	-0.03758325
244	0xbd9cd7d2	-0.07658352
245	0xbc90e9e3	-0.01768965
246	0x3d1f3375	0.038867433
247	0xbda591c1	-0.08084441
248	0x3d68fd23	0.056882035
249	0xbdc17960	-0.094469786
250	0x3d8fab99	0.070151515
251	0xbc1027f3	-0.008798587
252	0xbd7cc4ba	-0.06171105
253	0xbcb73e67	-0.022368623
254	0x3ce9542f	0.028482525
255	0xbc36d40a	-0.0111589525

attn_layers.layers.1.1.ff.0.0.bias f4 [296]
0	0xbdda3191	-0.10653985
1	0xbcc3c69d	-0.023898417
2	0xbdcd7532	-0.10032119
3	0xbcd5e54f	-0.02611032
4	0xbd36cb93	-0.044627737
5	0xbc2cf387	-0.010556108
6	0xbce22479	-0.027605282
7	0x3d7e5bc3	0.06209923
8	0x3dafba7a	0.085804895
9	0x3dbacede	0.09121488
10	0x3d743927	0.059624817
11	0x3c558a13	0.013033408
12	0xbd734b55	-0.059398014
13	0x3c43a82b	0.01194195
14	0xbc7f67c0	-0.015588701
15	0x3c06002c	0.008178752
16	0xbd4f05cd	-0.05054264
17	0x3d365813	0.044517588
18	0x3d84c91f	0.06483673
19	0x3c88fde6	0.01672263
20	0x3d79a6e9	0.060950194
21	0xbd8394f4	-0.06424895
22	0x3d4b7745	0.04967429
23	0xbd8b03b0	-0.06787813
24	0x3d86ebd4	0.065879494
25	0xbd873878	-0.066025674
26	0x3bb792d1	0.0056022187
27	0xbd4adfd1	-0.049529854
28	0x3cfa03da	0.030519415
29	0xbda22c72	-0.079186335
30	0xbdd2368b	-0.102643095
31	0x3cfd3544	0.030909188
32	0xbc41677f	-0.011804461
33	0xbd2a666f	-0.041601595
34	0xbd933edd	-0.071897246
35	0xbcf84726	-0.030307364
36	0xbd57f4bd	-0.052723635
37	0xbdb85765	-0.09001044
38	0x3d933102	0.07187082
39	0xbdebfcb9	-0.115228124
40	0xbdf4b43a	-0.11948438
41	0xbd937b75	-0.07201282
42	0xbc5be145	-0.013420408
43	0x3b896a23	0.0041935607
44	0x3d2e2494	0.042515352
45	0x3d1bd968	0.03804913
46	0xbbed2ca9	-0.00723799
47	0xbd43f842	-0.04784418
48	0xbda0db3a	-0.07854314
49	0xbd9d776a	-0.07688792
50	0x3d5fa3b6	0.054599486
51	0xbd88385c	-0.06651375
52	0xbcb828fe	-0.022480484
53	0x3d2fc5a0	0.04291308
54	0x3d963bd4	0.0733563
55	0xbd81cc34	-0.06337777
56	0x3c0775a0	0.00826779
57	0xbd603747	-0.054740217
58	0xbd83d63f	-0.064373486
59	0xbd53c210	-0.051698744
60	0x3d66034f	0.0561555
61	0x3d60716b	0.054795664
62	0x3de22575	0.110423006
63	0x3ba1ac94	0.004933903
64	0x3d54175c	0.05178009
65	0x3d590881	0.052986626
66	0xbddf0cbb	-0.108911
67	0x3d908cb2	0.070580855
68	0x3c639368	0.013890125
69	0xbca0db7d	-0.01963591
70	0xbd681d9b	-0.05666886
71	0x3d674e50	0.05647117
72	0x3da76ad4	0.08174673
73	0xbd079f8e	-0.033111148
74	0xbcadfbe5	-0.021238277
75	0xbcccc5f8	-0.024996743
76	0x3b9d2932	0.0047961706
77	0x3c381aa8	0.011236824
78	0x3ceafc70	0.028684825
79	0xbda6aee0	-0.081388235
80	0xbccb10b8	-0.024788246
81	0xbd3ee757	-0.04660734
82	0x3db364e2	0.08759476
83	0xbdc09e0c	-0.09405145
84	0x3cde13b1	0.027108999
85	0xbd4be424	-0.04977812
86	0xbcdabcc7	-0.026701344
87	0x3dc64d7a	0.09682746
88	0xbde4a689	-0.111645766
89	0xbd8591f1	-0.06521977
90	0xbce54994	-0.027989186
91	0xbd81836e	-0.06323896
92	0xbc8745b9	-0.016512739
93	0xbd99ae7e	-0.07503985
94	0x3c205764	0.009786461
95	0xbd842025	-0.064514436
96	0x3d3048b1	0.043038074
97	0x3dbed6e6	0.093183324
98	0xba58fe8d	-0.0008277677
99	0xbde03956	-0.10948436
100	0x3d90646b	0.07050403
101	0xbd55dd1a	-0.052212812
102	0x3d8aeba1	0.06783224
103	0xbc600b58	-0.01367458
104	0x3d7b5082	0.061356075
105	0xbdde40a3	-0.10852172
106	0xbde74a72	-0.11293496
107	0xbd794c3f	-0.06086373
108	0xbd71cbc9	-0.059032235
109	0x3da9bbe4	0.082877904
110	0xbb17a395	-0.0023138274
111	0xbd931f3a	-0.0718369
112	0x3c8c9ed6	0.017165583
113	0xbce755b5	-0.02823911
114	0x3cd1d3f6	0.025613766
115	0xbd434179	-0.04766986
116	0x3d09e2b5	0.03366347
117	0xbd8f9715	-0.070112385
118	0xbd1ca79f	-0.038245793
119	0xbd7d443e	-0.06183266
120	0xbd86b8c2	-0.065782085
121	0xbd11ac8f	-0.035564955
122	0x3c0a0876	0.008424869
123	0x3df60715	0.120130695
124	0x3bcf39b7	0.006324019
125	0x3d397271	0.045275155
126	0x3dd7ed49	0.105433054
127	0xbc98211d	-0.018570477
128	0x3d58ac62	0.052898772
129	0x3dae555f	0.08512377
130	0xbd34fa7b	-0.04418419
131	0x3b4d0e31	0.0031288976
132	0xbd966972	-0.07344331
133	0xbdd84ce2	-0.10561539
134	0x3de7dca9	0.113213845
135	0x3db734a6	0.08945589
136	0xbce1854b	-0.02752938
137	0x3d774f7e	0.060378544
138	0x3d70ed5c	0.058820114
139	0x3dd2789f	0.10276913
140	0x3cadb4b6	0.021204334
141	0xbc08103b	-0.008304651
142	0x3de5469a	0.11195107
143	0xbd7440fc	-0.059632286
144	0x3d095f2b	0.033538025
145	0xbcaa3e7a	-0.020781744
146	0xbd159491	-0.036518637
147	0x3db929a0	0.090411425
148	0xbd59a803	-0.053138744
149	0x3d929a10	0.07158291
150	0x3db3fcd5	0.08788458
151	0x3d2a9417	0.041645136
152	0xbd382cbe	-0.044964544
153	0xbda51463	-0.08060529
154	0xbcbd1ccc	-0.02308502
155	0x3c981636	0.018565279
156	0xbdfa7dc0	-0.12231016
157	0x3db276ce	0.087140664
158	0x3d9e4260	0.07727504
159	0x3dd270fd	0.10275457
160	0xbbc3a6ad	-0.005970797
161	0xbd7f5b99	-0.062343214
162	0x3bf09fa7	0.007343251
163	0xbdccb3fe	-0.09995268
164	0xbd9d0e9d	-0.07668803
165	0xbd7b1968	-0.061303526
166	0x3bff81dd	0.0077974633
167	0xbdd9bf32	-0.10632171
168	0xbd81fd0e	-0.063470945
169	0x3db0ec10	0.08638775
170	0x3d8680f5	0.06567565
171	0xbcbddbc9	-0.02317609
172	0xbdcc7125	-0.09982518
173	0x3d8ee0a0	0.069764376
174	0x3d357792	0.044303484
175	0xbdc2171b	-0.09477063
176	0x3cfb26e7	0.030658199
177	0x3d5aeaa0	0.053446412
178	0x3d3e528e	0.04646545
179	0x3dabbf65	0.08386115
180	0x3c38ca21	0.01127866
181	0x3cad928a	0.02118804
182	0xbbb51a1a	-0.005526793
183	0x3d3e21e3	0.046419036
184	0x3c963f62	0.01834077
185	0xbdd7103e	-0.10501145
186	0xbce9dbf4	-0.028547265
187	0xbd4008fa	-0.04688356
188	0x3ce66889	0.028126018
189	0x3c872ac6	0.016499888
190	0xbdd0235b	-0.101629935
191	0xbd659d6b	-0.05605833
192	0xbc33cc1b	-0.0109739555
193	0xbdf85157	-0.12124889
194	0xbdf4b791	-0.11949075
195	0xbdc03b23	-0.093862794
196	0x3d40c8f7	0.047066655
197	0x3dc67012	0.096893445
198	0x3d3e3aeb	0.046442907
199	0xbd8bdd86	-0.068293616
200	0xbd9ec8c4	-0.07753137
201	0x3b52be49	0.0032156876
202	0xbd0252dc	-0.031817302
203	0x3d820076	0.06347744
204	0xbd462e33	-0.048383903
205	0xbde2ac70	-0.11068046
206	0xbcbed3fa	-0.023294438
207	0x3d660477	0.0561566
208	0xbdbe7c16	-0.09301011
209	0xbcf2b9ff	-0.029629705
210	0x3dd16a2c	0.10225329
211	0x3db22623	0.0869868
212	0xbdeaa01f	-0.11456322
213	0x3c219b46	0.00986368
214	0x3d269d66	0.04067745
215	0xbdf0505a	-0.11734076
216	0x3d20ca55	0.03925546
217	0xbd39112d	-0.045182396
218	0x3cea77f5	0.028621653
219	0xbd03feff	-0.032225605
220	0xbd8ede85	-0.06976036
221	0xbd2f4be6	-0.04279699
222	0xbcdb6a54	-0.0267841
223	0xbd32c47f	-0.043644425
224	0x3da9a3c4	0.08283189
225	0x3d35d72b	0.044394653
226	0xbd9f277b	-0.07771202
227	0xbd99af05	-0.075040855
228	0xbbd5c5d0	-0.006523825
229	0x3dab8451	0.08374847
230	0xbda3cad6	-0.07997672
231	0xbd1c3055	-0.03813203
232	0xbcbf4499	-0.02334814
233	0x3d37201d	0.04470836
234	0xbda00f35	-0.078154005
235	0x3dbb67f2	0.09150685
236	0xbda87ded	-0.082271434
237	0x3dd81272	0.10550393
238	0xbd60845f	-0.05481374
239	0xbbb63a70	-0.0055611655
240	0x3d0a5462	0.03377188
241	0xbdb23df7	-0.08703225
242	0x3d008b5a	0.031382896
243	0x3c0e79f4	0.008696068
244	0xbdc6daef	-0.09709727
245	0x3ce71c5c	0.028211765
246	0x3ddf10fc	0.108919114
247	0xbd832444	-0.064034015
248	0x3d2ea775	0.04264017
249	0x3db1f0c7	0.08688503
250	0xbdbab661	-0.09116817
251	0x3d36ab4f	0.044596966
252	0x3d9080f1	0.070558436
253	0xbd1b38e7	-0.037896063
254	0xbdcbd4c1	-0.09952689
255	0x3d807dfd	0.0627403
