transformer_output/split_4/checkpoint.pt (torch, 831970 bytes, 46 tensors)

attn_layers.layers.0.0.0.weight f4 [74]
000000 ea 85 7f 3f d9 05 7f 3f be 87 7e 3f 81 62 80 3f
       0.9981371 0.996183 0.99425876 1.0030061
000010 8b ca 7f 3f c9 5e 80 3f eb 9f 80 3f 03 c5 80 3f
       0.9991843 1.0028926 1.0048803 1.0060123
000020 42 3d 7f 3f cf bb 80 3f 03 50 7f 3f 6d f2 7f 3f
       0.99702847 1.0057315 0.99731463 0.9997929
000030 d5 d6 7d 3f a5 be 80 3f 34 ec 81 3f eb cf 80 3f
       0.9915593 1.005818 1.0150208 1.0063452
000040 a5 14 80 3f d7 3a 80 3f a5 bc 80 3f eb 84 7e 3f
       1.00063 1.0017956 1.005757 0.99421567
000050 79 f2 7f 3f c1 ad 7e 3f 77 1f 80 3f d0 c5 7f 3f
       0.9997936 0.9948388 1.0009602 0.9991121
000060 5a 58 80 3f 07 28 80 3f 00 79 81 3f 45 67 7f 3f
       1.0026963 1.0012215 1.0115051 0.9976695
000070 c5 1d 80 3f bb bb 7f 3f 12 16 7f 3f 3c 5b 7f 3f
       1.0009085 0.9989583 0.9964305 0.9974859
000080 48 63 7e 3f 7d 7a 7f 3f 6d a0 80 3f a1 d2 7f 3f
       0.9937024 0.9979628 1.0048958 0.9993077
000090 f5 70 80 3f d9 03 7e 3f a2 2d 81 3f 05 f3 80 3f
       1.0034472 0.9922462 1.0092051 1.0074164
0000a0 b0 83 7e 3f 78 6c 80 3f e8 68 80 3f 1d ea 7f 3f
       0.9941969 1.0033102 1.0032015 0.99966604
0000b0 52 da 7f 3f e7 b7 80 3f 0f 50 7f 3f e9 64 7f 3f
       0.99942505 1.0056123 0.99731535 0.9976335
0000c0 25 e4 7f 3f 55 31 80 3f e2 b2 7f 3f 49 1b 7e 3f
       0.99957496 1.0015055 0.9988233 0.99260384
0000d0 22 91 80 3f 3d 46 7e 3f 47 2c 80 3f 38 c4 80 3f
       1.0044291 0.99325925 1.0013512 1.0059881
0000e0 a0 9d 80 3f 42 6d 80 3f 4b 31 7e 3f ae e0 7f 3f
       1.0048103 1.0033343 0.99293965 0.9995221
0000f0 82 35 80 3f 69 3f 7f 3f 10 e1 7e 3f c6 f4 7e 3f
       1.0016329 0.9970613 0.9956217 0.99592245
000100 e9 87 80 3f ec 57 7f 3f 8d 43 80 3f f8 94 7f 3f
       1.0041476 0.99743533 1.0020615 0.99836683
000110 a8 97 7f 3f 44 73 80 3f f4 46 7f 3f 9b 79 80 3f
       0.99840784 1.0035176 0.9971764 1.0037111
000120 49 c3 80 3f 19 79 80 3f
       1.0059596 1.0036956

attn_layers.layers.0.0.0.bias f4 [74]
000000 79 57 d0 3a 3f 4a 8a 39 e0 70 1b bb 33 0e f4 bb
       0.001589521 0.0002637673 -0.0023718402 -0.0074479817
000010 f6 d0 2f 3b ad c2 b3 3b 19 1f 19 3b 6e e9 48 3a
       0.0026827431 0.0054858536 0.0023364483 0.0007664178
000020 fa b0 4a 39 96 c6 97 ba 50 18 a2 39 68 1f a7 b7
       0.0001933015 -0.0011579569 0.00030917162 -1.9922576e-05
000030 f5 10 fb 3b 1b 97 25 ba 33 22 cf ba a4 a9 9e bb
       0.0076619335 -0.0006316767 -0.0015803039 -0.004842
000040 2f 18 11 bb 23 52 94 ba 6d 62 2e 3b 9a 9f 99 ba
       -0.0022139659 -0.0011315983 0.002660896 -0.0011720539
000050 26 b4 07 bc b2 44 97 3a ef e2 e4 3b da b8 8a bb
       -0.008282697 0.0011540859 0.0069850604 -0.004233462
000060 ff ba 98 3b 79 24 e0 3a ea fb 81 3a 49 52 96 3a
       0.0046609635 0.0017100713 0.0009916995 0.0011468615
000070 21 be b1 b9 73 1c e3 3a 35 55 6f 3b 9a d1 82 3b
       -0.00033901728 0.0017327204 0.0036519293 0.0039922716
000080 ef 69 1b 3c 50 78 f5 ba 60 06 1d bb c1 72 ea 3b
       0.009485706 -0.0018727873 -0.0023960099 0.007154793
000090 ff c8 93 ba bf 28 c2 3b 99 96 4a 3a 95 29 cc bb
       -0.0011275111 0.0059252675 0.0007728129 -0.006230543
0000a0 0e 23 bb 3b b0 7f 4b 3b cf cb 97 3a 10 2f d2 3a
       0.005710966 0.003105145 0.0011581125 0.0016035754
0000b0 ad 77 07 3b a9 f5 88 bb aa b4 71 3a 0e 89 8c 3b
       0.0020670698 -0.0041796756 0.00092203415 0.004288799
0000c0 ca a5 9a bb 22 86 f0 3b 82 58 bf 3a 1d 83 f6 3b
       -0.0047194706 0.0073402086 0.0014598521 0.007522954
0000d0 18 0a 22 3b ba 01 8e 3b 83 96 a6 3b 55 bf 3e 3b
       0.0024725255 0.004333702 0.0050838604 0.0029105742
0000e0 d6 9d 0b bc 61 a8 26 ba ee 16 99 bb 1e 7e da bb
       -0.008521518 -0.0006357488 -0.004671923 -0.0066678664
0000f0 84 d6 1a 3b 7a cb 3c bb ec 97 a2 bb c9 a2 3f ba
       0.0023626396 -0.0028807805 -0.004961958 -0.00073103287
000100 0c db 20 bb 40 66 8f bb e0 9a ab 3a bb 18 e9 bb
       -0.0024544625 -0.004376203 0.0013092421 -0.007113544
000110 9d dd 16 3b a0 bc ce 3a a2 39 5d bb 6d d6 31 bb
       0.0023020275 0.0015772767 -0.0033756276 -0.0027135864
000120 b6 97 7c 3b 85 8c 53 bb
       0.0038542575 -0.00322798

attn_layers.layers.0.1.to_q.weight f4 [64, 74]
000000 bc 1f 15 3d 9c bf c5 bb 89 05 78 3d b3 b5 a7 3d
       0.036407217 -0.0060348045 0.060552154 0.08188953
000010 cd 4e c4 bd 05 ef f6 bd 82 87 41 bd 81 88 a1 3c
       -0.095853426 -0.12057308 -0.04724837 0.01971841
000020 9f 0d 5b 3b 93 49 2e bd dd 75 0f 3d 4c 02 ca 3d
       0.0033424867 -0.042550635 0.035024513 0.09863719
000030 b6 bc df 3d 0f 8f b0 3d fe 4d b7 bc ed 66 08 3c
       0.10924666 0.08621036 -0.022376057 0.008325321
000040 18 5b 75 3d 45 ee e5 3d b1 0d c6 3d c3 94 39 3d
       0.059901327 0.11227087 0.0967058 0.045307886
000050 32 ee cd bd ec 2d 2b 3b 98 30 dc bd da d5 db 3d
       -0.10055198 0.00261199 -0.10751456 0.10734148
000060 ea 46 d9 3d 7f 31 c9 3d 6d 78 de 3d 70 4c a9 bd
       0.10609229 0.09823894 0.10862813 -0.082665324
000070 b8 9f 21 bd a9 31 18 bd 7b 69 6e 3d e9 6c 1c bc
       -0.03945896 -0.037156735 0.058206063 -0.009547451
000080 35 b7 7f 3d 2e e4 e1 bd 43 12 b7 3c 58 6b a9 bd
       0.06243058 -0.1102985 0.022347575 -0.08272427
000090 58 a8 ac bd 13 9e 90 bc be 84 a3 bc ab 63 6a bd
       -0.084305465 -0.0176535 -0.019960757 -0.057223957
0000a0 68 d5 ac 3d 60 05 a5 3d 7e b1 a0 3c 72 cc 0a bd
       0.084391415 0.08057666 0.019615885 -0.03388638
0000b0 74 18 1d 3d 9f 9e f4 bc d2 90 eb bd 58 9d ae 3d
       0.0383534 -0.029860793 -0.11502232 0.08526105
0000c0 1f 00 b3 3d 94 b2 fb bc d4 74 61 bb 1b 54 72 bd
       0.087402575 -0.030724801 -0.003440191 -0.05916224
0000d0 16 15 59 bd 24 62 91 3b cf 68 ab 3d d8 e7 d9 3c
       -0.052998625 0.004436748 0.083696 0.02659981
0000e0 4e c1 f9 bb d5 61 7c bd 72 e4 8b 3d d9 8a bf bc
       -0.0076219207 -0.061616737 0.06830682 -0.023381637
0000f0 ce 41 8a 3c 70 94 16 3d 92 43 dc bc 23 d3 87 bc
       0.016877081 0.036762655 -0.026887689 -0.01658017
000100 df d3 a6 3c f5 1f 61 3d 30 da b7 bc e5 f0 52 bc
       0.0203647 0.054962117 -0.022442907 -0.012874817
000110 2b a0 e3 bb 93 c9 c2 bd a8 ca 9b bd 94 ad 11 bd
       -0.0069465837 -0.095111035 -0.07607013 -0.035565928
000120 38 ea bd 3d 8e a2 62 3b 05 8d c9 3d ab 46 a9 bd
       0.09273189 0.0034581753 0.098413505 -0.08265432
000130 b2 0f 98 3d f9 bc 6d bd c7 8a 87 3d c2 1e 88 bd
       0.07424869 -0.058041546 0.066182666 -0.066464916
000140 aa 86 fe bb 9d 9e 3f 3c 66 bc 50 bd d0 a7 b7 3d
       -0.007767518 0.011695531 -0.05096092 0.089675546
000150 b3 41 8c 3c 0d d7 d6 bd 27 60 1d bd 2e dd 84 3c
       0.017121172 -0.104902364 -0.038421776 0.016218748
000160 11 bb f5 3d e3 83 45 3b d2 fc 8f 3d bd 6c 82 3d
       0.11998571 0.0030138425 0.070306435 0.063683964
000170 12 92 0d 3d 99 98 68 3b 55 76 97 3d 62 19 3f 3d
       0.03456313 0.0035491346 0.07395617 0.046655066
000180 bd 19 5a bc c2 69 b7 3c e4 aa 15 bd 53 94 9e 3d
       -0.013311801 0.022389296 -0.036539927 0.07743134
000190 df 2b 91 3d 82 ea cf 3d f2 6f d5 bc 63 55 7f bd
       0.07088446 0.10152151 -0.026054356 -0.06233729
0001a0 97 a6 8f 3d 4f 5a 5a bd 3d c3 f1 bd 97 51 f5 bd
       0.07014196 -0.05330878 -0.11804817 -0.11978453
0001b0 97 92 ae bd d9 e6 36 bd 9f 29 2b bd 45 59 ac 3d
       -0.085240535 -0.044653747 -0.04178774 0.08415464
0001c0 c2 f6 d0 bc 24 40 5f 3d 22 cb 76 3d 4d ac 87 3c
       -0.025508288 0.05450453 0.060252316 0.016561652
0001d0 ac bc 5c 3d 60 24 c7 bd 1d 98 2f bb 0c ea e5 bd
       0.05389087 -0.09723735 -0.0026793547 -0.112262815
0001e0 9d 89 9c ba af 1b 5f 3d 1b 7c 59 3d 73 33 12 3d
       -0.0011942867 0.05446976 0.05309687 0.035693597
0001f0 55 b8 e1 bd e4 85 7f 3d 4c b4 a2 3d 93 8a 13 bd
       -0.11021487 0.062383547 0.07944545 -0.036020827
000200 82 35 cb 3d ab 85 b0 bd 8c 3c c7 bd 9a 42 b1 3d
       0.09922315 -0.08619245 -0.09728345 0.08655281
000210 2b 82 23 bd 74 92 3f 3d 08 f6 76 3d 42 d4 aa 3d
       -0.03991906 0.046770528 0.060293227 0.08341266
000220 22 27 bb 3b ac 60 9c 3b e6 52 70 bd 5c 9c a8 bc
       0.005711452 0.0047722664 -0.058672808 -0.02058237
000230 cf 70 7c 3d 03 1d 3e bd e1 d7 06 3d 5f b7 89 3c
       0.06163102 -0.046414386 0.032920722 0.016811071
000240 ac 54 56 bd b3 8a 7f 3d 25 e8 ba 3d 8c 95 f2 3b
       -0.052326843 0.062388133 0.09126309 0.0074030813
000250 c4 1f 22 3d 36 00 b8 bd 74 3a 19 bd 6f 00 17 3c
       0.039581075 -0.08984415 -0.03740926 0.009216412
000260 39 be ed bd e8 17 b9 bb 68 a8 91 bc 43 86 fe bc
       -0.11608548 -0.005648602 -0.017780498 -0.03106988
000270 c2 f6 aa bd db 3e 81 bd 8f 74 0f bc b3 13 ca bd
       -0.083478466 -0.06310817 -0.008755817 -0.098670386
000280 03 16 3a bd 6f ea cd bd 1e b4 7c 3c 78 fe 75 3c
       -0.04543115 -0.1005448 0.015423803 0.015014283
000290 1d ba 89 3d 37 d9 e2 bd 6c 42 f8 bc 1d 74 c5 3d
       0.067249514 -0.11076587 -0.03030511 0.096412875
0002a0 03 27 c6 3d dd e9 a0 3d 75 a3 e9 bd ef 00 3a bd
       0.0967541 0.07857106 -0.1140813 -0.045411047
0002b0 b2 f8 c5 bd 11 46 a0 bd 27 e0 c5 bd ba 48 ac bc
       -0.096665755 -0.07825864 -0.09661894 -0.021030772
0002c0 da aa db 3d 14 63 41 bd 97 4f 17 bc 43 17 d9 bd
       0.10725947 -0.04721363 -0.009235284 -0.1060014
0002d0 cc 03 56 3d bd 7e 21 bd b1 9d e5 3c da 1a 10 3d
       0.052249715 -0.039427508 0.028029295 0.035181858
0002e0 81 fe 91 bd ae 17 ce 3d 57 4f 1d 3d 98 e3 d4 bc
       -0.07128621 0.1006311 0.038405742 -0.025987431
0002f0 67 c2 c9 3d 5b 81 ae 3d 34 1f 53 bd e4 e3 80 bd
       0.098515324 0.08520766 -0.05154343 -0.06293467
000300 5a 6b 84 bd 5e de 03 bc 15 08 db 3d 62 5b c0 bd
       -0.06465788 -0.008048622 0.10694901 -0.0939243
000310 74 69 ed 3c 52 80 f3 bc d6 61 1c bd ab d8 83 bd
       0.028980948 -0.029724274 -0.03817924 -0.064378105
000320 16 43 87 bd 0e 23 84 bd e3 6b a8 3d 82 1e 26 3d
       -0.066045925 -0.06451999 0.08223703 0.04055644
000330 c7 bc 91 3d 77 52 c7 bb 5d f6 ab bc 23 e7 af bd
       0.071160845 -0.0060828286 -0.020991499 -0.08589008
000340 42 21 2f 3d 85 dd 78 3d d8 35 96 bd 9e fc 1b 3d
       0.042756326 0.060758132 -0.07334489 0.03808271
000350 46 53 a9 bd ee f9 a3 3d 0d 0e e5 bc 2e 6a 50 bb
       -0.08267836 0.08006655 -0.027960801 -0.003180157
000360 5c 4d 35 3d 7e 75 d0 3d c4 a4 e2 3d 49 6b dc 3b
       0.04426323 0.1017866 0.11066583 0.0067266566
000370 be c4 37 bc 09 34 78 3d ee af 1a bc 53 66 cf bd
       -0.011216341 0.0605965 -0.009441359 -0.10126939
000380 7d a4 8b 3c 3c 44 8d bd 7d 17 0d bd 8d 96 0a bd
       0.017046208 -0.0689778 -0.03444623 -0.033834983
000390 f1 88 4b bd 5a d8 49 bd e6 90 03 bd 82 61 1b bd
       -0.049691144 -0.049278595 -0.032120608 -0.037934788
0003a0 40 ff b1 3d 04 6b b4 3d 6c eb e2 3c 90 c8 dc 3d
       0.08691263 0.08809474 0.027700149 0.10780442
0003b0 a4 fc 80 3d f7 6a ba 3d ff fb e7 3d 38 49 41 3d
       0.062981874 0.09102433 0.11327361 0.047188967
0003c0 ed 63 e5 3d 8c ae 84 bc 19 c6 52 3d c3 bb 3c bc
       0.112007 -0.016196512 0.051458452 -0.011519375
0003d0 27 db da 3c 8a 91 e4 3d 04 4e a3 bd 89 bb 5f bd
       0.026715828 0.11160572 -0.07973865 -0.054622207
0003e0 db dd a6 bc 0a b3 35 3d 4f e9 ed bd 95 2d 32 3b
       -0.02036946 0.044360198 -0.11616766 0.0027187814
0003f0 ec 18 a5 bd 78 58 b8 3d 00 9a a8 bd 85 3a e7 bd
       -0.08061394 0.09001249 -0.08232498 -0.112904586

attn_layers.layers.0.1.to_k.weight f4 [64, 74]
000000 71 1b 9d bd 5b 6e 77 bd 99 fe 21 3c 6f e3 e3 bd
       -0.0767125 -0.060407978 0.009887361 -0.11127364
000010 90 52 54 bd d7 62 98 bb 2a ea ca 3d d0 d7 07 bd
       -0.05183655 -0.0046504545 0.099079445 -0.0331648
000020 b0 bc c2 bc 9b 4d fb 3d a3 c4 35 3d 6a 64 9b 3d
       -0.023771614 0.122706614 0.04437698 0.07587512
000030 2c 9b eb 3d 5a a3 8c bd 98 c5 8a bd 96 25 8c bc
       0.11504206 -0.06867094 -0.06775969 -0.017107766
000040 59 a4 5f bd ad 04 0a bd 28 46 96 3d 4a bc a2 3c
       -0.054600094 -0.033695865 0.073376 0.019865174
000050 33 e0 4e bd 49 0a d2 3d 67 12 8c 3d 26 0f f6 bd
       -0.05050678 0.10255868 0.068394475 -0.12014608
000060 47 1e a6 3d 99 96 88 3b 46 48 bb bd 86 0d ca 3c
       0.08111244 0.0041683433 -0.091446444 0.024664652
000070 1b d8 a1 3d 34 6b 05 3d fe 43 45 3d c6 61 39 3d
       0.07902547 0.03257294 0.048160546 0.04525926
000080 c6 13 78 bd 39 bc 90 3c 05 8e aa 3d a1 4b b3 3c
       -0.060565732 0.017667877 0.08327869 0.021886649
000090 97 1d 48 bc 14 8a 13 bd bb 28 75 bd 7d 92 af bd
       -0.012214086 -0.036020353 -0.059853297 -0.08572862
0000a0 f7 5f a8 3c ef 00 d3 3d cf c1 16 3c 88 0f 1a bd
       0.020553572 0.103029124 0.009201481 -0.037612468
0000b0 4e 17 5f 3d 0c 4e 3a 3c 88 76 87 bd 2b 55 80 bd
       0.054465584 0.011371147 -0.06614405 -0.062662445
0000c0 a1 ce 96 bd c3 9b ad bb 69 e8 9b 3d d3 15 ae 3a
       -0.0736363 -0.0052981093 0.07612688 0.0013281651
0000d0 08 47 c0 bc 3f ea 33 3c 72 19 03 bd d4 7c 01 bc
       -0.02347137 0.010981142 -0.03200669 -0.0079032965
0000e0 9e bf ba bd 6c d7 30 3d f8 45 d4 3d d7 d2 75 3c
       -0.09118579 0.043174192 0.10364908 0.015003881
0000f0 8c 8a 82 3d 7e a5 ab bd 8d 73 90 3d 69 31 10 bd
       0.06374082 -0.083811745 0.070532896 -0.03520337
000100 61 41 01 3d 8e 58 b3 bd 56 bf 3c 3d 9e ef e3 bb
       0.03155649 -0.08757125 0.04608091 -0.006956055
000110 ce d9 5f 3c b0 95 c0 bc e3 22 51 3d 6c 03 9f 3d
       0.0136627685 -0.023508877 0.05105866 0.077643245
000120 46 7a bf bd 4d 6b 8d 3d 48 d9 13 3d 20 ee 6b bd
       -0.09349494 0.069052316 0.036095887 -0.05760014
000130 38 ef 54 bd 42 13 0b 3d 22 5f ed 3d e1 f1 c0 bd
       -0.05198595 0.033953913 0.11590411 -0.09421135
000140 41 c6 0e bd 3d 1a 0c 3d ec 96 c6 3d d0 f4 e1 bd
       -0.03485704 0.03420471 0.09696755 -0.110330224
000150 35 1b 11 bd 41 91 52 3d 73 c4 02 bd bf fb b5 bd
       -0.035426337 0.051408056 -0.03192563 -0.088859074
000160 93 e6 fc bd c7 de 12 3d f6 72 ab bd c5 45 87 3d
       -0.12348666 0.03585699 -0.083715364 0.06605104
000170 3a 1c 7e bd e3 20 a7 3d fd 77 c2 bd 06 c6 d2 3c
       -0.062038638 0.081605695 -0.09495542 0.02572919
000180 e1 46 cd 3d 6f 63 ae 3d 5c 72 cc 3c 86 ab f5 3b
       0.10023285 0.08515059 0.024956875 0.007497254
000190 4c 5e 96 3d 0c 93 bd 3d 83 2f 4b 3d ba fd a1 3d
       0.073422045 0.092565626 0.049605858 0.079097226
0001a0 35 e2 86 bc 47 d2 c2 bd 28 7f c1 3d 4b 80 0f 3d
       -0.016465286 -0.095127635 0.09448081 0.03503446
0001b0 44 b4 91 bd 4d 8b 9f 3c a3 88 7a bd a9 f9 81 bd
       -0.07114461 0.019475603 -0.061165463 -0.06346447
0001c0 d4 31 c0 3d 57 a7 65 3d f2 a4 8d bd d6 45 de bd
       0.09384504 0.05606779 -0.069162264 -0.10853164
0001d0 a7 8b cb 3b 7e 26 d4 3d a9 e6 16 3d 77 b5 fa 3d
       0.006211716 0.10358904 0.03684107 0.12241643
0001e0 b4 96 f2 bc e8 f1 44 bd aa 66 b6 bd af 3a a5 bd
       -0.029612876 -0.048082262 -0.089063 -0.08067834
0001f0 68 ee 9a bd df c7 b3 bd 3d cd b7 bc 72 fc 71 bd
       -0.07565004 -0.08778357 -0.022436732 -0.05907864
000200 c7 6e bb bd c1 f8 aa bd dd ac b3 3d 30 8c 32 3d
       -0.091519885 -0.08348227 0.087732054 0.043590724
000210 9f de 90 bc ca 82 f7 bc 34 b8 ec bc 14 0c a0 3d
       -0.017684279 -0.030213732 -0.028896429 0.07814804
000220 63 66 ce 3c 97 e8 b7 3c 47 62 d4 bd 72 7e 0c 3d
       0.025195306 0.022449775 -0.103703074 0.034300275
000230 88 8b b3 bd 4e c9 26 3d bf d0 b5 bd 0f 89 c1 bd
       -0.08766848 0.040719323 -0.08877706 -0.0944997
000240 38 98 c7 bd d4 a7 8a 3d 21 34 77 bd b6 03 93 bb
       -0.0974583 0.06770292 -0.06035245 -0.0044865264
000250 f8 10 db bd 56 59 b9 3d 68 b3 7e 3d 6f b6 d4 bc
       -0.10696596 0.090502426 0.062182814 -0.025965897
000260 02 11 ab 3d 0b c6 81 3d 2e 08 b2 bd 47 d4 b4 3d
       0.08352853 0.06336602 -0.086929664 0.08829551
000270 3b 7f e5 3c ee 00 6a bd bf da a1 bc 64 e2 96 3d
       0.02801477 -0.057129793 -0.019757627 0.07367399
000280 7b 33 1e 3d 2b b2 a0 bd 35 d7 9e bd 8b 95 04 be
       0.038623314 -0.07846483 -0.07755891 -0.12947671
000290 81 52 8d bd 06 d3 5b bd 2a 6d 57 bb 68 2c 9c 3c
       -0.06900502 -0.053668045 -0.0032871463 0.019064143
0002a0 4f 9a d5 3d 66 e6 6b bd 82 6d 29 3d 69 78 e5 3d
       0.10429823 -0.057592772 0.0413642 0.11204607
0002b0 1c 51 df bd 61 90 59 bd e2 41 c4 bd ee 23 2d 3b
       -0.10904142 -0.053116206 -0.09582879 0.002641912
0002c0 91 59 82 3d fa 4a 28 bd 74 ef 1b bd 8e 2f d4 bd
       0.0636474 -0.04108713 -0.038070157 -0.10360633
0002d0 41 55 8f 3d 8c 54 8c 3d 17 16 bd 3c c2 5b b7 bd
       0.06998683 0.068520635 0.023081822 -0.08953048
0002e0 6f cd 8d 3d bb cc bb bd d4 cb 99 3a 08 95 5d bd
       0.06923949 -0.091699086 0.0011733719 -0.054097205
0002f0 9c 23 4d 3d 4a b3 ab bd e8 9f 70 3c 68 aa 92 3c
       0.050082788 -0.08383806 0.014686562 0.017903522
000300 4f 87 b7 3d da 68 10 3d 23 9c bd 3d 67 7f 90 3d
       0.08961355 0.035256244 0.09258296 0.0705555
000310 4f 2c c7 bd 04 ae 12 3b b0 da b8 3d 1a e8 ee 3b
       -0.09725248 0.0022381553 0.09026086 0.0072908523
000320 c0 ce f5 3b eb ec 5e 3d ff a7 97 3d d6 dc 46 3c
       0.007501453 0.05442516 0.074050896 0.012137612
000330 f5 84 86 bd e2 14 65 bc e8 d2 c2 bd 12 41 3f bd
       -0.06568328 -0.01398203 -0.095128834 -0.046692915
000340 1d b3 1c bd 83 79 12 bb ec 6f 3b bd 8e 79 bb 3d
       -0.038256753 -0.0022350259 -0.045761034 0.09154044
000350 09 2e 45 3d 7a 21 16 bc 6b f0 99 3c 8b ff a9 bd
       0.048139606 -0.009163255 0.018791398 -0.08300694
000360 cb c7 ca 3b 7e 69 22 bd 73 d8 e6 bc a6 49 c4 3c
       0.006188368 -0.039651386 -0.028179383 0.0239609
000370 95 8f 0d be 7d bc 66 3d b9 b5 10 3d c5 b4 97 3d
       -0.13824303 0.0563321 0.035329554 0.07407526
000380 69 d0 e4 3d be d4 26 3d 44 ba ae bd 09 bd ff bc
       0.111725636 0.04073023 -0.08531621 -0.031218069
000390 77 6b d2 3c e5 fd 36 bb b2 e7 55 39 44 fb b9 3d
       0.025686009 -0.002792233 0.00020399576 0.09081128
0003a0 d4 5d 01 3d d1 63 ca 3d e7 ab c1 3c cd f4 8b bd
       0.031583622 0.0988232 0.02364154 -0.068338014
0003b0 a7 45 91 bd 5a 73 7b bb 5c c3 b0 3c 86 bd b8 3d
       -0.07093363 -0.0038368315 0.02157753 0.09020524
0003c0 ca bc 98 3d d8 fd 06 bd 4c f9 c7 3d aa a7 94 bd
       0.07457884 -0.032956928 0.097643465 -0.07258542
0003d0 48 10 91 bd 56 a9 e7 3c 99 01 44 3d 68 19 1a bd
       -0.070831835 0.028278988 0.047853086 -0.037621886
0003e0 81 6a 90 3c 4d 77 c3 bd 37 89 b7 bd 68 f7 c9 3c
       0.01762891 -0.09544239 -0.089617185 0.024654105
0003f0 3a 01 7d bd 88 c8 7f bd 6e c7 b9 bd ae 94 6a 3d
       -0.061768748 -0.0624471 -0.09071241 0.0572707

attn_layers.layers.0.1.to_v.weight f4 [64, 74]
000000 9e 10 69 bd ac 87 ad bd a7 be f9 3d 65 4a 86 3d
       -0.056900613 -0.08473143 0.12194567 0.065571584
000010 9a 96 18 3d 66 39 be bd 5e 17 82 3d a0 fe 9a bd
       0.037253 -0.09288292 0.06352113 -0.07568097
000020 c5 7c 69 3d 35 2d b5 3d 9c df 8a 3d dd 17 35 bd
       0.057003755 0.08846513 0.06780931 -0.04421221
000030 a4 45 9f bc 1d 8a 97 3d 00 87 cd bd f1 9c a7 3d
       -0.019442387 0.0739939 -0.10035515 0.08184231
000040 dc 1c a9 3d 5b 0d 88 3d 8c 0c b7 bd 22 c6 69 3c
       0.082574576 0.06643172 -0.0893794 0.01426843
000050 55 2d c3 bd fb 10 be bd e1 66 ed ba 2a ac 94 3d
       -0.09530131 -0.092805825 -0.0018112325 0.072594
000060 87 12 86 bd cc ea 90 3d 55 7e 3a 3c d7 85 da 3d
       -0.065465026 0.07076034 0.011382659 0.10670059
000070 e1 dd 8c bd 4d cf 9d bc d5 89 d1 3d af 1b 91 bd
       -0.068782575 -0.019263888 0.102313675 -0.07085358
000080 f0 e2 d9 bd 26 89 a6 bd 2e f1 53 bd 6b b3 66 bd
       -0.10638988 -0.08131628 -0.05174368 -0.05632345
000090 88 cf cb bc 36 04 a4 3d b1 51 83 bc 77 2f b2 bd
       -0.024879232 0.08008616 -0.016030164 -0.087004595
0000a0 44 c2 7e 3d b3 b5 84 bd 02 9a ad bd 56 d9 39 bd
       0.062196985 -0.06479969 -0.0847664 -0.045373283
0000b0 af 53 c1 3d f5 5b 9a bd 35 4c ed bd 67 d7 48 3c
       0.094397895 -0.07537071 -0.11586801 0.012258387
0000c0 73 82 c3 3c 70 d5 40 3d 1b 9a e0 3c 6f 63 80 bb
       0.023865914 0.04707855 0.027417233 -0.0039181034
0000d0 95 69 a3 3a 92 08 6e bd 8c a4 b6 3c 46 54 a9 3d
       0.0012467379 -0.058113642 0.022295259 0.08268027
0000e0 49 49 40 bd 8f 5a 1f 3d f1 53 64 3d c5 d6 3b 3d
       -0.04694489 0.038904723 0.055744115 0.045859117
0000f0 c3 42 31 bd c4 bd 12 3d 98 82 ad bd c2 9c 08 3d
       -0.04327656 0.035825506 -0.084721744 0.03335262
000100 a8 69 80 bd 69 9d 21 bc 84 59 06 3d 17 a2 9f 3c
       -0.06270152 -0.00986419 0.032800213 0.01948647
000110 d8 ee 74 3d 86 93 de 3d 1a 6d 6f bc c5 0b f2 bb
       0.05979809 0.108679816 -0.014613414 -0.007386657
000120 36 fe b1 bd d6 df d8 bd d1 df 2c 3d 49 ad a8 3d
       -0.08691065 -0.10589568 0.042205635 0.082361765
000130 55 ac b6 bd 6c 29 de 3c 44 0f 9b 3d 30 42 ec bd
       -0.089195885 0.02711936 0.07571271 -0.11536062
000140 f6 65 24 bd 63 3d e3 3c 51 21 67 3d 49 11 01 3d
       -0.0401363 0.027739232 0.056428257 0.031510625
000150 6a 6a 26 bd d7 2d 92 3d 54 41 03 3d 74 7d 58 3d
       -0.040628828 0.071376495 0.032044724 0.052854016
000160 df c7 af 3d 7a 4c 80 bd 69 ae b0 bd 97 42 d5 bc
       0.08583044 -0.06264587 -0.08627016 -0.02603273
000170 68 20 93 3d 71 dd 57 3d 58 00 ae bc 7a 2d fd bc
       0.071839154 0.052701417 -0.021240398 -0.030905474
000180 98 71 f4 bd 76 04 db 3d 0e 35 2d 3d 47 c8 17 bc
       -0.11935729 0.1069421 0.042286925 -0.009264058
000190 19 ed c8 3d 62 10 bb 3d f7 be 47 bc ef 3e 27 3d
       0.09810848 0.09133984 -0.012191526 0.040831503
0001a0 48 27 85 3d f9 e7 c9 3d 50 87 88 3d cf f0 de 3d
       0.06501633 0.098586984 0.06666434 0.10885774
0001b0 a3 e6 03 3c 75 5c 37 3d e7 b9 06 3c 60 08 21 bd
       0.008050594 0.04476591 0.0082230335 -0.039314628
0001c0 21 c3 3b 3b c4 7e 96 3d 40 f4 dc 3c 30 75 81 bd
       0.0028650241 0.073483974 0.026971936 -0.0632118
0001d0 dc 02 cf 3d 45 ee c3 3d 05 7f cc 3d dc 70 66 bd
       0.10107967 0.09566931 0.099851646 -0.056259975
0001e0 41 34 c4 3d aa 93 9d 3d c1 45 e0 3c ad d0 35 3d
       0.09580279 0.0769418 0.027377011 0.04438846
0001f0 13 b9 14 3d de 19 3e 3d c9 93 d7 bd 17 ea cb 3c
       0.036309313 0.046411388 -0.10526235 0.024891896
000200 5c 85 e8 3c e1 17 31 bd 7d 7b d3 bd 2e 66 8e 3d
       0.028383903 -0.043235663 -0.10326288 0.06953083
000210 e6 5b b1 3d 5f 3b 24 bd 09 ee 5d bd 90 e4 a0 3d
       0.08660106 -0.040095683 -0.054182086 0.07856095
000220 0e 43 d8 3d 91 4d a5 3d f2 b3 64 3d fc 38 ad 3d
       0.10559665 0.08071435 0.05583567 0.084581345
000230 06 87 84 bc e7 8e 85 bd 81 a5 28 3d 5f 7f d5 ba
       -0.016177665 -0.06521397 0.04117346 -0.001628857
000240 13 dd 78 3d 32 3a c9 bd 8e dc 92 3c e6 69 2a bc
       0.060757708 -0.09825553 0.017927434 -0.010401225
000250 d1 21 4f bd 63 1a 5a bd b5 e7 d3 3c a0 63 d0 bd
       -0.05056936 -0.05324782 0.025867322 -0.10175252
000260 1e 16 66 bd 0f db 83 3d ea 18 97 bc 06 74 f0 3c
       -0.056173436 0.064382665 -0.018444497 0.0293522
000270 7b 51 e5 bc e2 80 aa bd 86 18 24 bd cc e6 21 bc
       -0.027992954 -0.08325364 -0.04006245 -0.009881686
000280 45 f8 b6 bd e6 fb 77 3d e6 11 d8 3d 3f 26 0e 3d
       -0.089340724 0.060542963 0.10550289 0.034704443
000290 03 91 aa 3d 55 95 34 3d be 37 c1 3d c2 bc 0a bc
       0.0832844 0.044087727 0.0943446 -0.008467855
0002a0 7a c2 9e 3d d8 19 12 bd ba d6 36 bd 52 4d c0 3d
       0.07751937 -0.035669178 -0.044638373 0.09389748
0002b0 7b 76 b4 bd dc 05 d2 3d 84 db 02 3e 4e 62 7e 3d
       -0.08811661 0.10255024 0.12779051 0.06210547
0002c0 65 a5 1a 3c c2 6f af 3d 41 eb 0c 3d ba 64 94 3c
       0.009438847 0.08566238 0.034404043 0.018114436
0002d0 79 9a 0b bd 66 6d bf bd 54 6f e3 3d 0d 93 00 be
       -0.034082863 -0.09347038 0.111052185 -0.12556095
0002e0 02 65 43 bd 62 ec dd 3d 7d d7 d6 3d 4c 1b 5d 3d
       -0.04770375 0.10836102 0.1049032 0.05398111
0002f0 87 8e ee 3d 87 c8 87 bd a1 df 76 bd 0d 21 a6 3d
       0.11648279 -0.066300444 -0.060271863 0.08111773
000300 df fb 72 3d 8e ed 8b 3d 5d 09 e9 3d 21 61 a5 3d
       0.059322234 0.06832419 0.11378739 0.080751665
000310 2b 17 30 3d 3f fc b7 3d 0d 59 d5 3d 3a ff c7 bc
       0.042990845 0.08983659 0.10417376 -0.024413694
000320 f0 62 59 bd b3 cd e1 3c 08 87 23 bc 76 11 7a 3b
       -0.05307287 0.027563905 -0.009980924 0.003815738
000330 b0 04 9d 3d 30 88 9e bd 08 d7 fe 3b 90 4b c0 3d
       0.0766691 -0.077408195 0.0077770986 0.093894124
000340 81 1c be 3d 8e 2a ec bb c8 c6 c0 bd 5f 95 5b bd
       0.092827804 -0.0072072214 -0.094129145 -0.05360925
000350 aa 0a 67 bd 76 4e e6 3d 84 1e ec bb b0 6e ec bd
       -0.056406654 0.11245434 -0.007205786 -0.115445495
000360 a4 07 9a 3d 95 a8 e2 3d e2 4f 78 bd b9 f1 d1 bd
       0.075209886 0.11067311 -0.060623057 -0.10251183
000370 6f 3a 9f 3d cb 63 f1 bc 1e b1 88 3d 09 20 79 bd
       0.07774817 -0.02946653 0.066744074 -0.060821567
000380 49 56 df bd 68 e9 75 bd 88 b5 81 3d 8e 13 9d bc
       -0.109051295 -0.060037047 0.063334525 -0.019174363
000390 5b e6 9a 3c 06 b7 99 3d 95 f6 25 bd 27 3a 8c 3c
       0.01890867 0.07505612 -0.040518362 0.017117573
0003a0 ef 37 93 bd 16 e1 d0 3d 1e 3e a6 3c 26 f4 9c bd
       -0.07188403 0.10199182 0.020293292 -0.07663755
0003b0 77 3c 05 3d 65 cc be 3d 71 d5 64 bd 7a c5 aa 3d
       0.032528367 0.09316329 -0.055867616 0.08338447
0003c0 4c 35 e7 bd 20 62 c6 3d 2b 3b dc bd 19 c5 20 3b
       -0.112894624 0.096866846 -0.10753473 0.0024531542
0003d0 21 89 56 3d 65 c1 29 bd 6b c1 54 3c 9c 86 9a bd
       0.05237687 -0.0414442 0.012985568 -0.07545206
0003e0 8c 45 e8 3d b5 9b fd 3c aa e7 b9 bc 94 ec b6 bc
       0.1134139 0.030958036 -0.022693474 -0.022329606
0003f0 02 91 76 3c f0 d8 ad bd 31 3a c0 bd c5 f3 a8 3d
       0.015049221 -0.08488643 -0.09386099 0.0824962

attn_layers.layers.0.1.to_out.weight f4 [74, 64]
000000 9b 04 f3 3d 67 2a 04 3b 5d c1 e2 3d 64 d1 ea b9
       0.11866113 0.0020166875 0.11072037 -0.00044787966
000010 8e c4 d9 3d 0e 78 c8 3d 8b 10 bc 3d 30 0b 63 bc
       0.10633193 0.097885236 0.09182843 -0.013857648
000020 e3 1b 56 3d 93 15 79 3d ec f9 a9 3c ae 5f 1b 3d
       0.05227269 0.06081159 0.020749055 0.037933044
000030 5d e3 c6 3d 53 71 0a bc c2 5a 9a bd ff 6b 89 bd
       0.09711335 -0.00844987 -0.07536842 -0.06710052
000040 36 9d ff bd 15 6a 6f 3b 7f 41 f4 3d 79 6f 64 3d
       -0.124811575 0.0036531736 0.11926555 0.05577037
000050 b8 7b 8f 3c a0 41 ae 3c e1 64 f2 3d 21 70 7d 3d
       0.017515048 0.021271527 0.118356474 0.061874513
000060 d9 27 d2 3d 38 b2 9c 3c 41 3e 83 bd de 02 8f bc
       0.102615066 0.01912795 -0.06408358 -0.017457422
000070 60 d1 0e 3d 30 4a 97 bb e6 5a c0 3d eb 13 f2 3d
       0.034867644 -0.004616998 0.093923375 0.11820205
000080 23 64 61 bc 7a b3 93 bd 32 a4 b0 3d 6f 9d 05 bd
       -0.013756785 -0.07211967 0.08625068 -0.032620843
000090 76 de f6 bd 31 1e 16 3c f1 d0 d7 3c ff bd fa 3d
       -0.1205415 0.009162472 0.026344748 0.1224327
0000a0 e9 51 ef bd e4 2f 98 bd 27 48 dc bd d4 7f fd bd
       -0.11685545 -0.074310094 -0.107559495 -0.12377897
0000b0 fe 49 cb 3d 47 ab ac bb bb b9 d8 bd fc 04 b5 bd
       0.09926222 -0.0052694413 -0.105823 -0.08838841
0000c0 ab 7a a7 3d 3e 90 af 3d 5c 59 cf 3d d6 d0 88 3b
       0.08177694 0.08572434 0.10124466 0.004175286
0000d0 59 a1 eb 3c 77 62 b3 3c 17 fa be 3d e0 f5 74 bd
       0.02876346 0.021897538 0.093250446 -0.059804797
0000e0 a4 d5 33 bd 2d ec c7 3d 28 c8 04 3e 42 71 52 3d
       -0.043904915 0.09761844 0.12966979 0.051377542
0000f0 55 76 32 bd 73 14 cf bd 6b 5b a5 3c c2 4d 81 3c
       -0.04356988 -0.10111322 0.020185193 0.015784148
000100 de 01 12 3d 46 5a a3 bc d9 dd df 3d e5 22 d0 3d
       0.035646312 -0.019940507 0.10930986 0.101629056
000110 a2 3d b9 bd 5a 4e 8a 3d 43 b1 d1 bd 70 31 e5 bb
       -0.09044959 0.067532256 -0.10238888 -0.006994419
000120 89 9d a2 bd a5 8c 43 bc 64 03 4a bc 1a fa 0d bc
       -0.07940204 -0.011935388 -0.01232991 -0.008665586
000130 8e 45 96 3d 5b 49 98 bc 24 21 d0 bd 5f eb 8b 3d
       0.07337485 -0.018589666 -0.10162571 0.06832003
000140 25 f2 4b bb ea 80 86 3d dd 16 e2 bc d1 08 e1 bd
       -0.0031119671 0.06567557 -0.027598793 -0.1098801
000150 55 3f 82 bc 1f b8 4e 3d 38 63 9b bd b8 43 59 3c
       -0.01589934 0.05046856 -0.07587284 0.013260774
000160 50 e3 4e bc ec 3d fa bd 17 af eb bd 9d 50 61 3d
       -0.012627438 -0.12218842 -0.11508005 0.05500852
000170 59 ce 6a 3c 80 16 d0 3d 7b 18 bb 3d 29 ab a7 3d
       0.014331424 0.101605415 0.09135529 0.08186943
000180 6a c0 7a bd b9 01 9f 3d 22 03 89 bd f0 b2 2e bd
       -0.061218657 0.077640004 -0.06690051 -0.042651117
000190 be 62 a2 bd 80 e9 1e 3d cf 90 38 bd dc 3f 2e bd
       -0.0792899 0.0387969 -0.045059975 -0.04254137
0001a0 3d 8f fc bd bb 2f 9f 3c 7b cf ce 3c ab b8 a1 3d
       -0.12332008 0.01943194 0.025245419 0.07896551
0001b0 ec a6 fd 3d 0f c4 6d 3a c8 3d 2d bb a1 c7 71 bd
       0.123853534 0.00090700475 -0.002643453 -0.05902827
0001c0 04 47 eb bd fe e1 b8 3c 56 ed 82 3d b8 3b 42 3d
       -0.114881545 0.022568699 0.063929245 0.047420233
0001d0 40 76 42 bd 49 cf 48 3c bb b6 85 bd 85 2a a3 3d
       -0.047476053 0.012256452 -0.06528994 0.07967094
0001e0 19 33 0e 3d 46 99 05 bd 22 f9 a1 3d 68 a5 36 3c
       0.0347167 -0.032616876 0.079088464 0.011147834
0001f0 79 de 56 bc 98 0b 8a 3d cc e5 b0 bd 13 b2 a8 3d
       -0.013114565 0.067404926 -0.0863758 0.0823709
000200 16 4e e9 3c 99 8d b3 3d 60 13 03 bc 49 47 1c bd
       0.028479617 0.08767242 -0.008000225 -0.03815392
000210 7b 0c fb bd 47 fa 1a 3d 66 0a ed 3d 22 f1 4e bd
       -0.1225824 0.03783634 0.11574249 -0.05052293
000220 d3 18 8f bd 2f 70 2d bd 38 14 70 bd 24 b7 de bd
       -0.06987157 -0.042343315 -0.058613032 -0.10874775
000230 f9 5a 84 3d fb 90 e6 bd 94 6f ba 3d 65 90 8f bb
       0.06462664 -0.112581216 0.09103313 -0.004381227
000240 97 8d af 3d ee 74 7a bd a8 20 6b bd 55 2f bb 3d
       0.08571928 -0.06114667 -0.05740419 0.09139887
000250 e9 38 5c bd 47 17 83 3c df b9 d3 bd 08 35 d1 bb
       -0.05376521 0.01600231 -0.103381865 -0.0063844956
000260 81 fd 2b 3d 33 3d 8d 3c 62 93 b7 bd b4 21 59 bd
       0.041989807 0.017241096 -0.08963658 -0.053010657
000270 aa ab 51 3c af 48 b3 bd 81 c4 ac 3d 3d 6d c0 bd
       0.012797276 -0.08754098 0.08435918 -0.093958355
000280 a2 81 7d 3d 7a 90 4b bd 77 86 87 3d b5 ed d3 3d
       0.061891206 -0.04969833 0.06617444 0.103480734
000290 94 d3 18 bd 0e ff 6d 3c c1 90 fa bd 41 a1 6f bd
       -0.03731115 0.014526142 -0.12234641 -0.058503393
0002a0 d2 f8 de bd 87 6b c3 3d 3a 83 ed 3d ea 0d 9b 3d
       -0.108873025 0.095419936 0.11597295 0.07571013
0002b0 e4 e8 a0 3d 18 7b bd 3d ba 7f 48 3d ff b2 57 bd
       0.0785692 0.09251994 0.048949935 -0.05266094
0002c0 e7 22 9e 3d a9 b7 9c 3d 47 44 f4 3d 90 56 36 3c
       0.07721501 0.07652218 0.11927085 0.011129037
0002d0 b2 f0 f9 3d 1e e5 cc bd 55 58 4e 3d c8 30 ce bd
       0.12204112 -0.10004638 0.05037721 -0.10067898
0002e0 a6 e3 66 3d 2b d1 a1 bd 97 50 86 bd d7 dd c4 bd
       0.056369446 -0.07901224 -0.0655834 -0.09612625
0002f0 9b 62 b5 bd 34 71 0c 3d 2f 31 7b bc b7 78 02 3d
       -0.08856698 0.034287646 -0.0153315505 0.031853404
000300 55 f1 0d bc 3e 6c ba 3d e8 0b c6 bd 17 22 4f 3d
       -0.008663495 0.09102677 -0.0967024 0.05056962
000310 a3 2d cf bd 23 8d 9a bd 72 52 91 bc 52 4f 69 bb
       -0.101161264 -0.07546451 -0.017739508 -0.0035600257
000320 cb db f0 bc b2 10 d2 3d 3a c9 e9 3d c9 0a 69 3d
       -0.02940168 0.10257091 0.11415334 0.05689505
000330 bd 33 ab 3d fe 8b 1e bc a9 d0 c0 bd d7 70 96 bd
       0.08359478 -0.009676931 -0.09414799 -0.07345741
000340 5f 85 e9 3d 6b 19 aa bd 90 90 59 bd e9 66 c6 bc
       0.11402392 -0.08305629 -0.05311638 -0.024218993
000350 94 52 2c 3c 23 e8 ac 3d cb 1f b3 bd d1 c0 5e bd
       0.010517735 0.08442714 -0.087462984 -0.054383103
000360 57 5f 8d bd a2 36 96 3b 0b 86 b3 bd 2e 85 86 3d
       -0.0690295 0.0045841495 -0.08765801 0.06568371
000370 09 73 4c bd 61 f2 b2 3d 52 02 9f 3c c9 84 3c bb
       -0.049914394 0.08737636 0.019410286 -0.002876567
000380 37 e0 ac 3d ba 21 3c 3d 43 4f d2 3d 5c e9 d0 ba
       0.08441203 0.0459306 0.10269024 -0.0015938687
000390 8e 3c cf 3b 34 b0 33 3d 9c b5 f5 3d d2 fd de bc
       0.0063243574 0.043869212 0.1199753 -0.02722064
0003a0 2e 78 ee bc 18 a1 c3 bd e3 a6 9f 3d 92 6f 83 3c
       -0.02911004 -0.095522106 0.07795503 0.016044412
0003b0 e8 14 4c 3c dd 4d e6 bd 94 38 16 bc 19 dd 99 bd
       0.012456156 -0.1124532 -0.009168763 -0.07512874
0003c0 92 00 63 3d da e5 fb bd cd cf ce bb 16 c9 f8 3c
       0.055420466 -0.122997 -0.006311393 0.030369323
0003d0 88 03 6f 3c 98 b2 2f 3d 86 e8 85 bd d8 43 70 bd
       0.014588244 0.04289493 -0.06538491 -0.05865845
0003e0 a6 78 b0 3d 54 fa f6 3d 78 09 fd 3d be a0 e0 bd
       0.08616762 0.12059465 0.12355322 -0.10968159
0003f0 f0 d7 de bd 52 75 c5 bd 64 22 67 3d 42 81 df 3d
       -0.108810306 -0.09641518 0.05642928 0.10913326

attn_layers.layers.1.0.0.weight f4 [74]
000000 6e 99 7c 3f d7 e2 7e 3f fb 84 7e 3f 0d f7 7e 3f
       0.98671615 0.9956488 0.9942166 0.9959572
000010 07 4b 80 3f fb cf 7f 3f 0c c7 7f 3f d7 45 81 3f
       1.0022897 0.9992673 0.99913096 1.0099438
000020 aa 07 7d 3f da 63 7f 3f 5c 28 7f 3f f2 b2 7e 3f
       0.9883982 0.99761736 0.9967096 0.994918
000030 df ea 7f 3f 70 20 7f 3f d8 0a 80 3f 5b 42 7d 3f
       0.9996776 0.9965887 1.0003309 0.98929375
000040 78 7b 80 3f 71 43 7c 3f 43 93 80 3f 00 68 81 3f
       1.003768 0.9854041 1.0044941 1.0109863
000050 fd 37 80 3f 78 3f 80 3f 5a 2c 80 3f 5a 50 7f 3f
       1.0017086 1.0019369 1.0013535 0.9973198
000060 06 da 7f 3f 49 85 80 3f a7 c2 81 3f 27 73 81 3f
       0.9994205 1.0040675 1.0137528 1.0113267
000070 bc 6f 80 3f 07 9b 7d 3f ef 56 80 3f cb d2 81 3f
       1.0034099 0.9906468 1.002653 1.0142454
000080 84 30 80 3f 80 09 7f 3f 38 ac 7f 3f 3b b0 80 3f
       1.0014806 0.9962387 0.9987216 1.0053781
000090 aa d7 80 3f 9f 45 80 3f 20 b5 80 3f 52 73 7c 3f
       1.0065815 1.0021247 1.0055275 0.98613465
0000a0 d1 0f 7f 3f 6e 82 7d 3f 2e 5d 7c 3f 5f 86 80 3f
       0.9963351 0.99027145 0.9857968 1.0041007
0000b0 22 fb 7f 3f 0c 8d 7f 3f 08 9c 7c 3f fe 04 80 3f
       0.99992573 0.99824595 0.98675585 1.0001523
0000c0 88 7f 7f 3f b3 03 7f 3f 65 c1 80 3f 89 72 7f 3f
       0.9980397 0.9961502 1.0059019 0.9978414
0000d0 d0 7f 7b 3f 38 87 7f 3f 43 6e 80 3f 17 ed 80 3f
       0.982419 0.998157 1.0033649 1.0072354
0000e0 76 0e 80 3f f7 d3 7f 3f 78 cf 81 3f 49 b1 7e 3f
       1.0004413 0.9993281 1.014144 0.99489266
0000f0 c2 be 7e 3f c4 10 80 3f ec 00 80 3f b1 85 7f 3f
       0.99509823 1.0005116 1.0000281 0.9981337
000100 62 96 80 3f 1b 46 81 3f a2 4f 80 3f f8 45 80 3f
       1.0045893 1.009952 1.0024302 1.0021353
000110 cb a2 7f 3f bf 01 80 3f d8 13 80 3f 2d dc 7f 3f
       0.9985778 1.0000533 1.0006056 0.99945337
000120 28 d5 80 3f aa df 80 3f
       1.006505 1.0068257

attn_layers.layers.1.0.0.bias f4 [74]
000000 de 27 ca ba 89 de cd 3a ca ac 90 3b b3 e8 d0 b9
       -0.0015423258 0.001570658 0.0044151293 -0.00039846226
000010 6c e6 61 3b eb 0b 94 3b 3a 84 fc ba 9d 1f 8a b8
       0.0034469618 0.0045180223 -0.0019265481 -6.586241e-05
000020 92 ee 22 3c 74 2b 89 b9 d9 61 9e 3b f0 34 47 b9
       0.009944575 -0.0002616305 0.0048334417 -0.0001899784
000030 4c 4d 82 3a 7c 8a 54 3b 57 50 75 3b c5 3c ab bb
       0.0009941249 0.0032431176 0.003743192 -0.00522575
000040 a1 4c 87 bb 42 8a 5e bc 62 22 79 3a cd 8d fc 39
       -0.004129008 -0.013582768 0.00095037196 0.00048170835
000050 4a dc 2e bb 23 5f 83 3b 59 8e 74 3a 8a ed a2 bb
       -0.0026681595 0.004009144 0.0009329073 -0.0049721645
000060 b4 c8 b3 3a 44 54 9d ba c4 60 88 bb d4 6e 2c 3b
       0.001371643 -0.0012003263 -0.004161926 0.0026311176
000070 46 51 1d bb 47 22 86 bb c4 17 82 bb f0 4a ec ba
       -0.0024004742 -0.0040934416 -0.0039701182 -0.0018027704
000080 2f e3 08 b9 a2 c1 57 3a 98 83 ec b9 00 44 6b bb
       -0.00013054603 0.00082304527 -0.00045111473 -0.0035898685
000090 29 4b 38 3b 53 8c c6 ba 07 46 61 ba d6 09 ba 3b
       0.002812097 -0.0015148021 -0.0008593504 0.005677442
0000a0 9f 75 54 bb 6a 08 96 b8 54 ff 73 3c 8f 23 3b b9
       -0.003241874 -7.1541246e-05 0.014892418 -0.00017846956
0000b0 48 4c 48 3b 24 79 37 3c 95 35 10 bb 87 0b 69 3b
       0.0030563045 0.011198316 -0.0022004594 0.003555985
0000c0 f2 9d 11 ba 5d c5 80 bb 5d d2 15 ba 40 27 ab 3b
       -0.0005554847 -0.0039297775 -0.00057152455 0.005223185
0000d0 b1 9f 93 3c 40 39 d3 39 c4 e9 a9 3b 17 56 f1 39
       0.018020483 0.0004028771 0.0051853377 0.00046031244
0000e0 c4 f1 e8 b8 e2 9a 26 bb e0 42 65 b6 8d 01 d8 bb
       -0.000111076544 -0.0025421907 -3.4162586e-06 -0.0065919817
0000f0 6c 85 0e bc 32 4c 82 bb 0d ba be bb fe 53 4c bb
       -0.008698802 -0.0039763683 -0.005820519 -0.0031177993
000100 c4 a9 01 bb 1d 95 c0 bb 48 53 db 39 32 5d b8 bb
       -0.0019785026 -0.0058771507 0.00041832984 -0.005626344
000110 b2 64 4a bb 46 be 28 bb de c5 5a bb 18 97 ad bb
       -0.0030882773 -0.0025748177 -0.0033382098 -0.005297553
000120 47 9a 6d b9 c1 48 1e bb
       -0.00022659554 -0.0024152251

attn_layers.layers.1.1.ff.0.0.weight f4 [296, 74]
000000 b3 d1 0e 3d 58 6a 8d bd 5a b1 d2 3d 68 73 c9 3d
       0.034867954 -0.06905049 0.102877334 0.09836465
000010 75 ea dd 3d d9 0d a8 3d 5f ed 55 bd e1 a4 b6 bd
       0.10835735 0.08205766 -0.052228328 -0.08918167
000020 a9 92 aa bc fd 0f d1 bd 9a 03 c2 bd 6d 4e 4c 3d
       -0.020821886 -0.10208128 -0.09473343 0.04987948
000030 46 6e 68 bd 8a 38 b6 3c e8 ad 4d bd da cf 54 bc
       -0.05674579 0.022243757 -0.050214678 -0.012989009
000040 02 21 bd bd 36 8f af bc ff 60 52 3c cd da 93 bd
       -0.09234811 -0.021430593 0.0128405085 -0.07219467
000050 8d 59 db 3d 98 4f 82 b9 e7 86 e7 3c 28 39 a2 3d
       0.1071044 -0.00024854834 0.028262569 0.07921058
000060 32 e2 5a bb b9 3a ef 3d 1c dd 77 bd b4 44 c7 3c
       -0.0033398983 0.11681122 -0.0605136 0.024324752
000070 3c 9f 7d bd 59 fe e2 bd 6c d3 49 3c 9f 33 d9 3d
       -0.061919436 -0.11083669 0.012318473 0.10605549
000080 a8 c8 db 3d ea 37 b8 bc 00 32 f5 bc 58 eb ec 3d
       0.107316315 -0.0224876 -0.029931068 0.11568326
000090 c0 a1 b5 3d 96 98 c6 bd 5a d1 be 3d aa 10 d2 3d
       0.08868742 -0.09697072 0.093172744 0.10257085
0000a0 ae 6a 83 bd 6d 3d 77 bd 61 fb ad bd 9f 53 ac bc
       -0.06416832 -0.060361315 -0.08495212 -0.021035967
0000b0 2b ee 3d 3d 02 2c a5 bd 5a d1 14 bd f3 e0 cd bd
       0.046369713 -0.080650344 -0.036332466 -0.10052671
0000c0 a2 58 07 bd ab 1f eb bd 1f c5 98 3d 18 2d e3 bd
       -0.03304351 -0.114806496 0.07459473 -0.11092585
0000d0 49 72 0a bd 9e b5 a9 3d df 70 bf 3b b7 8e 3d bd
       -0.033800397 0.08286594 0.0058423127 -0.04627868
0000e0 aa 29 80 bc 7d d5 c3 3c b3 af c2 ba a7 0f 36 bd
       -0.015644867 0.02390551 -0.0014853388 -0.04444852
0000f0 8c 3e 97 3d 69 93 0f 3d 7a 7e bd bc 07 bb 7a bc
       0.07384977 0.03505269 -0.023131598 -0.01530338
000100 16 3e bd 3c b9 a7 e8 3d 71 d5 0c bc df b1 8e 3d
       0.023100894 0.113601156 -0.00859581 0.0696752
000110 e8 ec c6 bd 79 0b 8d bd b8 82 7b bd ab 2b ac 3d
       -0.09713155 -0.06886954 -0.06140396 0.084067665
000120 46 51 8b bc f8 98 85 3b 51 f4 8a 3d 30 95 a1 bd
       -0.017006528 0.004077073 0.06784881 -0.078897834
000130 23 a5 65 ba da 7c df 3d 79 d7 0f bd f4 06 73 bd
       -0.0008760264 0.109124854 -0.0351176 -0.059332803
000140 40 3f c0 bd 89 34 bb 3d 53 6e 0f bc 1a 81 a2 3d
       -0.09387064 0.0914088 -0.008754331 0.079347804
000150 f0 15 61 3d cc 66 95 3d 84 a3 09 bd 24 89 d0 3d
       0.05495256 0.072949976 -0.033603206 0.101824075
000160 21 1a 77 3d 32 0e 77 3d 14 fc 5b bd 43 2e 83 3d
       0.060327653 0.060316272 -0.053707197 0.06405308
000170 1e ef 1e 3d 8c 9d fd bd d8 bb 0c 3d 7f 4d d1 3d
       0.03880226 -0.12383565 0.03435883 0.10219859
000180 fb e1 d2 3d fc 17 c8 3d cf ee f2 bd 56 b7 30 3d
       0.102970086 0.097702 -0.118619554 0.043143593
000190 d1 59 6e bd bc 05 5c bd 25 54 e2 bd c1 27 74 bd
       -0.058191124 -0.053716406 -0.110512055 -0.059608225
0001a0 03 4f 83 bd cc 1b c4 bd 27 c8 ca 3c 4c 86 1a 3d
       -0.06411555 -0.09575614 0.024753643 0.03772573
0001b0 29 27 2c bc ce a2 52 3d 8d 77 d4 3d b9 e1 c1 3d
       -0.010507383 0.051424794 0.10374365 0.09466881
0001c0 cf 5e 43 bd ba 09 17 bb ca c3 b5 bd 4a 30 8a bd
       -0.04769784 -0.002304657 -0.088752344 -0.06747492
0001d0 d6 38 8e bd a5 a3 b4 bc c2 81 d3 bd c6 ae aa 3d
       -0.06944434 -0.022050688 -0.10327484 0.08334117
0001e0 51 71 c5 bd 4d ef 4a bd 1d 2a be 3d f2 c6 74 bc
       -0.09640754 -0.04954462 0.09285376 -0.01494001
0001f0 4b a7 95 bd 92 2c 7d 3d f9 31 70 bd d6 03 8b bd
       -0.07307299 0.061810084 -0.058641408 -0.06787841
000200 08 be c3 3b 35 5e 81 3c 75 0f 24 3c 7f 43 8d bc
       0.005973581 0.015791992 0.010013451 -0.017244099
000210 33 a0 5c bd 10 30 ce bd 03 51 0a bd 64 e6 ab bd
       -0.053863715 -0.10067761 -0.033768665 -0.08393553
000220 29 26 5c 3d 15 c4 97 3b 66 de 12 3d 55 8f d2 3d
       0.05374733 0.004631529 0.035856627 0.10281245
000230 33 69 8e 3c 1c c4 f3 bd 23 45 07 3d 66 4e 90 3d
       0.017384147 -0.11902639 0.03302492 0.07046203
000240 fd 4d 0a 3d 6c 89 a4 bd 68 b7 7c bc 3d 81 9b bc
       0.03376578 -0.08034024 -0.015424587 -0.018982524
000250 5f bd c5 3c 75 3b 2b bb 4c 78 c8 bd d3 cc 86 bd
       0.02413815 -0.0026127968 -0.0978857 -0.06582036
000260 3b 96 22 bd f5 49 c7 bc e5 64 d2 bc 10 de a0 3d
       -0.039694052 -0.024327258 -0.025682876 0.07854855
000270 e5 53 02 bd d3 75 b4 bd ca 3d 5e bd f6 ff a4 bd
       -0.03181829 -0.08811536 -0.054258145 -0.08056633
000280 ff 79 b0 3c c5 0e 93 bd 00 11 c7 bd cf 7a 8d 3d
       0.021542547 -0.071805514 -0.09720039 0.069081895
000290 3a 28 b1 3d 1f 0e af bd ed 5d 04 3c 0a c1 5c bc
       0.08650251 -0.08547615 0.008079034 -0.0134737585
0002a0 e2 eb ac bc 4b b0 a9 3d 0b ab 29 3d 7b 69 88 bd
       -0.021108571 0.08285578 0.041422885 -0.06660744
0002b0 10 75 5f bd de 85 87 3c 89 00 da 3d b3 bc c0 bb
       -0.054555 0.016543325 0.10644633 -0.0058818697
0002c0 6c 95 28 3c 71 a6 06 3d de 08 3f 3d 14 cd 86 bd
       0.010289531 0.032873575 0.046639316 -0.06582084
0002d0 18 3c c0 bd 00 28 80 bd 83 c9 c9 3d 01 f4 d6 bd
       -0.09386462 -0.062576294 0.098528884 -0.10495759
0002e0 9b e6 93 3d de f0 a9 3d e6 98 8b 3d 31 91 bd 3c
       0.07221719 0.08297895 0.068162724 0.023140522
0002f0 68 c4 cf 39 30 d5 77 bd a7 4d 85 bd 31 6d 04 bc
       0.0003962845 -0.060506046 -0.06508952 -0.008082674
000300 db cc dc bd 19 39 c4 3c b7 63 65 3d ce 06 19 bc
       -0.107812606 0.023953008 0.0560033 -0.009340001
000310 97 e1 86 bd f9 20 e3 bd fc 81 5d bd ea a1 a4 3c
       -0.065859966 -0.110902734 -0.05407904 0.020096738
000320 86 e4 58 bc 80 ea a9 bd be 64 fe 3c 6c 61 d8 3d
       -0.013238078 -0.082966805 0.031053897 0.10565457
000330 2b a7 c6 bc 6a b6 fb bc 3e 8a bd bd 51 49 b5 bd
       -0.024249634 -0.03072663 -0.09254883 -0.088518746
000340 38 d0 1a bb 14 04 09 bc f2 76 02 3e fc b2 e1 bd
       -0.0023622643 -0.008362789 0.12740687 -0.11020467
000350 f0 37 6d 3d 67 b7 9e bd fa ff 85 bd 0f 16 18 3d
       0.057914674 -0.07749825 -0.06542964 0.03713041
000360 ec a7 21 bc e0 f5 81 3d 4e 2f 9d 38 46 e8 26 bd
       -0.009866696 0.06345725 7.4951546e-05 -0.040748857
000370 a3 a5 3c bd fc a7 6a bd 63 63 e7 3d bb 83 9d 3d
       -0.0460564 -0.05728911 0.112982534 0.07691141
000380 12 c6 33 3d ba 6e 7b 3c d9 47 aa bc 0e e9 10 bd
       0.043890066 0.0153462235 -0.020786213 -0.03537851
000390 27 ea b3 bd 3d 47 ed 3d 3b 7e b4 3d 27 0e fd bc
       -0.087848954 0.11585853 0.08813139 -0.030890537
0003a0 fe 04 88 3d 67 13 98 bc cd 51 49 bd 74 d3 5c 3d
       0.06641577 -0.01856394 -0.049150277 0.053912595
0003b0 a3 ea 4e 3d 3a a4 77 3c 13 44 93 3d e9 29 1b bd
       0.050516736 0.015114838 0.071907185 -0.037881766
0003c0 a1 7e 13 3c 99 83 be bd 11 ab dc 3d 0e 81 b8 bc
       0.009002359 -0.09302444 0.10774816 -0.022522476
0003d0 27 19 69 bd 55 e7 df bd a8 b4 ad 3d 3c 66 83 3d
       -0.056908753 -0.10932795 0.08481723 0.06415984
0003e0 1e 1f f6 bb 48 53 df 3d 3a a0 bb 3d 92 ac cf bc
       -0.0075110337 0.109045565 0.0916142 -0.025350843
0003f0 44 b1 c9 bc 55 1f 09 3c a8 dc 52 3d 99 9e c5 bd
       -0.02462066 0.008369287 0.051479965 -0.09649391
