transformer_output/split_2/checkpoint.pt (torch, 831970 bytes, 46 tensors)

attn_layers.layers.0.0.0.weight f4 [74]
1.0071701 1.0018343 0.9978566 1.0040706 1.000652 1.0037221 1.0139564 0.99758255
1.0197958 1.0104966 1.0050681 0.99820364 1.0023254 1.0146414 1.017339 1.014078
0.9925995 1.0036386 1.005789 1.0061357 1.0137347 1.008265 1.0085621 1.0196823
1.0139741 1.0064868 1.0160375 1.0093199 1.0072528 1.0108494 0.98710287 0.99933493
1.0239732 1.0058097 1.012219 1.0111374 1.0104241 0.993602 1.0043063 1.0054561
1.0060719 1.0001853 1.0082816 1.0101455 1.0055273 1.003027 1.0212923 1.0115783
1.011943 1.0031625 1.0052792 1.0004975 0.99630755 1.0085315 1.0104889 1.0016133
1.0100147 0.9958599 0.99292946 1.0043074 1.0137357 1.0049988 1.0082479 1.0083256
1.0035834 1.0133771 1.0057348 1.0056907 1.005529 1.0060041 0.9914766 1.0046916
1.0037769 1.000386
00000000: f3ea 803f 1b3c 803f 8873 7f3f 6385 803f
00000010: 5d15 803f f779 803f 53c9 813f 9261 7f3f
00000020: ab88 823f f457 813f 12a6 803f 468a 7f3f
00000030: 334c 803f c5df 813f 2a38 823f 4fcd 813f
00000040: 001b 7e3f 3b77 803f b2bd 803f 0ec9 803f
00000050: 0fc2 813f d40e 813f 9018 813f f384 823f
00000060: e7c9 813f 8fd4 803f 840d 823f 6531 813f
00000070: a9ed 803f 8363 813f c6b2 7c3f 6ad4 7f3f
00000080: 8e11 833f 5fbe 803f 6490 813f f36c 813f
00000090: 9455 813f b35c 7e3f 1c8d 803f c9b2 803f
000000a0: f7c6 803f 1206 803f 5f0f 813f 734c 813f
000000b0: 1eb5 803f 3063 803f b5b9 823f 667b 813f
000000c0: 5987 813f a167 803f fdac 803f 4d10 803f
000000d0: 030e 7f3f 8f17 813f b357 813f dd34 803f
000000e0: 2948 813f adf0 7e3f a030 7e3f 258d 803f
000000f0: 17c2 813f cda3 803f 440e 813f d010 813f
00000100: 6c75 803f 57b6 813f ebbb 803f 79ba 803f
00000110: 2db5 803f bec4 803f 69d1 7d3f bc99 803f
00000120: c37b 803f a60c 803f

attn_layers.layers.0.0.0.bias f4 [74]
-0.0027630478 0.0009680878 0.0017491718 0.00021165224 0.003949431 -0.0019651742 -0.004707952 -0.0012982184
-0.0008463634 0.0007365306 -0.00052162725 8.490375e-05 0.0063899625 -0.0037026128 -0.00059056573 0.0055995965
0.0029578006 -0.0035072537 -0.0039228234 -0.007870946 0.0041873204 -0.0056361016 0.003335285 -0.0035281256
-0.0005859333 0.0043614944 -0.00060214964 -0.00078744505 -0.002957779 -0.012028471 -0.0027550126 1.6762405e-06
-0.0041936566 -0.0005888898 -0.001955965 0.005527523 0.0033327558 0.0074897828 -0.00076794834 -0.014169448
-0.005904863 0.004179555 -0.0001286827 -0.001081074 -0.0023410493 -0.002142489 -0.018036934 -0.000992942
-0.002360025 0.0045834626 -3.4361477e-05 0.006585303 0.0051922305 -0.0045159305 0.00446983 -0.00046182136
0.0005129412 -0.00115504 -0.009027542 0.0010922553 0.0026605946 -0.0034647363 0.0033773773 0.00039129308
-0.0023243367 -0.0015881099 -0.00052189414 0.0010020334 0.0010062251 0.0032179684 -0.009420009 -0.0014199219
-0.009553392 -0.0044421614
00000000: 4014 35bb 46c7 7d3a 7744 e53a f7ee 5d39
00000010: 3a6a 813b 27ca 00bb 2a45 9abb fb28 aaba
00000020: 7cde 5dba bb13 413a d0bd 08ba 5b0e b238
00000030: e462 d13b 89a7 72bb 32d0 1aba d27c b73b
00000040: a9d7 413b f4d9 65bb 078b 80bb 24f5 00bc
00000050: ca35 893b 0caf b8bb cc94 5a3b 2038 67bb
00000060: 5199 19ba deea 8e3b 94d9 1dba 8b6c 4eba
00000070: 4cd7 41bb 1013 45bc 718d 34bb 2ffb e035
00000080: f16a 89bb ba5f 1aba a62f 00bb 3920 b53b
00000090: 5d6a 5a3b da6c f53b 2450 49ba f926 68bc
000000a0: 957d c1bb a6f4 883b 00ef 06b9 d3b2 8dba
000000b0: 4a6c 19bb 0069 0cbb 31c2 93bc 9b25 82ba
000000c0: a6aa 1abb df30 963b 5b1f 10b8 87c9 d73b
000000d0: 9623 aa3b 5ffa 93bb a777 923b 9d20 f2b9
000000e0: e776 063a b664 97ba 41e8 13bc 022a 8f3a
000000f0: 5f5d 2e3b a110 63bb fd56 5d3b 7826 cd39
00000100: e653 18bb 2028 d0ba b9cf 08ba a956 833a
00000110: 50e3 833a 8de4 523b 6256 1abc ac1c baba
00000120: d585 1cbc 8d8f 91bb

attn_layers.layers.0.1.to_q.weight f4 [64, 74]
-0.00377459 0.0839274 0.0047064987 0.049794793 0.04731439 -0.08875624 -0.08633483 -0.10849791
0.008053183 0.02719026 -0.05268066 -0.057734944 -0.02101409 0.042993303 -0.03549576 -0.0061261575
0.073311515 0.058393907 0.04415269 -0.005052317 0.09843028 -0.012785285 0.075885914 -0.06857264
0.005691603 0.03565829 -0.10751894 -0.04231482 -8.873613e-05 -0.08451229 -0.069473565 -0.018430345
-0.12645419 -0.039296202 -0.06326583 0.07291304 -0.03252189 -0.12840295 0.060703747 0.035505872
-0.074506424 -0.012165923 -0.063363105 0.015621772 0.07540345 0.052468035 -0.07678061 -0.1107443
0.013305205 -0.10842425 -0.11000624 -0.09701891 -0.011814014 -0.044815682 0.008321986 -0.10844588
-0.02730071 0.07528824 0.11027451 0.11143349 -0.05130301 0.032757737 -0.06883874 -0.046327405
0.12856857 0.12264237 -0.041982412 0.01262909 0.014517966 0.020259896 0.13215095 -0.017175192
0.055278614 0.08022613 0.1062433 0.009203034 0.030289084 0.013255489 -0.093581945 -0.036325347
0.10771296 0.051376395 -0.01113747 0.113229975 0.121586 -0.027301474 -0.04872051 0.08424179
0.1056496 -0.057725176 -0.011098439 -0.033758946 -0.11103856 0.048069403 0.064414084 -0.12222702
0.007318194 -0.0930127 -0.023428643 -0.019049872 -0.0790181 0.055632975 -0.08036614 0.10184434
-0.10958706 -0.0031373224 -0.042442244 -0.028131135 0.037435412 0.07785466 0.029627666 -0.041479
0.0039933845 -0.12212876 -0.0073911357 0.027213404 0.069699734 0.00997903 0.048445966 -0.08709481
-0.022853639 0.11251305 -0.093144946 0.008637104 -0.057037912 0.037011243 -0.06790213 -0.050782453
0.00717597 0.06871711 0.08993677 0.04654051 -0.0059968648 0.012064982 -0.026763188 -0.11593021
0.0023563814 -0.0645909 0.017853923 -0.10575016 -0.108676344 -0.06116284 0.07243206 -0.0130456155
-0.04570841 0.0015179738 -0.11156819 -0.08615155 -0.062359337 -0.08289181 -0.06756101 0.09187432
0.09347533 -0.024453185 -0.099794514 0.027584411 -0.09939906 -0.10447574 -0.08960899 -0.10299693
-0.015359627 0.062520616 0.066472225 -0.09416342 0.004829845 -0.089119434 0.041934997 0.13147034
0.0036257126 0.089056894 -0.030505653 -0.101940006 -0.08037864 0.03880178 0.016830554 0.115644924
-0.0001866979 -0.0909287 -0.08473772 0.08176689 -0.11631629 -0.093861654 -0.066034414 0.048710644
0.06334829 0.072692566 -0.095417246 -0.06971355 -0.017207371 0.10541588 -0.105756484 -0.05793705
-0.012102578 -0.03169915 -0.11489477 0.07163125 -0.00979449 0.018211968 -0.039750855 -0.0029335336
0.021010138 -0.13111833 -0.03939878 0.03769259 0.112966776 0.009940969 0.044972446 0.09129913
-0.07580178 -0.039834194 0.043860868 0.07973784 0.11512008 0.051467225 -0.06916064 0.08674297
-0.012070572 0.120978706 -0.076140545 0.0702477 -0.0011685154 0.11221293 -0.11585541 -0.068014525
0.088557914 -0.0407446 0.08472383 -0.06323584 -0.008529395 -0.06399277 -0.021028493 0.04367724
0.12050389 -0.024528356 0.028509965 -0.004670324 -0.05033956 -0.019110845 -0.0017727024 -0.018841881
0.003460733 0.06537406 -0.011564115 0.06313254 0.060742725 0.040355105 -0.07130073 0.033867843
-0.07788432 0.1434366 0.049781658 0.026614409 -0.040590387 0.07199948 -0.13288145 -0.064153895
00000000: 1d5f 77bb 21e2 ab3d f938 9a3b a0f5 4b3d
00000010: bccc 413d d5c5 b5bd 51d0 b0bd 2734 debd
00000020: 7ff1 033c 1cbe de3c adc7 57bd 7a7b 6cbd
00000030: be25 acbc bf19 303d 0164 11bd efbd c8bb
00000040: 5924 963d 732e 6f3d 73d9 343d e88d a5bb
00000050: d195 c93d 5f79 51bc 136a 9b3d d06f 8cbd
00000060: a080 ba3b 6d0e 123d e432 dcbd 4e52 2dbd
00000070: d917 bab8 c814 adbd 2848 8ebd 3cfb 96bc
00000080: 357d 01be 0ef5 20bd 8491 81bd 6f53 953d
00000090: ac35 05bd 107c 03be 7ea4 783d 9b6e 113d
000000a0: d396 98bd 9453 47bc 84c4 81bd 76f2 7f3c
000000b0: 206d 9a3d b9e8 563d 273f 9dbd e8cd e2bd
000000c0: 13fe 593c 880d debd f44a e1bd dab1 c6bd
000000d0: 918f 41bc a690 37bd f058 083c e018 debd
000000e0: bda5 dfbc b930 9a3d 9ad7 e13d 3e37 e43d
000000f0: 1b23 52bd fa2c 063d 53fb 8cbd cec1 3dbd
00000100: 7ba7 033e ec2b fb3d c0f5 2bbd 3eea 4e3c
00000110: c3dc 6d3c 15f8 a53c 9452 073e fdb2 8cbc
00000120: d46b 623d 994d a43d 1696 d93d 53c8 163c
00000130: d020 f83c 8d2d 593c e4a7 bfbd e3c9 14bd
00000140: 9d98 dc3d 0e70 523d ef79 36bc 1ee5 e73d
00000150: 1502 f93d 57a7 dfbc 288f 47bd f686 ac3d
00000160: d15e d83d 3c71 6cbd 3ad6 35bc d246 0abd
00000170: 2f68 e3bd 6ce4 443d 88eb 833d 2952 fabd
00000180: 76cd ef3b 717d bebd 6ded bfbc 7a0e 9cbc
00000190: 3ed4 a1bd 67df 633d 0197 a4bd c493 d03d
000001a0: 2e6f e0bd 899b 4dbb ebd7 2dbd 4473 e6bc
000001b0: e055 193d 4472 9f3d b8b5 f23c e2e5 29bd
000001c0: f0da 823b a51e fabd 5731 f2bb a5ee de3c
000001d0: bcbe 8e3d 167f 233c 476f 463d c45e b2bd
000001e0: 8e37 bbbc 3e6d e63d c7c2 bebd a482 0d3c
000001f0: 96a0 69bd 1a99 173d 4610 8bbd 4301 50bd
00000200: 6624 eb3b 8ebb 8c3d c530 b83d 43a1 3e3d
00000210: 5981 c4bb 34ac 453c 793e dbbc d16c edbd
00000220: 856d 1a3b 3c48 84bd 6442 923c 8a93 d8bd
00000230: b491 debd e385 7abd 4357 943d 47bd 55bc
00000240: be38 3bbd c0f6 c63a dd7d e4bd 3970 b0bd
00000250: 816c 7fbd 2ec3 a9bd 6d5d 8abd 9a28 bc3d
00000260: fe6f bf3d 0c52 c8bc 1161 ccbd b4f8 e13c
00000270: bc91 cbbd 60f7 d5bd eb84 b7bd 0ef0 d2bd
00000280: f2a6 7bbc cf0a 803d 9722 883d c0d8 c0bd
00000290: ad43 9e3b 4084 b6bd 08c4 2b3d 29a0 063e
000002a0: 5d9d 6d3b 7663 b63d fee6 f9bc ecc5 d0bd
000002b0: 8e9d a4bd 9eee 1e3d 3be0 893c 3fd7 ec3d
000002c0: 56c4 43b9 d438 babd f88a adbd 6675 a73d
000002d0: 3c37 eebd 8a3a c0bd 0d3d 87bd d084 473d
000002e0: c0bc 813d d7df 943d 1e6a c3bd fac5 8ebd
000002f0: 79f6 8cbc 48e4 d73d db96 d8bd 664f 6dbd
00000300: e449 46bc f8d6 01bd f34d ebbd 68b3 923d
00000310: 1279 20bc 4431 953c cbd1 22bd 8740 40bb
00000320: 741d ac3c e243 06be 9d60 21bd 8c63 1a3d
00000330: 205b e73d 72df 223c 0735 383d 0afb ba3d
00000340: f73d 9bbd 2e29 23bd 74a7 333d 984d a33d
00000350: 14c4 eb3d 4ccf 523d 18a4 8dbd 4ca6 b13d
00000360: a6c3 45bc afc3 f73d 93ef 9bbd 07de 8f3d
00000370: df28 99ba e5cf e53d 9a45 edbd 334b 8bbd
00000380: da5d b53d cfe3 26bd b083 ad3d cb81 81bd
00000390: e0be 0bbc a40e 83bd f243 acbc e8e6 323d
000003a0: beca f63d b1ef c8bc bb8d e93c 8409 99bb
000003b0: db30 4ebd 598e 9cbc 065a e8ba 4a5a 9abc
000003c0: 77cd 623b d6e2 853d 6a77 3dbc a24b 813d
000003d0: 5dcd 783d 654b 253d 1e06 92bd 02b9 0a3d
000003e0: d081 9fbd 0be1 123e dae7 4b3d 7606 da3c
000003f0: 1b42 26bd 7774 933d 1312 08be 1e63 83bd

attn_layers.layers.0.1.to_k.weight f4 [64, 74]
-0.09329112 0.07656583 0.06374342 -0.011102716 0.05764647 0.06057035 0.08570805 -0.020231998
-0.049622443 -0.031583756 0.010044683 -0.09943213 -0.10537438 -0.08100387 -0.08353205 0.004160805
-0.0724446 -0.00045172987 0.05222521 0.013833343 -0.052993853 -0.006579764 -0.03280349 0.043228343
0.007249854 -0.10125203 0.017303929 0.03141941 0.113826714 0.039807603 -0.079737365 -0.1403801
0.06662964 -0.005906216 0.14613757 -0.094916955 0.09975651 -0.056463704 0.06432359 -0.048291337
-0.09846194 -0.08799944 -0.057044845 0.046735812 -0.05954801 -0.12057814 0.115871325 0.0076114372
-0.10292918 0.09521783 -0.043682236 -0.077914074 0.10294695 -0.09083429 -0.12775616 0.09541814
-0.1258467 0.07924425 -0.08031667 0.08167101 -0.1376207 -0.025087975 0.0769507 -0.007958056
-0.045515716 0.01863444 -0.009957566 -0.013961485 -0.011012062 0.05761555 0.04119027 0.03570986
-0.08243806 -0.08549104 -0.013078747 0.013935959 0.0004445715 0.09390599 0.04216461 0.08474201
-0.11051499 0.008858797 0.074215956 -0.063987784 0.07889777 0.025840187 0.082952745 0.036415085
-0.05587859 0.08321235 -0.05748764 -0.033157665 0.0648399 0.020481568 -0.04835989 -0.020981913
-0.12982158 0.103301264 0.1258955 0.07702614 -0.06788116 0.0010342475 -0.038651988 -0.08455225
0.06275423 -0.052353527 -0.04377806 -0.0644549 -0.0646078 -0.06417128 -0.025672946 0.04359167
-0.11788836 0.103294216 -0.06555266 -0.08556984 0.0677989 0.039534282 0.12355313 -0.063436516
-0.0028570383 -0.058183227 0.020171968 -0.0782737 0.013632597 -0.08329161 -0.0064092064 0.111100055
-0.07548662 -0.044763155 -0.09823009 -0.024116991 -0.03432617 -0.05365519 -0.012277878 -0.0033370487
-0.010162089 0.05713566 0.06979867 0.13151927 0.04098576 -0.06937614 0.08856835 0.120122775
-0.10559362 -0.019729944 -0.05323973 0.03739106 -0.09432775 -0.09302563 0.036350347 0.043851186
0.011759792 0.00033009096 0.04983866 0.0063955 0.10336496 -0.052257895 -0.08261735 -0.01927729
-0.110175766 -0.07728061 0.07613319 -0.02768719 0.04557485 0.09415283 0.0027062623 -0.070338465
0.0739651 0.06289306 0.1031244 -0.0064329645 0.09230102 0.090436794 0.06689158 -0.08460923
0.14859377 -0.13250597 -0.13486889 0.07880475 -0.002099407 -0.056015085 0.07527593 -0.119429655
-0.017806819 -0.019917767 -0.056493793 -0.0022193897 0.08153099 0.09714597 -0.08839737 -0.07670184
0.054948576 -0.083589636 -0.04387594 0.049799852 -0.03971452 0.05051214 -0.028873635 -0.0154797165
-0.09453172 0.0115816565 0.041648827 -0.050253745 0.0672291 0.096919246 0.07255228 0.05348656
-0.06776376 -0.04580364 0.008030323 -0.1124552 -0.016918298 -0.00368255 -0.049435947 0.06633181
0.08806695 0.091908716 0.10319102 0.04960855 -0.15930511 0.0067259027 0.06451127 -0.040991765
0.020652708 0.104596004 0.022889344 0.034037735 -0.09983163 0.027909208 0.13641103 0.014571657
-0.061282266 -0.089760356 -0.06065764 -0.053576097 0.054912224 -0.025604345 -0.05355644 -0.053073157
-0.012567233 0.026778422 -0.07429179 -0.07205765 0.121894546 0.026448725 0.07768924 -0.0775862
-0.08165169 0.08324818 0.052330233 -0.023319129 -0.02143431 -0.068641454 -0.042536803 -0.007054888
00000000: 6a0f bfbd 8cce 9c3d e98b 823d 2be8 35bc
00000010: b41e 6c3d 9e18 783d b487 af3d 93bd a5bc
00000020: e740 4bbd f85d 01bd 7492 243c 13a3 cbbd
00000030: 86ce d7bd 5be5 a5bd da12 abbd 5d57 883b
00000040: d65d 94bd 28d6 ecb9 1aea 553d 3fa5 623c
00000050: 1510 59bd 109b d7bb f45c 06bd 3410 313d
00000060: 2f90 ed3b 395d cfbd f8c0 8d3c a4b1 003d
00000070: fb1d e93d 4c0d 233d 584d a3bd cdbf 0fbe
00000080: 1f75 883d ee88 c1bb 16a5 153e d263 c2bd
00000090: 244d cc3d 7c46 67bd 16bc 833d 23cd 45bd
000000a0: 6aa6 c9bd 0d39 b4bd dba7 69bd 0d6e 3f3d
000000b0: 9de8 73bd acf1 f6bd f24d ed3d 5d69 f93b
000000c0: 89cc d2bd 9101 c33d 25ec 32bd 6a91 9fbd
000000d0: dad5 d23d 5407 babd 83d2 02be 966a c33d
000000e0: f5dd 00be cf4a a23d 117d a4bd 2143 a73d
000000f0: 71ec 0cbe 4c85 cdbc 5498 9d3d 8262 02bc
00000100: b06e 3abd 41a7 983c 0f25 23bc b6be 64bc
00000110: f06b 34bc 48fe 6b3d 21b7 283d 8144 123d
00000120: 49d5 a8bd ed15 afbd 3e48 56bc a653 643c
00000130: 6015 e939 c951 c03d ccb4 2c3d 388d ad3d
00000140: af55 e2bd 7d24 113c 89fe 973d 070c 83bd
00000150: 2795 a13d cdae d33c 21e3 a93d fc27 153d
00000160: f3e0 64bd 3d6b aa3d 2978 6bbd 55d0 07bd
00000170: c8ca 843d f6c8 a73c 0515 46bd 43e2 abbc
00000180: f3ef 04be 9d8f d33d c0ea 003e e2bf 9d3d
00000190: 4705 8bbd 968f 873a 8c51 1ebd bb29 adbd
000001a0: 4a85 803d a770 56bd 9f50 33bd ee00 84bd
000001b0: 1851 84bd 3b6c 83bd 1250 d2bc 2e8d 323d
000001c0: 746f f1bd eb8b d33d 7940 86bd 3e3f afbd
000001d0: 26da 8a3d b3ee 213d 6c09 fd3d 01eb 81bd
000001e0: 263d 3bbb 8951 6ebd af3f a53c f64d a0bd
000001f0: 425b 5f3c cb94 aabd 5204 d2bb 6d88 e33d
00000200: bb98 9abd 9259 37bd dc2c c9bd ff90 c5bc
00000210: 9999 0cbd 8bc5 5bbd 2729 49bc 63b2 5abb
00000220: e47e 26bc 1507 6a3d 9bf2 8e3d fdac 063e
00000230: afe0 273d 1415 8ebd 5363 b53d ee02 f63d
00000240: 7841 d8bd b1a0 a1bc e711 5abd 5e27 193d
00000250: e82e c1bd 3984 bebd 1ae4 143d 4d9d 333d
00000260: 25ac 403c 0f10 ad39 9f23 4c3d 5891 d13b
00000270: 02b1 d33d 600c 56bd 4933 a9bd 68eb 9dbc
00000280: d5a3 e1bd 4c45 9ebd b8eb 9b3d 3fd0 e2bc
00000290: b2ac 3a3d 33d3 c03d 8c5b 313b 9d0d 90bd
000002a0: 047b 973d 14ce 803d e332 d33d 9ecb d2bb
000002b0: 5108 bd3d ed36 b93d 74fe 883d 9b47 adbd
000002c0: f728 183e a5af 07be 121b 0abe 6364 a13d
000002d0: 3496 09bb 1370 65bd 442a 9a3d 8997 f4bd
000002e0: 9bdf 91bc 962a a3bc 0966 67bd 2e73 11bb
000002f0: b8f9 a63d 77f4 c63d ae09 b5bd db15 9dbd
00000300: c211 613d 0b31 abbd 42b7 33bd eefa 4b3d
00000310: b1ab 22bd d1e5 4e3d 6788 ecbc a39e 7dbc
00000320: d999 c1bd fdc0 3d3c f697 2a3d dfd6 4dbd
00000330: 69af 893d 997d c63d 4a96 943d b914 5b3d
00000340: bac7 8abd 999c 3bbd 9e91 033c e94e e6bd
00000350: 3e98 8abc f056 71bb 597d 4abd f9d8 873d
00000360: 725c b43d a33a bc3d d055 d33d 5632 4b3d
00000370: e120 23be f664 dc3b 7c1e 843d fbe6 27bd
00000380: de2f a93c 6e36 d63d 6f82 bb3c 276b 0b3d
00000390: 8774 ccbd daa1 e43c 55af 0b3e f6bd 6e3c
000003a0: 1d03 7bbd 47d4 b7bd 2574 78bd 9c72 5bbd
000003b0: a4eb 603d 34c0 d1bc ff5d 5bbd 3d63 59bd
000003c0: cce6 4dbc 6c5e db3c 4b26 98bd f692 93bd
000003d0: d9a3 f93d ffaa d83c 891b 9f3d 83e5 9ebd
000003e0: 0039 a7bd 067e aa3d 3a58 563d c207 bfbc
000003f0: 0297 afbc e493 8cbd 123b 2ebd b12c e7bb

attn_layers.layers.0.1.to_v.weight f4 [64, 74]
-0.07712865 0.024067665 -0.078386 0.019944595 -0.08388929 0.016395237 0.029917046 0.046151858
0.0057359915 0.11514485 -0.06685411 0.023889916 0.071206994 -0.102255486 0.0102645615 -0.05379135
-0.054905403 0.007659275 -0.03474349 -0.036887582 0.038465153 0.02829224 -0.08730985 -0.02774981
-0.1080703 -0.054258183 -0.11678461 -0.101018555 0.0124481 -0.10325428 -0.10289573 0.043780867
-0.068107456 0.050973542 0.02040628 -0.051048923 0.069677114 -0.0038994697 0.04638533 0.09620094
0.048850663 -0.10731532 -0.09785116 -0.07632689 0.08299963 0.11380366 -0.034437455 -0.038008712
0.047191698 0.101847515 0.06431945 -0.020758104 0.09201187 -0.07407976 -0.035037246 -0.09216337
0.03888442 0.007681875 0.08934219 0.07157016 0.0066056135 0.090127386 0.07006154 0.015673764
-0.11307022 -0.102834255 0.03351921 0.054778975 -0.084950946 0.0007847418 0.0857177 0.07719292
-0.06268769 -0.093764454 -0.10844598 -0.02200785 0.027760865 -0.046064027 -0.019786036 0.07021143
-0.084215075 0.090605564 0.039403535 -0.05181643 -0.089120775 -0.0838245 0.11192893 0.0645155
0.07833139 -0.035193898 -0.10225077 -0.08407959 -0.01199152 0.1045463 -0.024243718 -0.023455748
-0.02365878 -0.10007142 0.040832005 0.103870004 -0.0033209801 -0.037113808 0.11818047 -0.100131355
0.01318345 0.0922956 -0.013151927 -0.10005646 0.0045624473 0.007885201 -0.09238181 -0.04805194
-0.010997086 0.032066416 0.027151743 2.6104048e-05 0.11408067 0.07333461 0.026356153 -0.10117414
-0.010919326 0.038934648 -0.010742991 0.07586148 -0.08735819 0.116145656 0.10786903 -0.007231279
-0.084811315 -0.056845672 -0.094950244 -0.008993537 -0.019499606 0.07678203 0.052904926 0.0777667
0.10889845 0.039107718 0.039543793 0.09962994 0.056341216 -0.046252247 -0.0148603115 0.057269454
0.07545258 -0.03874556 -0.0057803276 0.013765224 0.10106353 0.024066722 0.03349645 -0.034984548
-0.0816748 -0.002562553 0.11371412 0.0512044 0.03507394 -0.05534924 -0.04280571 -0.054387756
0.03763057 0.016383065 0.08855034 -0.082773514 -0.09785612 0.12178889 0.07912084 0.06824821
0.024383701 0.04658324 -0.032268927 -0.04172071 0.08891024 -0.09118109 0.0833876 -0.113385394
-0.06884137 0.111919835 0.10668224 0.007571261 0.12220067 0.032568667 -0.043931104 0.114127785
-0.052773587 -0.04516016 -0.08720412 0.082423165 -0.041177265 0.035078794 0.05710288 -0.10558029
0.0041577728 0.030075904 0.044796195 -0.014708087 0.11863389 0.10006823 -0.07884291 0.051783
0.0028368805 0.05224382 -0.012481689 -0.110789135 0.071808666 -0.00030876047 0.03207004 0.0003049437
0.10999708 -0.087176874 0.085415736 -0.09300065 -0.068005756 -0.048781697 0.047027778 0.03176413
-0.07156398 0.025439184 0.037170228 -0.0059393495 0.10126754 0.08606829 0.08693559 -0.027884182
0.04628643 0.039772186 -0.077613875 -0.010193552 -0.044914246 -0.067382276 0.048649274 0.08802555
0.06321122 -0.068090826 -0.113974825 -0.086771384 0.07365439 -0.1252419 0.0694105 0.08246946
-0.007259518 -0.02393208 -0.07425918 -0.11003297 -0.07203562 -0.12319913 -0.07298316 -0.08019447
0.06705164 -0.047380064 -0.07058659 0.0044143973 0.022635506 0.041143756 0.049719736 0.05011387
00000000: a0f5 9dbd 8d29 c53c d788 a0bd d962 a33c
00000010: 26ce abbd 4e4f 863c 9814 f53c bb09 3d3d
00000020: fcf4 bb3b 10d1 eb3d cfea 88bd c9b4 c33c
00000030: f9d4 913d 536b d1bd b12c 283c 5254 5cbd
00000040: 7de4 60bd a8fa fa3b 314f 0ebd 6f17 17bd
00000050: a38d 1d3d 21c5 e73c 82cf b2bd 9253 e3bc
00000060: f653 ddbd d43d 5ebd c52c efbd d1e2 cebd
00000070: 1ef3 4b3c fb76 d3bd ffba d2bd 9153 333d
00000080: ec7b 8bbd a2c9 503d 122b a73c ad18 51bd
00000090: e0b2 8e3d 3f8e 7fbb 8bfe 3d3d 0005 c53d
000000a0: a217 483d 22c8 dbbd 3066 c8bd 4651 9cbd
000000b0: b6fb a93d e511 e93d 4a0e 0dbd 06af 1bbd
000000c0: 154c 413d 6e95 d03d eab9 833d e60c aabc
000000d0: b870 bc3d 21b7 97bd 3783 0fbd 26c0 bcbd
000000e0: 4545 1f3d 3db8 fb3b 0af9 b63d 6093 923d
000000f0: e773 d83b b594 b83d 6d7c 8f3d 4466 803c
00000100: 5c91 e7bd c49a d2bd 704b 093d eb5f 603d
00000110: c3fa adbd 21b7 4d3a c38c af3d 5217 9e3d
00000120: 6762 80bd 9407 c0bd ed18 debd cf49 b4bc
00000130: c16a e33c a2ad 3cbd 5316 a2bc 03cb 8f3d
00000140: f478 acbd 698f b93d 9a65 213d 773d 54bd
00000150: f484 b6bd 2eac abbd ff3a e53d b420 843d
00000160: 356c a03d 7a27 10bd da68 d1bd ec31 acbd
00000170: 1578 44bc 5f1c d63d c39a c6bc 4526 c0bc
00000180: 0fd0 c1bc 3ff2 ccbd 763f 273d ccb9 d43d
00000190: cda4 59bb a604 18bd 9a08 f23d ab11 cdbd
000001a0: 66ff 573c 7a05 bd3d 2e7b 57bc 67ea ccbd
000001b0: 9580 953b ee30 013c ad32 bdbd 1cd2 44bd
000001c0: 1f2d 34bc 1358 033d 556d de3c 04fa da37
000001d0: 20a3 e93d 7530 963d dce8 d73c 6334 cfbd
000001e0: f9e6 32bc f079 1f3d 5f03 30bc 435d 9b3d
000001f0: dae8 b2bd c6dd ed3d 70ea dc3d 5df4 ecbb
00000200: 8eb1 adbd 02d7 68bd 4675 c2bd a159 13bc
00000210: a3bd 9fbc e63f 9d3d d6b2 583d 2644 9f3d
00000220: 2706 df3d 6a2f 203d acf8 213d c80a cc3d
00000230: 0cc6 663d ff72 3dbd aa78 73bc 6093 6a3d
00000240: e286 9a3d aab3 1ebd e768 bdbb 8987 613c
00000250: 65fa ce3d 9327 c53c 9333 093d f54b 0fbd
00000260: 1e45 a7bd 81f0 27bb f3e2 e83d b4bb 513d
00000270: b1a9 0f3d e2b5 62bd 0a55 2fbd b2c5 5ebd
00000280: 8322 1a3d c735 863c e159 b53d 2985 a9bd
00000290: ca68 c8bd 746c f93d 1b0a a23d b8c5 8b3d
000002a0: 54c0 c73c 11ce 3e3d 6c2c 04bd 56e3 2abd
000002b0: 9216 b63d 27bd babd 1ec7 aa3d 9a36 e8bd
000002c0: b4fc 8cbd 3a36 e53d 387c da3d 5718 f83b
000002d0: 5844 fa3d b966 053d 1af1 33bd d4bb e93d
000002e0: 1e29 58bd dcf9 38bd 1398 b2bd 7acd a83d
000002f0: 7ea9 28bd c8ae 0f3d b6e4 693d 7b3a d8bd
00000300: ed3d 883b be61 f63c 377c 373d 30fa 70bc
00000310: 53f6 f23d 92f0 cc3d 6478 a1bd 691a 543d
00000320: f5ea 393b 9efd 553d 0080 4cbc 6ae5 e2bd
00000330: 6c10 933d 21e1 a1b9 e05b 033d dae0 9f39
00000340: 2646 e13d ca89 b2bd 72ee ae3d 2077 bebd
00000350: 9a46 8bbd 51cf 47bd 33a0 403d 1b1b 023d
00000360: 2390 92bd d665 d03c cf3f 183d e09e c2bb
00000370: 5b65 cf3d 9244 b03d 490b b23d 5e6d e4bc
00000380: d796 3d3d 29e8 223d 06f4 9ebd db02 27bc
00000390: 00f8 37bd b8ff 89bd 7644 473d bd46 b43d
000003a0: e274 813d 3473 8bbd a26b e9bd 32b5 b1bd
000003b0: 1dd8 963d 6a3f 00be 1827 8e3d c0e5 a83d
000003c0: 40e1 edbb 360d c4bc 3215 98bd f758 e1bd
000003d0: 6987 93bd d34f fcbd 3278 95bd 003d a4bd
000003e0: 5f52 893d 9911 42bd b48f 90bd a6a6 903b
000003f0: 196e b93c 5b86 283d eca6 4b3d 3444 4d3d

attn_layers.layers.0.1.to_out.weight f4 [74, 64]
-0.10881794 -0.119576134 0.017412495 0.027821086 -0.003499903 -0.056278087 0.09438324 -0.021347106
-0.106202275 -0.10580608 0.0039713886 -0.053097915 -0.00183731 -0.08347359 -0.030356308 -0.015786992
0.07593425 -0.054918293 0.12132351 0.108925186 0.08704292 -0.009902219 0.034322057 0.078142814
-0.011373152 -0.020627627 -0.04677125 0.042803988 0.004755266 -0.01566598 0.11774029 0.09379555
0.058771893 -0.04229882 0.04403251 -0.006199707 0.0844092 0.12114355 -0.0018752393 -0.10736302
0.068148814 -0.09392835 0.035904124 -0.057330552 -0.08794825 -0.0015422226 0.11870126 0.121756256
-0.053598825 0.117535196 0.09498631 0.06251383 0.11994749 0.108160265 -0.001924802 0.053773426
-0.13204367 -0.03573845 -0.04633876 0.001072098 0.03419173 0.06963496 -0.07646983 -0.07174525
-0.031479456 -0.042051956 -0.014508125 -0.018062362 -0.06665069 0.060079373 -0.10954652 0.08203726
-0.10407397 0.006362196 0.03522652 -0.10954043 -0.045154154 0.1141776 -0.11226279 -0.013191588
-0.0890737 -0.087934956 -0.010186038 -0.1146385 0.041393675 -0.08160653 0.060843844 -0.101767026
-0.08230107 -0.066834755 -0.07750244 0.0854351 0.05707226 0.068493456 -0.08427624 0.052028026
-0.028287254 -0.020085955 -0.09554298 -0.06967484 0.09894605 -0.08713478 -0.082352534 0.020042961
-0.10370732 0.03146429 -0.0744332 -0.111657344 -0.00543646 -0.11222375 0.053570636 -0.12091538
0.13692065 -0.002791387 0.025419932 -0.10796989 0.0499346 0.086504705 -0.07027489 0.015316142
0.09801701 -0.09858748 -0.06399518 0.012653616 -0.071113676 -0.08244264 -0.114129916 -0.0484145
0.11773789 0.05223361 -0.007561757 0.035848707 0.13499802 0.1072826 0.045844093 -0.055635575
0.018737799 0.07299306 -0.06053031 0.11712666 -0.03319405 -0.104492046 0.0031207413 -0.006541578
0.02721665 -0.016623504 -0.0660991 0.008610972 0.019654244 0.052653886 -0.11078146 0.08034067
0.02476888 0.0006674523 0.118005425 -0.10176012 0.00028709046 0.001682025 0.10164106 -0.09641158
-0.0018476137 -0.015206871 0.06416598 0.08482798 -0.040248223 0.043877125 -0.08445781 0.08719237
-0.10653509 -0.11682488 0.035464287 -0.029109495 0.027596444 -0.115312174 -0.058036603 -0.08358276
0.06192855 0.088195495 -0.11199104 -0.028436258 0.055528168 0.11774216 0.0073348274 -0.02908603
-0.123243704 -0.08808412 0.11764077 0.08848879 -0.10754758 0.030871969 0.008232816 0.03591285
0.018455384 0.064000696 -0.020069199 -0.023699785 -0.020493325 -0.11157478 0.03692228 0.12449218
-0.043198965 0.02816196 0.04867377 0.05153682 -0.10465672 -0.048586607 0.061974905 -0.010446832
-0.042557936 -0.11366333 0.012403586 0.05897324 0.033113934 0.009967502 -0.044997152 0.0115448935
-0.015703263 0.11850867 0.12300324 -0.079131685 -0.0012509673 0.08675325 -0.050457593 -0.0053735827
-0.044657838 -0.050235525 -0.063488975 -0.107689194 -0.12145459 0.10184848 0.04898647 0.10014441
-0.0164734 -0.058749698 -0.01566869 -0.027170386 0.07657005 0.04961485 -0.018557906 0.002294987
-0.011182285 0.06017299 0.090813786 0.06383939 -0.10508595 -0.086944476 0.05225763 -0.06537313
-0.054624144 -0.07273954 -0.062129986 -0.09189275 -0.120691486 0.10303338 0.046837546 -0.08995206
00000000: f1db debd 55e4 f4bd a6a4 8e3c 0ce9 e33c
00000010: a15e 65bb da83 66bd 004c c13d 20e0 aebc
00000020: 9480 d9bd dcb0 d8bd 6c22 823b 337d 59bd
00000030: e5d1 f0ba 34f4 aabd cbad f8bc b953 81bc
00000040: 6b83 9b3d 01f2 60bd 7678 f83d 2b14 df3d
00000050: 8f43 b23d eb3c 22bc 4995 0c3d 5709 a03d
00000060: 7556 3abc 45fb a8bc 3693 3fbd 3c53 2f3d
00000070: 10d2 9b3b f155 80bc d221 f13d e217 c03d
00000080: ccba 703d 8741 2dbd 6f5b 343d e926 cbbb
00000090: bbde ac3d 1c1a f83d 97ca f5ba 25e1 dbbd
000000a0: 9b91 8b3d 825d c0bd 3410 133d 71d3 6abd
000000b0: 361e b4bd 6724 caba a519 f33d 585b f93d
000000c0: 718a 5bbd 4bb6 f03d 2f88 c23d 4007 803d
000000d0: 08a7 f53d 2183 dd3d a349 fcba 8641 5c3d
000000e0: 7536 07be 7b62 12bd b6cd 3dbd a485 8c3a
000000f0: a10c 0c3d c69c 8e3d 379c 9cbd 2cef 92bd
00000100: 9af0 00bd ac3e 2cbd 7db3 6dbc 85f7 93bc
00000110: 2880 88bd ca15 763d ed59 e0bd 2703 a83d
00000120: bc24 d5bd f879 d03b af49 103d bc56 e0bd
00000130: 90f3 38bd f2d5 e93d 09ea e5bd 8821 58bc
00000140: 466c b6bd 3e17 b4bd 57e3 26bc 97c7 eabd
00000150: 6a8c 293d 5321 a7bd 6537 793d 3b6b d0bd
00000160: 778d a8bd a9e0 88bd 99b9 9ebd 99f8 ae3d
00000170: 9ac4 693d 4c46 8c3d 0599 acbd 571b 553d
00000180: acba e7bc 4d8b a4bc 0aac c3bd afb1 8ebd
00000190: 3aa4 ca3d b873 b2bd 72a8 a8bd 2331 a43c
000001a0: 8164 d4bd b3e0 003d 6f70 98bd 9bac e4bd
000001b0: 5524 b2bb 91d5 e5bd e26c 5b3d 7ca2 f7bd
000001c0: ed34 0c3e b4ef 36bb 763d d03c 511f ddbd
000001d0: 3988 4c3d 6129 b13d 48ec 8fbd 8ef0 7a3c
000001e0: 24bd c83d 3ce8 c9bd e80f 83bd 1d51 4f3c
000001f0: 0ca4 91bd b0d7 a8bd f2bc e9bd 484e 46bd
00000200: 9020 f13d e9f2 553d 9ec8 f7bb 18d6 123d
00000210: ec3c 0a3e fbb6 db3d 04c7 3b3d 21e2 63bd
00000220: 0380 993c 637d 953d a1ee 77bd 1ae0 ef3d
00000230: 7cf6 07bd edff d5bd 5a85 4c3b bc5a d6bb
00000240: 74f5 de3c 042e 88bc f75e 87bd 0915 0d3c
00000250: f001 a13c 9aab 573d 64e1 e2bd a689 a43d
00000260: 1be8 ca3c f7f7 2e3a d4ac f13d 9c67 d0bd
00000270: a184 9639 6577 dc3a 3029 d03d 6f73 c5bd
00000280: a12b f2ba 3d26 79bc 7469 833d 4bba ad3d
00000290: 52db 24bd 80b8 333d 37f8 acbd ea91 b23d
000002a0: 122f dabd e241 efbd 0043 113d 0977 eebc
000002b0: f011 e23c ca28 ecbd cab7 6dbd 702d abbd
000002c0: cba8 7d3d d79f b43d 8f5b e5bd 28f3 e8bc
000002d0: 8171 633d cd22 f13d fe58 f03b d345 eebc
000002e0: 3267 fcbd 7265 b4bd a5ed f03d 9c39 b53d
000002f0: e841 dcbd 36e7 fc3c efe2 063c 5a19 133d
00000300: bf2f 973c cc12 833d 2968 a4bc 0d26 c2bc
00000310: 9ee1 a7bc 5181 e4bd d13b 173d c2f5 fe3d
00000320: 66f1 30bd e9b3 e63c 265e 473d 4618 533d
00000330: 4356 d6bd c002 47bd 66d9 7d3d 3029 2bbc
00000340: 3b51 2ebd 52c8 e8bd 6938 4b3c ed8d 713d
00000350: 7aa2 073d bc4e 233c ef4e 38bd cb26 3d3c
00000360: 21a4 80bc acb4 f23d 1fe9 fb3d cb0f a2bd
00000370: 7ff7 a3ba b0ab b13d 9fac 4ebd e114 b0bb
00000380: 23eb 36bd c4c3 4dbd 8206 82bd 278c dcbd
00000390: 2fbd f8bd f095 d03d 09a6 483d 8318 cd3d
000003a0: 39f3 86bc 86a3 70bd a05b 80bc 6e94 debc
000003b0: c2d0 9c3d f138 4b3d c006 98bc 7e67 163b
000003c0: e735 37bc f477 763d 94fc b93d 3abe 823d
000003d0: 4d37 d7bd f20f b2bd 190c 563d 59e2 85bd
000003e0: 91bd 5fbd 78f8 94bd 037c 7ebd 4432 bcbd
000003f0: 192d f7bd 2a03 d33d bad8 3f3d c938 b8bd

attn_layers.layers.1.0.0.weight f4 [74]
0.99456257 0.9957453 0.9781905 1.004158 0.9951214 0.9978959 0.97896653 1.001423
0.99535334 1.0038894 0.97455454 0.99926424 1.0000113 0.99251753 1.0210267 0.98993254
0.999135 0.9941449 0.999082 0.99894285 0.9960825 1.002363 1.0076867 0.9960314
0.99756455 1.0199794 1.019086 1.0307667 1.0019357 1.0078747 1.0058676 1.0032308
1.0052346 1.0023383 1.0080632 1.0126982 1.0123156 1.002885 0.9898117 0.98905444
1.0015074 0.9960519 1.0045 0.99146056 0.9794608 0.9968559 0.98523796 0.9914236
1.0018501 0.9818933 1.0107253 0.9898189 0.9908167 0.9969548 1.0021633 0.9893411
0.9955186 1.0091357 0.9953831 1.0088484 1.0030034 1.0123653 0.99990845 1.0100404
0.9904842 0.9930417 1.0027457 1.0123643 1.0088577 1.0012078 0.9979146 1.0022869
1.0053736 0.99378043
00000000: a79b 7e3f 2ae9 7e3f b16a 7a3f 4088 803f
00000010: 47c0 7e3f 1b76 7f3f 8d9d 7a3f a12e 803f
00000020: 7acf 7e3f 737f 803f 687c 793f c8cf 7f3f
00000030: 5f00 803f a115 7e3f 01b1 823f 386c 7d3f
00000040: 50c7 7f3f 4880 7e3f d7c3 7f3f b8ba 7f3f
00000050: 43ff 7e3f 6e4d 803f e1fb 803f eafb 7e3f
00000060: 6460 7f3f af8e 823f 6971 823f 2af0 833f
00000070: 6e3f 803f 0a02 813f 45c0 803f de69 803f
00000080: 87ab 803f 9f4c 803f 3708 813f 18a0 813f
00000090: 8f93 813f 895e 803f 4d64 7d3f ac32 7d3f
000000a0: 6531 803f 42fd 7e3f 7593 803f 5cd0 7d3f
000000b0: f1bd 7a3f f331 7f3f 8e38 7c3f f0cd 7d3f
000000c0: a03c 803f 5c5d 7b3f 725f 813f c564 7d3f
000000d0: 2aa6 7d3f 6e38 7f3f e346 803f 7545 7d3f
000000e0: 4fda 7e3f 5c2b 813f 6dd1 7e3f f221 813f
000000f0: 6a62 803f 3095 813f 00fa 7f3f 0149 813f
00000100: 5f90 7d3f fb37 7e3f f959 803f 2795 813f
00000110: 4022 813f 9427 803f 5577 7f3f f04a 803f
00000120: 15b0 803f 6568 7e3f

attn_layers.layers.1.0.0.bias f4 [74]
-0.0017858765 0.00024372549 -0.012956927 0.0039934795 0.0029067288 -0.005092544 0.0010198448 -0.0063426625
0.0061763516 0.0050476235 0.018677363 0.0024057538 0.0029114997 0.005914909 0.003063182 0.012832137
-0.00087021256 -0.0107549075 -0.012130066 0.0026920168 -0.006279807 -0.006704645 0.0003423619 -0.0041904626
0.009799826 0.0007204353 0.003620323 -0.0050404463 0.013855003 0.0011809209 0.0016382234 0.0047307345
0.003615593 0.0039493972 0.006183525 0.0030395258 -0.0006239457 0.007565091 0.0040032384 0.0018368415
0.0033510027 -0.0073207445 0.0025268064 0.02962612 -0.0024552133 0.0038021083 0.0042835735 0.006704135
0.0065756366 -0.010906713 0.00263101 0.008153638 0.0084144585 -0.0029780972 0.0043961313 0.0046232785
0.00021614935 -0.007590834 -0.0065485477 0.004138903 -0.0034699459 -0.01769307 -0.005572892 0.0010311266
-0.0127396025 -0.006119529 -0.009080541 -0.0034994257 0.00060304906 -0.005910168 -0.011110269 -0.0130044045
-0.0021385662 -0.0147999395
00000000: 1214 eaba 9090 7f39 4a49 54bc bcdb 823b
00000010: d17e 3e3b 5bdf a6bb 50ac 853a 1cd6 cfbb
00000020: fe62 ca3b 8966 a53b 4501 993c daa9 1d3b
00000030: dcce 3e3b dad1 c13b abbf 483b e23d 523c
00000040: fa1e 64ba 5a35 30bc 2fbd 46bc 8c6c 303b
00000050: d7c6 cdbb a4b2 dbbb 097f b339 2650 89bb
00000060: 738f 203c 98db 3c3a f142 6d3b 542a a5bb
00000070: 1800 633c 21c9 9a3a a8b9 d63a 4704 9b3b
00000080: 96f3 6c3b f269 813b 2b9f ca3b c832 473b
00000090: 4a90 23ba 95e4 f73b 992d 833b 2cc2 f03a
000000a0: 7f9c 5b3b dbe2 efbb c798 253b 7ab2 f23c
000000b0: a5e7 20bb cb2c 793b 385d 8c3b 5cae db3b
000000c0: 7078 d73b 12b2 32bc 066d 2c3b d696 053c
000000d0: ccdc 093c 2e2c 43bb 6c0d 903b df7e 973b
000000e0: 26a6 6239 88bc f8bb 3395 d6bb a39f 873b
000000f0: 0868 63bb 0ff1 90bc ce9c b6bb de26 873a
00000100: c4b9 50bc 5486 c8bb 8dc6 14bc 9f56 65bb
00000110: f015 1e3a 15aa c1bb d907 36bc 6d10 55bc
00000120: 3027 0cbb 727b 72bc

attn_layers.layers.1.1.ff.0.0.weight f4 [296, 74]
0.10454273 0.057709064 0.013542677 0.06706773 0.10367412 0.02781859 -0.08073302 0.07491528
0.090704165 -0.015860844 0.051263258 -0.084764525 0.031383585 -0.01825171 0.021338692 -0.037184715
0.105856895 0.028917588 -0.014831961 0.0218072 0.047013965 -0.028000413 -0.075443365 0.0003643215
-0.10213289 0.0341368 0.10125875 -0.092574894 0.04681784 -0.037758578 0.019098861 -0.021859
0.09374691 0.1021632 -0.107551396 -0.11491039 0.087256886 -0.02245218 0.022802357 0.015538905
0.08464463 -0.0028621147 -0.021751933 0.077948324 -0.030314034 0.03485437 0.102975346 -0.061561976
-0.060372647 -0.06871158 0.10384254 0.07646248 0.04212 0.026024532 -0.061006866 0.08079758
-0.019163262 0.02025411 0.06332076 -0.024285294 0.09542459 0.092267804 0.037107795 -0.042928666
-0.102794886 -0.08558751 -0.068879806 -0.10855119 0.10373399 -0.11268628 -0.098191366 -0.08559401
-0.050508495 -0.013356366 0.06080035 -0.026479643 -0.11748486 -0.0355623 -0.06098949 0.024477726
0.021076111 -0.09133459 0.015736042 -0.09231805 0.07065742 -0.077741906 -0.105212465 -0.00584653
-0.08396305 0.0077929418 -0.048178036 0.02357662 0.014631636 -0.10774054 -0.0962363 0.101749994
-0.11446502 -0.03376743 -0.037996408 -0.052070104 0.08972548 0.0043557854 0.02089617 -0.00782639
-0.10130618 0.09273812 -0.05221231 -0.0849467 0.07814446 -0.08437442 0.115368776 0.022763325
0.036063407 -0.08317375 0.11979605 0.06043579 -0.012025896 0.029632116 0.03442413 0.07059395
0.06507501 0.058332227 -0.09604602 0.0037486781 -0.050282378 0.070942625 -0.062089138 0.035877954
-0.043066498 0.0016838838 0.015630335 -0.0321695 0.06663609 0.030687075 0.071496755 -0.020770237
-0.03217173 -0.008289001 -0.040328678 -0.07729886 0.028683588 0.12083355 0.01613432 -0.07368488
0.0049210195 0.10309314 -0.086318254 0.056684412 0.056755036 -0.041057725 -0.010307797 0.031203078
-0.12172241 -0.03294374 -0.09546658 0.109094374 0.06605916 -0.00763414 0.00991126 -0.06611964
-0.045635156 -0.12463831 -0.062224776 0.097574614 0.07561747 -0.05789085 -0.07830327 -0.095857
0.0011042459 0.077140756 0.10221668 -0.028359171 -0.0713475 0.11550113 0.0060884003 -0.0259352
0.10241029 0.10549586 0.056009933 -0.04383296 -0.052073393 -0.09732869 0.074927665 0.09067309
-0.03752673 -0.05693027 0.071329124 -0.060793824 0.0044126255 0.0752733 -0.002361767 -0.0009495919
0.041722607 -0.033735275 0.012574794 -0.037068307 0.014085045 -0.026671106 -0.03544977 0.10461409
-0.0528572 0.109087534 0.0757293 -0.08800084 -0.07718569 0.007450777 0.051749565 0.084497504
-0.019019809 -0.0018244345 0.06824296 0.03579488 0.10049703 0.022301495 -0.11160753 -0.037869856
-0.09803255 -0.10481066 0.030670147 -0.07313306 -0.03520326 -0.0630726 0.08797886 0.04143698
0.04907362 0.025031185 -0.007056312 0.06307634 0.048247963 -0.0771906 0.024346147 -0.04851459
0.08208412 -0.07413748 0.09850925 -0.059236843 0.029478937 0.06634597 -0.03814174 0.08599881
-0.0763119 -0.038678676 0.098961584 0.10815258 -0.079655826 0.028264292 -0.10622368 -0.10851307
0.08097286 0.03274943 -0.06631778 0.0002301806 -0.0052713864 0.06493776 -0.030527005 0.050545584
00000000: 801a d63d 5760 6c3d 1be2 5d3c ce5a 893d
00000010: 1953 d43d d0e3 e33c 5b57 a5bd 2f6d 993d
00000020: 1bc3 b93d 9aee 81bc 6cf9 513d 0699 adbd
00000030: 138c 003d 9c84 95bc 7bce ae3c 004f 18bd
00000040: 80cb d83d 94e4 ec3c c101 73bc 03a5 b23c
00000050: b791 403d 1f61 e5bc 0d82 9abd 6702 bf39
00000060: 0c2b d1bd 07d3 0b3d bf60 cf3d e897 bdbd
00000070: 10c4 3f3d bda8 1abd 3775 9c3c a511 b3bc
00000080: 61fe bf3d f13a d13d e843 dcbd 2356 ebbd
00000090: bdb3 b23d a2ed b7bc 02cc ba3c e496 7e3c
000000a0: 2a5a ad3d 5192 3bbb 1c31 b2bc 5fa3 9f3d
000000b0: 2355 f8bc 75c3 0e3d bde4 d23d 6928 7cbd
000000c0: 4f49 77bd a8b8 8cbd 66ab d43d 5c98 9c3d
000000d0: 0586 2c3d 6631 d53c 56e2 79bd 3479 a53d
000000e0: 46fc 9cbc f3eb a53c 51ae 813d f4f1 c6bc
000000f0: f86d c33d e7f6 bc3d 58fe 173d f8d5 2fbd
00000100: 2086 d2bd 8148 afbd db10 8dbd 1650 debd
00000110: 7c72 d43d 10c8 e6bd 8e18 c9bd ea4b afbd
00000120: ffe1 4ebd a9d4 5abc ca09 793d d6eb d8bc
00000130: e79b f0bd c6a9 11bd 1ed0 79bd 8385 c83c
00000140: cfa7 ac3c a10d bbbd dfe8 803c 3f11 bdbd
00000150: d6b4 903d 2637 9fbd a279 d7bd 4094 bfbb
00000160: d2f4 abbd ef5b ff3b 5556 45bd c123 c13c
00000170: 88b9 6f3c 12a7 dcbd 8a17 c5bd 4d62 d03d
00000180: a36c eabd b74f 0abd 1fa2 1bbd 7647 55bd
00000190: fec1 b73d faba 8e3b 722e ab3c 423a 00bc
000001a0: 9d79 cfbd 7ced bd3d 93dc 55bd 89f8 adbd
000001b0: 340a a03d 7fcc acbd 7746 ec3d 277a ba3c
000001c0: 39b7 133d 0057 aabd a257 f53d 858b 773d
000001d0: 4408 45bc 0dbf f23c 5100 0d3d 9093 903d
000001e0: 0c46 853d c6ed 6e3d c7b3 c4bd 62ac 753b
000001f0: e5f4 4dbd 5e4a 913d 2e51 7ebd c3f4 123d
00000200: 7f66 30bd c4b5 dc3a 300b 803c 2ac4 03bd
00000210: 8178 883d 7663 fb3c e46c 923d 5826 aabc
00000220: 81c6 03bd 97ce 07bc af2f 25bd dd4e 9ebd
00000230: d8f9 ea3c 9577 f73d 1f2c 843c 19e8 96bd
00000240: 8140 a13b 7f22 d33d a0c7 b0bd ea2d 683d
00000250: f877 683d 252c 28bd 09e2 28bc 999d ff3c
00000260: 9949 f9bd 04f0 06bd fb83 c3bd df6c df3d
00000270: 064a 873d cf27 fabb d662 223c bc69 87bd
00000280: eeeb 3abd 5f42 ffbd 68df 7ebd 33d5 c73d
00000290: 55dd 9a3d f51e 6dbd 775d a0bd ad50 c4bd
000002a0: 58bc 903a f9fb 9d3d fb56 d13d 7e51 e8bc
000002b0: a31e 92bd db8b ec3d 3481 c73b 0e76 d4bc
000002c0: 7cbc d13d 370e d83d ac6a 653d 318a 33bd
000002d0: e94a 55bd 4454 c7bd ad73 993d d0b2 b93d
000002e0: a1b5 19bd b72f 69bd 0115 923d f202 79bd
000002f0: c997 903b e328 9a3d e0c7 1abb 09ee 78ba
00000300: 53e5 2a3d 002e 0abd 8206 4e3c f0d4 17bd
00000310: f6c4 663c 5d7d dabc c733 11bd e93f d63d
00000320: cb80 58bd 4969 df3d f717 9b3d c939 b4bd
00000330: 8813 9ebd a625 f43b 5af7 533d 070d ad3d
00000340: 6ecf 9bbc dd21 efba f7c2 8b3d a79d 123d
00000350: 63d1 cd3d a0b1 b63c 7d92 e4bd 6c1d 1bbd
00000360: 4ac5 c8bd f9a6 d6bd f63f fb3c c9c6 95bd
00000370: 4b31 10bd 352c 81bd 432e b43d d3b9 293d
00000380: 6c01 493d 330e cd3c a338 e7bb 2b2e 813d
00000390: a89f 453d 1b16 9ebd 9271 c73c 3cb7 46bd
000003a0: b81b a83d 64d5 97bd 38bf c93d 55a2 72bd
000003b0: d07d f13c 65e0 873d 833a 1cbd 2520 b03d
000003c0: 6a49 9cbd 886d 1ebd 5fac ca3d 1a7f dd3d
000003d0: 9822 a3bd 848a e73c cd8b d9bd 1a3c debd
000003e0: 19d5 a53d 4424 063d 9ed1 87bd a25c 7139
000003f0: 98bb acbb 17fe 843d c513 fabc e308 4f3d

attn_layers.layers.1.1.ff.0.0.bias f4 [296]
0.032119144 0.073136486 -0.112334765 0.06384238 0.0074245716 0.1004397 0.047179867 -0.09236706
0.088756904 -0.08848617 0.11302 -0.111577496 -0.059162304 0.068593234 -0.045945898 -0.075084716
-0.020693582 0.010713824 -0.10344407 0.02695435 -0.11071122 0.06780265 -0.0035512666 0.02990632
-0.09856913 -0.050846998 -0.01921352 0.106285736 -0.0044482285 0.11728791 -0.11285873 -0.08588895
-0.065902375 0.043441128 0.041039057 -0.0453479 0.06353973 -0.076372996 -0.014035571 0.10539589
-0.0036389518 -0.09571389 0.09760225 -0.028872594 -0.068523176 0.046543386 -0.046187337 -0.116681516
-0.033769652 -0.06821281 -0.0018633556 -0.009340842 0.043371636 0.032123365 -0.071099944 -0.10652679
-0.0103885345 -0.031065987 0.07738661 -0.112195216 -0.06806471 0.053022627 -0.036112204 -0.055147905
0.015129059 0.039057147 -0.076276384 -0.02555705 -0.042013835 -0.035209954 0.08089268 -0.10275291
-0.10320043 0.055529024 0.01578055 0.085266106 -0.11207659 -0.0579432 -0.076534905 -0.081862316
0.044254348 -0.055869963 0.04642099 -0.10830272 0.0045099403 0.011118099 0.009583499 0.015373684
-0.071263574 -0.12027067 0.041775905 0.0064233528 0.105557606 -0.03180575 0.07837912 -0.031929616
0.0066651963 -0.0075543877 -0.007145793 0.03917488 -0.11613026 0.062418256 0.008497489 -0.05609162
0.07742297 -0.021932362 -0.035657685 -0.014241716 -0.025908694 0.044357676 -0.0024767546 0.102838896
-0.00878332 -0.085280254 0.06631656 0.088623725 0.0068617566 0.10672489 0.022305354 -0.023025991
0.026190538 -0.047054864 0.04119491 -0.027450684 -0.09666675 0.096945256 -0.09664869 -0.0486404
0.08777878 -0.04367347 0.069495596 -0.052297633 -0.004043987 -0.044061292 -0.035348576 0.045542832
0.050293203 0.0753519 -0.027614031 0.023032866 0.10792344 0.020477742 -0.11040059 -0.05619927
-0.025368854 -0.09737526 0.10327511 -0.02761372 0.016812494 0.03741669 -0.067917116 0.027399993
0.08667949 -0.043674033 -0.10602608 -0.11224648 0.030648887 -0.030711481 0.10602342 0.018240089
-0.090294905 -0.09885568 0.028042305 0.036746573 0.009133466 0.10691268 0.070720755 -0.10068545
0.11446335 -0.05352263 -0.043828886 0.059251416 0.09247558 0.030241486 0.0023263507 -0.026179222
0.00436216 -0.1134717 0.034996603 -0.07054051 -0.091371715 -0.04028628 -0.011068803 -0.046004448
0.07449905 -0.096635334 -0.100972034 -0.043126557 0.09837896 -0.05408341 -0.002972054 0.006034946
0.006964151 0.0061236154 0.10154707 0.0023546782 0.07446676 0.094659984 -0.03779932 -0.02939163
0.049577434 0.036009476 0.006794638 0.10824139 0.05093317 -0.07517495 0.054924123 -0.02509737
-0.10349874 0.10571357 0.06325427 0.016662855 -0.052699555 0.0060584377 0.011933367 -0.034736294
-0.019123212 0.020620948 -0.09558129 -0.03225091 0.083623156 -0.015871799 0.10659994 -0.09545153
-0.01800516 0.054812543 -0.020354735 -0.026159566 0.07697528 -0.041762378 0.026940405 -0.0461966
-0.051606525 0.05227545 0.013451227 -0.097107254 -0.06776216 -0.09096979 0.009740273 -0.004392524
-0.018894486 0.11108798 0.08332684 -0.095359825 -0.02155352 0.03214341 -0.10247812 -0.08954381
0.09841352 0.069137745 0.05333835 -0.0783646 -0.03884069 0.06306983 0.018282214 0.050686654
00000000: 5d8f 033d 95c8 953d c50f e6bd cbbf 823d
00000010: d249 f33b 54b3 cd3d ad3f 413d f12a bdbd
00000020: 2ec6 b53d 3d38 b5bd 0877 e73d be82 e4bd
00000030: 2c54 72bd 9c7a 8c3d c431 3cbd 04c6 99bd
00000040: 9685 a9bc 0989 2f3c 7cda d3bd 5ecf dc3c
00000050: 90bc e2bd 1edc 8a3d 5ebc 68bb 19fe f43c
00000060: 9dde c9bd f144 50bd ac65 9dbc 56ac d93d
00000070: 72c2 91bb a534 f03d 7a22 e7bd 8ce6 afbd
00000080: d3f7 86bd 53ef 313d 9218 283d b8be 39bd
00000090: 1e21 823d 7269 9cbd 74f5 65bc cdd9 d73d
000000a0: 7b7b 6ebb a505 c4bd b0e3 c73d 3886 ecbc
000000b0: e155 8cbd 47a4 3e3d ef2e 3dbd b8f6 eebd
000000c0: 0c52 0abd 28b3 8bbd d73b f4ba 550a 19bc
000000d0: 75a6 313d ca93 033d d99c 91bd b82a dabd
000000e0: ac34 2abc 197e febc df7c 9e3d 9bc6 e5bd
000000f0: 8365 8bbd 412e 593d 64ea 13bd c5e2 61bd
00000100: dfdf 773c 63fa 1f3d cb36 9cbd 055d d1bc
00000110: b316 2cbd 5038 10bd 10ab a53d 1e70 d2bd
00000120: bf5a d3bd 6772 633d 3646 813c ff9f ae3d
00000130: 6988 e5bd d955 6dbd 55be 9cbd 6ea7 a7bd
00000140: 0c44 353d e7d7 64bd f023 3e3d d1cd ddbd
00000150: 1fc8 933b b028 363c 1c04 1d3c e7e1 7b3c
00000160: a3f2 91bd 7850 f6bd 361d 2b3d fd7a d23b
00000170: 962e d83d bf46 02bd 3b85 a03d a1c8 02bd
00000180: b867 da3b cc8a f7bb 4227 eabb d775 203d
00000190: b4d5 edbd 49aa 7f3d 0d39 0b3c 54c0 65bd
000001a0: ef8f 9e3d 7fab b3bc cb0d 12bd 1656 69bc
000001b0: 783e d4bc 65b0 353d 0c51 22bb 339d d23d
000001c0: eae7 0fbc 6aa7 aebd fad0 873d 5b80 b53d
000001d0: 96d8 e03b 9492 da3d b8b9 b63c 01a1 bcbc
000001e0: 8a8d d63c 9abc 40bd febb 283d 42e0 e0bc
000001f0: 38f9 c5bd 3c8b c63d c0ef c5bd 283b 47bd
00000200: 5cc5 b33d f4e2 32bd b553 8e3d 0b36 56bd
00000210: 6c83 84bb 9d79 34bd abc9 10bd 1f8b 3a3d
00000220: 3f00 4e3d 1952 9a3d d236 e2bc 6caf bc3c
00000230: f706 dd3d f0c0 a73c b419 e2bd 3531 66bd
00000240: 58d2 cfbc ae6c c7bd e781 d33d 2b36 e2bc
00000250: 5bba 893c 3e42 193d 2118 8bbd f375 e03c
00000260: 0485 b13d 8be3 32bd 3424 d9bd 7ce1 e5bd
00000270: 6013 fb3c a596 fbbc cf22 d93d 3d6c 953c
00000280: 89ec b8bd d974 cabd fab8 e53c 9383 163d
00000290: 88a4 153c 09f5 da3d 0bd6 903d 2c34 cebd
000002a0: c36b ea3d 8c3a 5bbd eb85 33bd 9db1 723d
000002b0: d663 bd3d febc f73c b075 183b cf75 d6bc
000002c0: 73f0 8e3b da63 e8bd 9958 0f3d 8b77 90bd
000002d0: 1821 bbbd 3a03 25bd ed59 35bc 296f 3cbd
000002e0: f592 983d bfe8 c5bd 6dca cebd 79a5 30bd
000002f0: e87a c93d 9186 5dbd cbc6 42bb ccc0 c53b
00000300: 8833 e43b 9ca8 c83b e9f7 cf3d f250 1a3b
00000310: 0782 983d 18dd c13d 76d3 1abd b7c6 f0bc
00000320: b511 4b3d ac7e 133d 8ea5 de3b a9ad dd3d
00000330: 4d9f 503d 53f5 99bd 1ef8 603d 0099 cdbc
00000340: 26f7 d3bd 5b80 d83d 748b 813d 8a80 883c
00000350: 7ddb 57bd dc85 c63b 2b84 433c a547 0ebd
00000360: 48a8 9cbc 43ed a83c 20c0 c3bd 8819 04bd
00000370: 9e42 ab3d 9305 82bc 1251 da3d 177c c3bd
00000380: 8f7f 93bc 1e83 603d f9be a6bc 964c d6bc
00000390: 37a5 9d3d 070f 2bbd 20b2 dc3c a538 3dbd
000003a0: 5d61 53bd c81e 563d 8962 5c3c 2be0 c6bd
000003b0: e3c6 8abd 5f4e babd aa95 1f3c 29ef 8fbb
000003c0: 9cc8 9abc 1882 e33d 43a7 aa3d 034c c3bd
000003d0: 0291 b0bc cfa8 033d 0ce0 d1bd bf62 b7bd
000003e0: 078d c93d 1798 8d3d 5079 5a3d 9f7d a0bd
000003f0: 6a17 1fbd c12a 813d 95c4 953c cf9c 4f3d
