baseline_outputs/transformer_output/split_5/checkpoint.pt (torch, 831970 bytes, 46 tensors)

attn_layers.layers.0.0.0.weight f4 [74]
000000 13 af 80 3f c6 10 81 3f d7 58 81 3f 8a 1f 81 3f
       1.0053428 1.0083244 1.0105237 1.008775
000010 25 34 82 3f ca f6 80 3f 8a 58 81 3f a6 7b 81 3f
       1.0172163 1.0075314 1.0105145 1.011586
000020 5a d0 80 3f b2 a9 7d 3f eb 41 81 3f 94 cd 80 3f
       1.0063584 0.9908706 1.0098242 1.0062737
000030 ce 32 80 3f b2 81 80 3f 66 6b 81 3f fa f3 80 3f
       1.0015504 1.003958 1.01109 1.0074456
000040 e2 5d 7f 3f 6f 32 80 3f e1 e4 80 3f bc 7f 80 3f
       0.9975263 1.0015391 1.0069848 1.0038981
000050 6b 13 83 3f 0c 98 80 3f 0b 9f 7f 3f d7 1e 81 3f
       1.0240301 1.0046401 0.99852055 1.0087537
000060 1b 32 83 3f 91 c9 80 3f bf c0 7f 3f e3 29 82 3f
       1.0249666 1.0061513 0.9990348 1.0169033
000070 35 fd 81 3f 96 07 82 3f 1c 18 80 3f 22 d3 80 3f
       1.0155398 1.0158565 1.0007358 1.0064433
000080 c7 6d 80 3f 4c 6d 80 3f 63 f0 80 3f a4 e6 80 3f
       1.0033501 1.0033355 1.007336 1.0070386
000090 fa 7c 7e 3f 5e 22 81 3f d2 cc 7f 3f 61 60 80 3f
       0.9940945 1.0088613 0.99921906 1.0029413
0000a0 07 b6 80 3f bd f2 7f 3f f8 b9 80 3f 82 f4 7f 3f
       1.005555 0.99979764 1.0056753 0.99982464
0000b0 38 1a 81 3f c0 3e 80 3f 4a 6c 80 3f 50 e8 80 3f
       1.0086126 1.001915 1.0033047 1.0070896
0000c0 99 b7 80 3f 2c 53 82 3f 30 da 80 3f 2e f3 80 3f
       1.005603 1.0181632 1.0066586 1.0074213
0000d0 81 06 80 3f 5d 14 80 3f 53 96 81 3f 62 66 80 3f
       1.0001985 1.0006214 1.0124 1.0031245
0000e0 bf 98 81 3f 67 a0 7e 3f 11 48 81 3f eb 94 80 3f
       1.012474 0.99463505 1.0100118 1.0045446
0000f0 cf 00 81 3f 38 8f 7f 3f 2b 47 80 3f b2 af 80 3f
       1.0078372 0.9982791 1.0021719 1.0053618
000100 f4 27 80 3f 26 47 80 3f e5 92 7e 3f 5d 53 80 3f
       1.0012193 1.0021713 0.99442893 1.002544
000110 da 39 80 3f 5e 78 80 3f 2a 2c 81 3f 6c ea 7d 3f
       1.0017655 1.0036733 1.0091603 0.99185824
000120 9a de 80 3f e1 77 81 3f
       1.0067933 1.0114709

attn_layers.layers.0.0.0.bias f4 [74]
000000 45 bb 6b 3a a9 aa d0 b8 f5 9a 43 3a 5a 44 61 ba
       0.0008992444 -9.950001e-05 0.000746175 -0.0008593254
000010 18 dd 0b bc 5f 14 38 bc a8 40 57 bb c4 56 96 38
       -0.0085366 -0.011235326 -0.0032844935 7.168719e-05
000020 d7 c1 36 3a e3 8a 82 3c 4f 30 09 bb 2e 4c bb ba
       0.00069716334 0.015935367 -0.0020933335 -0.0014289671
000030 09 a7 01 3b 73 b8 99 3b 73 f7 10 bb c5 4f 83 3a
       0.0019783399 0.0046911775 -0.0022120147 0.001001828
000040 5a ff 70 bb ae be 9b 39 10 1a 5a 3a 0f a1 1f bb
       -0.0036773295 0.0002970597 0.00083199237 -0.0024357473
000050 a3 28 27 3c 16 b3 27 3a 97 f2 13 bc 68 3a 47 bb
       0.01020256 0.00063972303 -0.009030006 -0.0030399803
000060 82 0d fa 3a dd ab a6 bb 00 10 b0 b9 71 71 56 bc
       0.0019077512 -0.0050864057 -0.00033581257 -0.01308857
000070 9a a3 3c 3a 08 62 10 bb 9c 6c 69 3b fd 67 8a 3b
       0.00071960094 -0.0022031087 0.0035617715 0.004223822
000080 44 89 d6 3b 7b 00 34 bb 92 60 42 3b 3f ea ac 3a
       0.006547125 -0.0027466107 0.0029659611 0.0013192369
000090 58 99 c3 3b 9c 90 76 3b 5e 29 fe bb c3 cd 82 bb
       0.0059692077 0.0037622815 -0.007756396 -0.003991814
0000a0 d3 52 92 ba 12 b2 fd 3a d6 96 91 bb 56 1e 47 ba
       -0.00111636 0.0019355437 -0.00444303 -0.0007595768
0000b0 cb 0c 54 3a f9 72 b2 bb 4e ef 83 3b 2a 5c ac ba
       0.00080890645 -0.0054458347 0.00402633 -0.0013150026
0000c0 0b 83 7f bb 55 05 2a bb 52 2d 33 bb b5 65 6c 3b
       -0.003898802 -0.002594312 -0.0027340245 0.0036071364
0000d0 93 90 24 3b 47 dc ef 3a 4e 67 d4 38 4b 9e 96 3b
       0.0025110587 0.0018299901 0.0001012819 0.0045965067
0000e0 e6 7b 57 ba 23 30 c0 3b 8e 9a 19 3b 37 1f 3c 3b
       -0.00082200614 0.0058651133 0.002343807 0.002870513
0000f0 14 06 74 3b d4 c8 8b bb 9c 02 73 39 30 e4 b7 3b
       0.0037235068 -0.004265884 0.00023175258 0.005611919
000100 e6 fa 00 bb de 94 1e bb d6 73 a6 bb 74 b5 08 bb
       -0.0019680797 -0.0024197618 -0.0050797267 -0.0020860108
000110 56 84 80 b9 2b 28 0f bb 81 a8 02 ba 2d e6 43 bc
       -0.0002451266 -0.002184401 -0.00049842155 -0.011956734
000120 b7 ad 5c ba f3 32 1e bb
       -0.00084182195 -0.0024139255

attn_layers.layers.0.1.to_q.weight f4 [64, 74]
000000 b2 f7 3b 3c f9 29 a3 3b d0 99 60 bc 82 b6 0c 3d
       0.011472629 0.0049793688 -0.013708547 0.03435374
000010 0f f2 93 3d 9a cc da 3d 1e 0c 59 bd cf 1c 94 3d
       0.072239034 0.10683556 -0.05299007 0.07232057
000020 b7 5c f7 3d a6 5d ae bd 5d 57 a1 bd 3b 1e 80 bd
       0.12078231 -0.08513956 -0.07877991 -0.06255766
000030 fb 68 46 3d 33 a3 e6 3d ae 1f 4b 3d 20 75 94 3d
       0.04843996 0.112615965 0.04959076 0.07248902
000040 2f 02 cc bd cf 85 cf bd e1 c2 82 bd 31 3e a4 bc
       -0.09961354 -0.10132944 -0.063848265 -0.020049186
000050 17 ae ab 3d 6f 01 a6 bd 26 1e 95 bd 4d 62 94 3d
       0.083828144 -0.08105742 -0.07281141 0.07245312
000060 3b 5b 7e bc 3f 01 90 bd 19 51 e5 bd 9a 93 77 3d
       -0.015524681 -0.07031488 -0.11197109 0.0604435
000070 3f 35 f7 3d 4f 5a 24 3d ec 8e 94 bd 5b b8 8a bc
       0.12070703 0.040125187 -0.07253823 -0.01693361
000080 a5 12 97 bd 87 af 51 bd 8e 59 bd 3d 3f 36 cb 3b
       -0.07376603 -0.051192787 0.09245597 0.006201535
000090 9f d2 84 3d 18 23 9c bd f0 0c 47 3d ad eb 40 bd
       0.06485485 -0.07623881 0.048596323 -0.047099758
0000a0 1f 24 66 ba 19 f9 27 3d 86 41 31 bb c9 a3 97 3b
       -0.0008779186 0.041009042 -0.0027047112 0.004627679
0000b0 5e 81 dd 3d 64 6d c6 bd 7f 6d 32 3d 6c 89 bf bd
       0.108156905 -0.09688833 0.043561455 -0.09352383
0000c0 c1 e2 bf 3d 4b dd a1 3d 14 02 15 3e a0 bb 98 3d
       0.09369422 0.079035364 0.14551574 0.07457662
0000d0 ef 2a 51 bd 09 8b 02 bd 3e 02 2d 3d fa c3 0f 3d
       -0.051066335 -0.031870876 0.042238466 0.035099007
0000e0 79 d9 2e bc 86 97 e0 bd 83 ce dc 3b ba 9f c4 3d
       -0.010671967 -0.10966401 0.0067384853 0.09600778
0000f0 82 3d ef bd 8a cf f2 bd 38 f1 d2 bb 0c a3 c7 bd
       -0.116816536 -0.11855991 -0.006437447 -0.097478956
000100 2f 98 48 bd 86 1c bd bd 25 e8 a9 3d 5d f9 be bd
       -0.04897326 -0.09233956 0.08296231 -0.09324906
000110 d3 3f b2 3c 39 bd 7b bb c7 d9 aa bb 21 2c 24 3d
       0.02175895 -0.0038412346 -0.0052139494 0.040081147
000120 cc 3c 8d 3d a6 4a 42 3d 90 93 94 3d 6c 22 e8 3d
       0.06896362 0.04743447 0.07254708 0.113346905
000130 60 7c b5 bd f4 b9 9f bd 4d 4a bc bd 88 4a b6 3d
       -0.08861613 -0.077991396 -0.09193859 0.089009345
000140 cf 85 59 3d f4 a1 35 3c f8 f9 b6 3c 54 69 a1 bd
       0.053106125 0.011085976 0.022335991 -0.07881418
000150 db 9d be 3d 26 b8 5d 3c fb 12 d6 bd 39 ab ff bd
       0.09307452 0.013532674 -0.10452839 -0.1248383
000160 82 ca bc bd ea ec f7 ba 02 db da bd 5f 0e 9b 3d
       -0.09218313 -0.001891521 -0.10686304 0.075711004
000170 f6 9a c2 3d 49 a1 df 3d a4 49 38 bc 4e bb b1 bc
       0.09502213 0.109194346 -0.011248026 -0.02169576
000180 93 5e c1 bd 0a 80 c6 3d c2 1a 32 3d 90 43 d9 3d
       -0.09441867 0.0969239 0.04348255 0.1060859
000190 d5 e7 32 bd a9 e8 49 bc e8 0f d5 bd 9f e3 3d 3d
       -0.043678124 -0.012323537 -0.104034245 0.046359655
0001a0 00 cc f0 bc 48 a9 3c bc e7 0e c3 bd 48 4c 92 bd
       -0.02939415 -0.011514969 -0.09524327 -0.07143456
0001b0 9d 33 bf 3d 98 3b 7c bd db 2f 34 3c f6 b3 a0 bd
       0.09336016 -0.06158027 0.010997738 -0.07846825
0001c0 3a 73 44 bd e2 b9 27 3d 58 8b 0b 3d bb d4 ab bd
       -0.04796145 0.040948756 0.034068435 -0.083901845
0001d0 19 2a db bd 8a ea 2a 3d ec 9d b9 3d e6 60 8c bc
       -0.10701389 0.04172758 0.09063324 -0.017136049
0001e0 d7 57 c9 3d 69 8c 8e 3d f5 d3 2c bd bd 48 95 3d
       0.09831207 0.06960375 -0.042194325 0.07289264
0001f0 9f e7 82 bd c7 be 3c 3d ae 7d e6 bd 91 8c b0 bd
       -0.063918345 0.046080377 -0.1125444 -0.08620561
000200 38 0f b7 3c b1 2f 6b bd bf 6d 04 bd 2d 20 ba bd
       0.022346124 -0.05741853 -0.032331225 -0.09088168
000210 2c b5 ab 3c 4f 22 b4 bd 84 aa e9 bd 8c 6d a0 3d
       0.020960413 -0.08795606 -0.114094764 0.078333944
000220 19 ac b0 3b 82 27 04 3d 32 66 78 bc 7a d0 58 3d
       0.0053916094 0.03226424 -0.015161084 0.052933194
000230 b3 4b f9 3c 27 f1 80 bc ec 92 c0 bd fb ca 3b bc
       0.030431604 -0.01573999 -0.09403023 -0.0114619685
000240 6d 86 e0 3d 19 f8 e1 3c a0 e6 e0 3d 38 91 b7 bd
       0.1096314 0.027584122 0.10981488 -0.08963245
000250 3a a6 9c 3c b4 b8 a1 3d 0d af 47 bb c0 97 d5 bb
       0.019122232 0.078965575 -0.0030469329 -0.006518334
000260 31 ea 1c 3d 2b 92 a7 bd 90 38 f1 ba 0e 76 92 bd
       0.03830928 -0.08182176 -0.0018403698 -0.071514234
000270 01 44 fa bd 89 c5 80 bd cd 23 03 be c0 66 a6 3d
       -0.12220002 -0.06287677 -0.12806626 0.08125067
000280 70 8c 84 bd d3 63 87 3c 73 10 87 3d ef f4 ac 3c
       -0.06472099 0.016527092 0.06594934 0.021112887
000290 81 da 87 3d 8d c8 f0 3a c9 14 56 bd d5 27 01 be
       0.06633473 0.0018370316 -0.052265916 -0.12612851
0002a0 a6 2a b3 bd 26 f1 44 bd 2e b5 cf bd 8b 1a b4 3d
       -0.08748369 -0.04808154 -0.10141979 0.08794125
0002b0 6f f3 c3 3d e9 c3 61 bd fa fa 52 3d df 76 a8 bb
       0.09567916 -0.055118475 0.05150888 -0.0051411237
0002c0 b6 e0 92 bd b0 c5 55 bd 29 b7 c8 3d ba 5a 1d 3d
       -0.071717665 -0.052190483 0.0980056 0.0384166
0002d0 07 ef ba 3d 1c 1d f7 bc e8 11 22 3d 3a cb a1 3a
       0.09127622 -0.030165248 0.039567858 0.0012343891
0002e0 e7 23 95 bd ce 42 ce 3d 32 32 61 bd 0d 21 9f 3d
       -0.072822385 0.10071336 -0.05497951 0.07769976
0002f0 cc e8 a0 bd 47 b3 df bd a2 2b 9c 3d 91 d6 a5 3c
       -0.078569025 -0.10922866 0.0762551 0.020243915
000300 7a 11 be bd 2c 88 3e bd ea 4e ab bb f8 66 87 bd
       -0.09280677 -0.046516582 -0.005227913 -0.066114366
000310 c4 04 8c 3d 37 d7 e6 3d 62 8f 48 bd 83 65 8b bd
       0.068368465 0.11271518 -0.048964866 -0.06806471
000320 17 c0 a8 bc 33 d1 85 bd 36 a4 59 3d fb d8 b9 bc
       -0.020599408 -0.06534042 0.05313512 -0.022686472
000330 d9 df 95 bd bf a3 d5 bd 80 a8 27 3c cd fa 2b bd
       -0.07318086 -0.10431623 0.010233045 -0.04198723
000340 61 c3 de 3d 53 17 bf bd 38 84 1c bd 69 13 8b bd
       0.10877109 -0.093306206 -0.03821203 -0.067908116
000350 e1 e4 c5 3b b9 b0 a5 3d 95 41 2c 3c 83 6c c4 bd
       0.0060392474 0.08090348 0.010513683 -0.095910095
000360 52 23 96 bc 4e 3b 99 3c fe c6 0f bd be e9 0d bd
       -0.018327389 0.018705036 -0.035101883 -0.034646742
000370 37 fc 19 3c 2a 36 3a bc ec 39 e2 bc ad 73 9b bd
       0.009398512 -0.011365453 -0.02761551 -0.07590423
000380 4a 61 84 bd 62 c5 15 3c b1 ff 18 bd 30 d8 da 3d
       -0.06463869 0.009141298 -0.03735322 0.10685766
000390 b6 84 ae bd 20 a8 dd bd f0 e2 e5 bc f1 86 87 bd
       -0.08521406 -0.10823083 -0.028062314 -0.06617535
0003a0 66 3f 2f 3d 05 61 cf bb 15 d9 3c 3d 98 ef 8c bc
       0.04278507 -0.0063287043 0.046105463 -0.017204091
0003b0 00 6f 26 bd 6c a6 c1 bd 87 3d a9 bd 5d 55 78 3d
       -0.0406332 -0.094555706 -0.082636885 0.060628284
0003c0 d9 62 f1 bd 70 52 88 3d 83 19 0d bc 2e 35 9d 3c
       -0.11786432 0.06656349 -0.0086120395 0.019190397
0003d0 7a 3c a2 3d 40 39 b4 3d 36 b3 72 bc 61 77 32 3d
       0.07921691 0.08799982 -0.014813235 0.04357088
0003e0 8c 4c 26 3d 51 89 bd 3c a8 6b f4 bd c2 e9 8e 3c
       0.040600345 0.023136767 -0.11934596 0.017445449
0003f0 2e c0 9d bc ce f2 20 3d 1c 7f 4b 3d 3d 16 0d bd
       -0.019256677 0.039294057 0.049681768 -0.034445036

attn_layers.layers.0.1.to_k.weight f4 [64, 74]
000000 d6 a1 a4 3d df 8a bc 3d 2f 8f 0f bd 6a 69 a5 bd
       0.0803868 0.09206175 -0.03504866 -0.08076747
000010 69 aa 9a 3d 46 bf db bd 6f 3e eb 3d bd e0 d7 bd
       0.075520344 -0.10729842 0.11486518 -0.10540912
000020 91 db 11 3d 3a f3 d2 3d 6e 9e 52 bd e4 6b 57 3c
       0.035609785 0.10300298 -0.05142062 0.013148282
000030 eb 10 e0 3d 5d c2 b1 bc af ff ca 3d 56 01 e0 bd
       0.10940727 -0.021699125 0.09912049 -0.10937755
000040 f2 8d 9d bd ac 52 87 3d 2c fa 90 bd 85 53 16 3d
       -0.076930895 0.06607565 -0.070789665 0.036700744
000050 42 2c dc bc 73 61 35 bd b8 98 7c bd 06 ef e5 bb
       -0.026876573 -0.044282388 -0.06166908 -0.007017019
000060 2e 55 a6 3d c4 26 06 3b e3 17 98 bd 69 0d 41 bd
       0.081217155 0.0020469883 -0.07426431 -0.04713193
000070 58 11 e8 3c 72 62 93 3d c2 e8 10 bc c7 40 69 bd
       0.028328583 0.07196511 -0.008844556 -0.056946542
000080 b6 61 ee 3c d4 81 ab bd 6d 75 68 bb 14 3c e5 3b
       0.029099327 -0.08374372 -0.0035470382 0.0069956873
000090 11 89 c5 3b 36 58 7f 3c f6 aa 7c 3d 3d 6b 3f bd
       0.0060283025 0.015584996 0.06168648 -0.04673313
0000a0 e1 7a a6 bd 30 90 92 bc 01 68 83 bd 3a 3d 8c 3d
       -0.08128906 -0.01789102 -0.064163215 0.068476155
0000b0 1c f7 94 3d 11 b0 92 bd a6 b0 a8 3d 64 ed a6 bd
       0.07273695 -0.07162488 0.08236818 -0.081507474
0000c0 bd 23 9c bd aa 44 93 3d f9 72 b6 3c 9b bf 52 3d
       -0.07624004 0.07190831 0.02227162 0.05145226
0000d0 b9 15 ec bc 24 5e 26 3d d7 a7 d5 bc bf 46 44 bd
       -0.028818952 0.040617123 -0.026081009 -0.04791903
0000e0 38 c8 bf bd a3 1b e1 bd f5 d4 5d 3a a2 f2 90 3d
       -0.093643606 -0.109915994 0.0008462214 0.070775285
0000f0 66 e8 3f bd 9e 01 61 3d 27 d0 4f bd 49 2a 44 bd
       -0.04685249 0.054933183 -0.05073562 -0.04789189
000100 ac cc 60 3d e4 fd 31 bd 19 2c 76 3d 92 37 4e 3b
       0.05488269 -0.04345502 0.06010065 0.0031466228
000110 5f 73 ef 3d ac 68 3e 3d 65 04 f1 bd 38 8a e4 3c
       0.11691927 0.04648654 -0.11768416 0.02789794
000120 0c 50 02 3d d8 8c 28 3c 2c 2a a4 3d 2f 46 8c 3d
       0.03181462 0.010287486 0.08015856 0.06849324
000130 5c 91 26 bc f0 3d 01 3e 15 97 b4 bd 08 4f 0a bc
       -0.010166492 0.12621284 -0.08817879 -0.008441694
000140 42 70 ba bd 86 82 99 3d 15 80 9b bd 2d 5b a5 bc
       -0.09103443 0.074955985 -0.07592789 -0.020185078
000150 b3 d0 76 3c 0d e0 e6 bd 48 38 27 3b 53 90 9e bd
       0.015064406 -0.11273203 0.0025515724 -0.077423714
000160 3c 33 d3 3d 29 74 bd bd f2 00 62 3d f1 2e 69 bd
       0.103125066 -0.092506714 0.055176683 -0.056929532
000170 8a ce 99 bc 5d 23 bd bd 9b 0a 98 3d e2 cf dd 3d
       -0.018775243 -0.09235261 0.07423898 0.10830666
000180 52 91 87 bd 6b b8 a9 bd 2b b8 24 bd b9 ce a0 bd
       -0.066195145 -0.08287128 -0.0402147 -0.07851929
000190 4e d9 d8 3d 4b fd 8d 3d 19 54 00 3c 4f a8 1c 3d
       0.105883226 0.069330774 0.00783255 0.03824645
0001a0 81 38 7e 3d 3e f2 00 3d a9 18 24 bc 7d c7 56 bc
       0.062065605 0.03148102 -0.010015645 -0.013109085
0001b0 ab 3e fe 3d dc 85 95 bd 90 92 c5 3c 80 ff 41 3d
       0.12414297 -0.07300922 0.024117738 0.047362804
0001c0 d6 2c c2 bd 3d d1 3e bd 62 2d 0d 3d b2 e9 be 3d
       -0.09481208 -0.046586264 0.03446711 0.093219176
0001d0 65 6a dd 3d 3c df 38 bc a1 55 be bd d2 a5 42 3d
       0.10811309 -0.011283692 -0.09293676 0.04752142
0001e0 2e a7 b3 3c bf 9d b4 3d a0 c2 e0 bd 14 84 a4 3d
       0.021930303 0.0881915 -0.10974622 0.080330044
0001f0 d1 8d dc 3d 45 05 8a 3d 98 9b a3 bd 56 6d 94 bd
       0.10769237 0.06739286 -0.079886615 -0.07247417
000200 b7 27 9c 3d c2 c2 e0 3d b6 2d b7 3c 75 e5 a2 bc
       0.076247625 0.10974647 0.022360664 -0.019884804
000210 72 c6 bd ba b6 91 a7 bd 23 24 22 3d 13 54 33 bd
       -0.0014478697 -0.08182089 0.039585244 -0.04378135
000220 3f d4 c7 bd 3a f1 fe 3d 68 81 76 3d 1d 4d ca 3c
       -0.097572796 0.12448354 0.060182005 0.024694974
000230 3a 93 0a bc e3 e7 4b bd 10 ef e9 bd 5f b8 3c 3d
       -0.008457953 -0.04978169 -0.11422551 0.046074267
000240 a2 92 d7 bc 68 78 a9 bd d3 ef a3 3c 65 af c8 bc
       -0.026315037 -0.08274919 0.020011818 -0.024497697
000250 5e c2 86 bd d2 6b 2f bd 63 71 d3 3d 66 b7 76 bc
       -0.06580041 -0.042827435 0.10324361 -0.015058374
000260 00 e0 ae bd 28 2d 9e 3d 75 86 63 3d e4 1c be bd
       -0.08538818 0.077234566 0.05554815 -0.09282854
000270 d1 05 c6 3d 57 86 f9 3c 4d 6a 48 bd db 4c 25 bd
       0.09669078 0.030459566 -0.0489295 -0.0403565
000280 4c ca e5 bd a1 7d fb 3b 89 1f 0b 3d d9 fe cd bd
       -0.11220226 0.0076748882 0.03396562 -0.10058374
000290 87 7a 3d bd c9 47 6a 3d 39 ab d3 bd 5b 91 d8 3c
       -0.04625943 0.057197366 -0.103353925 0.026436498
0002a0 8a c8 06 3d 6d 6c e4 bd 5e 40 97 3d bf dc ed 3c
       0.032906093 -0.11153493 0.07385324 0.029035924
0002b0 54 bb 39 bc 6a 1b a1 bd 65 3a c7 3d 87 36 f5 3d
       -0.011336166 -0.07866557 0.09727935 0.11973291
0002c0 fe c8 a7 bd c5 f7 86 bd 74 84 9b bc 7d 1e 6e 3d
       -0.08192633 -0.06590227 -0.018984057 0.058134545
0002d0 fd 10 cc bc ee a8 5e bd 45 0e d6 bd e3 bb aa bd
       -0.024910444 -0.054360323 -0.104519404 -0.08336618
0002e0 28 c7 1e bd f5 40 93 3d 4b 25 b2 3d d6 5e 36 bd
       -0.03876415 0.07190124 0.08698519 -0.044524036
0002f0 85 91 b4 bd 1a a1 98 3d 6d 72 43 3b 5e 3c 1b 3d
       -0.08816818 0.07452603 0.0029822842 0.037899368
000300 1a ca c2 bd 5c 7f 8b bd c8 41 8f bc e9 7b 54 3d
       -0.09511204 -0.06811401 -0.017487422 0.051875982
000310 7a 12 a9 bd b6 e6 64 3d 31 7f 80 3c 1b 35 d2 3d
       -0.08255477 0.055884086 0.01568565 0.10264035
000320 d3 43 ed bd 1d ff 20 3d f2 3e cb bd cc d8 2a bc
       -0.11585202 0.039305795 -0.09924115 -0.010427665
000330 a7 3d ca bc 43 6a b9 bd 8d 09 57 3c ee 51 e3 3b
       -0.024687601 -0.09053471 0.013124836 0.006937257
000340 e7 56 33 3d fc db b0 bc 61 a1 b7 3d 77 fb a0 3c
       0.04378405 -0.021589272 0.089663275 0.019651158
000350 b8 86 cc bd 6b 07 7f bc 3c b2 e6 bc 44 4b ba bd
       -0.09986633 -0.015565733 -0.02816116 -0.09096387
000360 e8 bf da b9 0f 6b 7a bd d4 41 f4 bd 8f c3 15 bc
       -0.00041723181 -0.061137255 -0.11926618 -0.009140863
000370 aa e2 93 3d b7 6c 02 3e 20 d0 53 3d 81 f6 78 3d
       0.07220967 0.12736784 0.051712155 0.06078196
000380 cc c3 b9 bd 8f 7b 4c 3d 23 c5 5a 3d b9 e5 b5 3c
       -0.090705484 0.049922522 0.05341066 0.022204267
000390 e5 22 15 bd d0 4b 30 bd d1 86 bb bd 54 70 e0 bd
       -0.03641023 -0.04304105 -0.091565736 -0.10958925
0003a0 2c a3 77 bd b6 13 45 3d f4 3f e2 bd 8f da d4 bb
       -0.060458347 0.0481145 -0.11047354 -0.006495781
0003b0 69 f0 4a bc ec f6 4c 3d dd 39 c5 3c d5 d2 30 3d
       -0.01238642 0.05004017 0.024075443 0.043169815
0003c0 41 27 2e bd a0 e2 e2 bd c5 40 47 3d a9 a6 dc bc
       -0.042517904 -0.110783815 0.048645753 -0.026934939
0003d0 ee 5e 42 3c c3 10 ae 3c 92 78 d2 bd 34 6e 98 bc
       0.011863453 0.021248227 -0.10276903 -0.018607236
0003e0 c5 7a 1f 3d 1d 87 84 3d af eb d8 bd 02 f5 32 3c
       0.03893544 0.06471083 -0.10591828 0.010922672
0003f0 8e 98 e5 bd c4 98 45 3d 98 58 b6 3c 36 24 db bd
       -0.11210738 0.04824139 0.022259042 -0.10700266

attn_layers.layers.0.1.to_v.weight f4 [64, 74]
000000 48 e3 23 bc d0 f3 49 bd a7 fb 96 3d a9 f4 dc 3d
       -0.010002919 -0.049304783 0.073722176 0.10788853
000010 e8 75 71 3d ed 11 d1 3d 5d 2f bd bc 2d 4b f1 3c
       0.058950335 0.10208497 -0.023093874 0.029454792
000020 16 b3 e3 3d 5e 34 89 3d 9a 77 89 3d 75 bd ef bd
       0.11118142 0.066994414 0.06712265 -0.11706058
000030 4c b1 e8 bd 14 0f 9b 3c 86 f0 e1 3c 5a 86 bc bd
       -0.11361942 0.018928088 0.02758051 -0.09205313
000040 a9 10 31 bd 88 ad 91 3c af 40 df bc aa c3 cb bd
       -0.04322878 0.017782941 -0.027252523 -0.09949429
000050 47 a3 96 bb 1c d7 63 3d df 60 f6 bb 0c 3f c6 3d
       -0.004597101 0.055625066 -0.007518872 0.09679994
000060 23 54 9a 3d 65 c1 8f bd 55 ee 98 3d b9 e1 92 3d
       0.07535579 -0.07019309 0.07467333 0.071719594
000070 ba c3 e2 3d 73 c7 c9 3d bc d0 97 bd 6e 43 ea bd
       0.11072488 0.09852495 -0.0741286 -0.114386424
000080 24 85 81 bc 8f 9c 7a bd 8c eb 20 bd 4d 78 03 be
       -0.015810557 -0.061184462 -0.039287135 -0.1283886
000090 87 71 b1 3d 36 40 b2 bd 84 89 b3 bd 33 7c 73 3b
       0.08664232 -0.087036535 -0.087664634 0.0037152886
0000a0 ab 77 8e bd 64 a6 c1 3d e8 b3 c2 bd 3e cc eb bd
       -0.069564186 0.094555646 -0.09506971 -0.115135655
0000b0 10 9c c4 3d 8c 1c 99 bd aa 49 b5 3d 8d 77 e1 3d
       0.09600079 -0.07476148 0.08851941 0.110091306
0000c0 d2 8e 76 bc 6c e1 ae bd a1 ba bb bc b4 52 9f 3d
       -0.015048699 -0.085390896 -0.02291614 0.07779446
0000d0 4b 9c 98 3d 83 f0 28 bc 9d e1 3f 3d 69 b9 93 3d
       0.074516855 -0.010311249 0.04684602 0.072130986
0000e0 c2 31 b2 bd 54 58 38 bd 67 53 b8 3d 6f f8 e0 3d
       -0.08700897 -0.04500611 0.09000283 0.10984885
0000f0 95 89 84 3d 48 7a 23 3d 8f a3 2b bc 38 0e 2b 3c
       0.06471554 0.03991154 -0.010476007 0.010440402
000100 9e de e1 bd 10 7a 0b bd c0 02 91 3c 3f d9 4f bc
       -0.11028789 -0.034051955 0.017701507 -0.012686073
000110 27 f4 a3 3d e0 35 eb 3d 91 3b a1 bc 7d e7 3f bd
       0.08005553 0.11484885 -0.019681724 -0.046851624
000120 73 f8 85 bd 13 e4 9b bd ca 87 0e 3d 8c 4c 4e 3d
       -0.065415286 -0.07611861 0.034797467 0.05036597
000130 23 5c f6 bd 1f b9 b5 bd 8b a8 cb 3d 92 1a 9d bc
       -0.120292924 -0.088732 0.099442564 -0.019177709
000140 30 ed 69 3c 3b 2e a7 3d da eb b4 3b fd c3 ce bd
       0.014277741 0.08163115 0.0055212798 -0.100959755
000150 2a f6 83 bd 6d 33 9b bd a7 3c e4 3b e1 51 79 bc
       -0.064434364 -0.07578168 0.006965238 -0.015217275
000160 68 e5 5a 3c 8b 73 d7 bd 26 9b a7 3c 0d 94 a9 3d
       0.013360359 -0.10520085 0.020459723 0.082801916
000170 a4 b3 e8 bd 3d fa 89 bd f3 6c 95 bc 47 dd d4 3c
       -0.11362389 -0.06737182 -0.018240428 0.02598442
000180 5f ba b4 bd a1 3c c7 bd f1 91 d6 3d f7 ec f2 3d
       -0.0882461 -0.09728361 0.10477055 0.11861604
000190 e2 35 b4 3d f9 dd b2 3d 67 47 1c 3d 62 e1 04 3b
       0.0879934 0.08733744 0.038154032 0.002027594
0001a0 35 a9 19 3d 4a 93 89 3d ee af 97 3c 6d 28 93 bb
       0.037514884 0.06717546 0.018516507 -0.004490903
0001b0 b9 8b 6e 3d 52 01 8e 3c 81 b3 a9 bd 71 51 e6 bc
       0.05823872 0.017334614 -0.08286191 -0.028115006
0001c0 05 93 4f 3d 93 38 8e 3d 9e 4e 95 3d 7c 15 75 3b
       0.050677318 0.069443844 0.07290386 0.003739684
0001d0 ab ef ab 3d 93 c5 ce bd f9 92 b2 3b 88 94 57 bd
       0.083953224 -0.10096278 0.0054496494 -0.052631885
0001e0 44 23 99 bd c3 a9 7f 3c 26 33 86 3d ef 24 9f bd
       -0.074774295 0.015604439 0.065527245 -0.077707164
0001f0 11 ad 0f 3d 5b 99 03 bd 32 d1 87 3c 0c e2 e7 bd
       0.03507716 -0.032128673 0.016579244 -0.11322412
000200 4e d2 ac 3d 3d 66 bf 3d a4 0d a0 bd 3e e7 e3 3c
       0.0843855 0.09345672 -0.07815102 0.027820226
000210 bf 01 c7 3c f3 c9 ed 3c f2 24 f6 3a ad 9b bc 3d
       0.024292825 0.029026961 0.0018779321 0.0920938
000220 26 7a 38 3d e6 3b 27 bd e3 38 d0 3d e9 11 d8 bd
       0.045038365 -0.040828608 0.101671 -0.10550291
000230 26 f8 31 bd 66 b7 67 bc 08 f9 51 bd e5 ee c0 3c
       -0.043449543 -0.014142847 -0.051262885 0.023551414
000240 84 2e 89 3c f6 c6 4e 3d e6 4d 3c bc c2 5a ae 3d
       0.016745813 0.050482713 -0.011493182 0.085134044
000250 51 3a 3f bd 15 b1 b4 3d 57 f8 8b bc 74 3f b3 3d
       -0.046686474 0.08822838 -0.017086191 0.08752337
000260 37 bc 8e bd e1 fb dd 3d 70 e4 c2 3d 8f 93 a5 3d
       -0.06969493 0.10839058 0.09516227 0.08084785
000270 c7 1d 57 bd b5 cb dc bd d8 c5 32 bd ae e5 8b bd
       -0.052518632 -0.107810415 -0.04364571 -0.06830917
000280 5d b4 a5 3d 40 21 7f 3d 47 da e1 3d 7a 1f 98 bc
       0.08091042 0.06228757 0.11027961 -0.018569697
000290 55 b2 ca 3d b0 fe cd 3d 7e 19 8b bb fd 13 b3 bd
       0.098972954 0.100583434 -0.0042449823 -0.08744047
0002a0 be d1 9c bd 92 9e 43 3d ff af cb 3d 12 af 53 bc
       -0.07657193 0.047758646 0.09945678 -0.012920158
0002b0 86 8f d1 3d 0f ee 5d 3d 81 35 4c bd 0c 91 ec 3d
       0.10232453 0.05418211 -0.049855713 0.11551103
0002c0 34 26 58 bc 4f 28 a1 3d 4a 15 3c 3d 78 85 62 bd
       -0.013192702 0.078690164 0.04591874 -0.055303067
0002d0 c6 e9 a0 bd 0d e4 83 3d 86 fe df b8 4d a7 4b 3d
       -0.07857089 0.064399816 -0.00010680877 0.049720097
0002e0 c7 33 28 bd db f2 46 3d 77 e4 9a ba 68 9a fa 3d
       -0.041065004 0.04857145 -0.0011817355 0.12236482
0002f0 93 05 53 bd 2b d1 e9 bc 46 fe 9b bd cb 3e aa 3d
       -0.051518988 -0.028542122 -0.07616858 0.08312758
000300 34 21 a1 3d 7c ed 14 bd ed 30 db 3d ad 64 f5 bb
       0.07867661 -0.036359295 0.10702691 -0.007488808
000310 f2 f1 d5 bb 41 cf 5b bb 10 aa b5 3d ed 19 d2 3d
       -0.0065290863 -0.003354028 0.088703275 0.10258851
000320 86 a4 54 3d 24 f6 3c bd 68 b7 ac bd 9b 48 02 3d
       0.051914714 -0.046133175 -0.084334195 0.031807523
000330 7b f4 65 bd b5 60 85 3d 49 4c 47 3d f0 54 94 3d
       -0.056141358 0.06512586 0.048656736 0.07242763
000340 0d b7 48 bd 5e e1 a6 bd 6e 85 2f 3d 5e 20 a4 3a
       -0.049002696 -0.08148454 0.042851858 0.0012521853
000350 7b 15 b5 3d 9d e1 71 3d 8a 79 81 bd 15 46 e9 3b
       0.08841988 0.059053052 -0.0632201 0.00711895
000360 84 5c fd 3b dd 7a 38 bd 8b b9 7e bc d7 1d 42 3d
       0.007731976 -0.045039047 -0.015547167 0.04739174
000370 54 dd 34 3d 9a be c9 bd a8 20 61 bd 04 e1 51 3b
       0.044156387 -0.098508075 -0.054962784 0.003202499
000380 20 e0 c7 3d 1f 51 43 bd 24 34 81 3c a0 3d c4 3d
       0.09759545 -0.047684785 0.015771933 0.095820665
000390 9d 81 af 3d a1 af b7 3d c0 92 7e 3d 8f 73 8c 3d
       0.08569644 0.089690454 0.06215167 0.068579786
0003a0 2c f7 2c 3d 67 b3 51 bd 6e 0f dc 3d 30 76 99 3d
       0.04222791 -0.051196482 0.107451305 0.074932456
0003b0 94 8c 67 3d 34 a4 af bd 29 22 df bd 17 ca 72 3b
       0.05653055 -0.08576241 -0.108951874 0.0037046724
0003c0 f3 c3 40 bd a2 84 74 bd 33 55 03 3d c1 a0 8c 3d
       -0.04706187 -0.0596968 0.032063674 0.06866599
0003d0 9b 73 b2 bd 03 03 2d 3d 56 3c 0f 3c 6e 06 75 bd
       -0.08713456 0.0422392 0.008742413 -0.059820585
0003e0 66 8d 96 3d c7 d5 34 3b 97 32 84 bd ad 68 ac bd
       0.07351188 0.0027593242 -0.06454962 -0.08418403
0003f0 04 14 d0 3d b0 e4 de bc 7d 4f 58 3d 69 ce 42 bb
       0.10160068 -0.027208656 0.05281018 -0.002972508

attn_layers.layers.0.1.to_out.weight f4 [74, 64]
000000 1a b0 45 bd a8 68 70 3d 63 3e 0f 3d cb cc a5 bd
       -0.048263647 0.058693558 0.034971606 -0.08095702
000010 52 5e d1 bd fa 42 ce bd 8e 9d a0 3d 5c fe d5 3b
       -0.10223068 -0.100713685 0.07842551 0.006530566
000020 59 28 c7 bd 53 97 c6 3c 14 c1 36 bd fd fa 0e bd
       -0.097244926 0.024242079 -0.044617727 -0.03490733
000030 f4 0c 1f 3d 40 f1 5a bd 43 ad 81 3d 64 ff 0f bd
       0.038830712 -0.05345273 0.06331875 -0.03515567
000040 9a cf c7 bb ef 2c bf 3d 20 94 37 3c 3a 9d 69 bd
       -0.006097746 0.09334742 0.011204749 -0.05703471
000050 11 2a 57 bd 9f 54 a3 bc 42 f6 d1 bd 70 b4 a7 3d
       -0.052530352 -0.019937811 -0.10252048 0.081887126
000060 0d e6 a9 bc 87 df e9 bd 32 10 83 3d 4a 66 3c 3d
       -0.02073958 -0.114195876 0.063995734 0.045995988
000070 4f 1a 00 3d dc 8f c8 3c 1b 9f 5d 3d f7 f5 bb 3d
       0.03127509 0.02448266 0.054106813 0.091777734
000080 ac 7a 01 3d 13 b3 2e 3d eb e6 00 be 2d d4 31 3d
       0.03161113 0.042651247 -0.12588088 0.043415237
000090 35 07 ca 3d c5 ec 1c 3d c8 6c 59 bd df d1 73 bd
       0.09864656 0.03831174 -0.053082258 -0.05952632
0000a0 04 1a b1 3d 1c d9 c3 bd 08 15 d0 3d bb d7 ab 3d
       0.0864754 -0.09562895 0.101602614 0.08390757
0000b0 cc 67 22 3c 98 02 e2 bb 24 10 c2 3c 83 f3 c1 3c
       0.009912442 -0.006897282 0.023689337 0.023675686
0000c0 02 6e b2 bd e6 db 04 bd 82 57 d6 bc 99 fe 90 3c
       -0.087123886 -0.032436274 -0.026164774 0.017699527
0000d0 e0 0e 02 be 8e 5a bf 3c d2 27 cf bd 09 d7 f4 bc
       -0.12700987 0.02335861 -0.10115017 -0.029887693
0000e0 fa 3b 2a 3d d2 20 ec 3b 75 e9 03 be c2 42 65 3c
       0.041561104 0.007206061 -0.12882026 0.013992967
0000f0 ba d0 b0 3d b3 b9 8d bc 3e 52 56 bd 0f 7f 93 bc
       0.086335614 -0.017300462 -0.052324526 -0.018004922
000100 0a 86 ad bc c3 40 2e bc 63 c7 d6 bd c7 66 80 bd
       -0.021182079 -0.010635558 -0.10487249 -0.06269603
000110 1d bb 3b bd ce d9 ee bc 28 15 5b bd 61 23 a0 bd
       -0.045832742 -0.029156592 -0.053486973 -0.07819248
000120 c8 51 70 3d 8b fe c7 3d d6 8e e2 3d de 19 8d 3d
       0.058671743 0.09765347 0.110624 0.068896994
000130 2e 53 9f 3d f3 6f 87 bc 7f ab 8f bc 6c ce c3 bc
       0.07779537 -0.016532874 -0.01753783 -0.02390214
000140 12 a3 44 3d 7a 35 85 3d de 1b a9 bd d2 0e c5 3d
       0.04800708 0.065043405 -0.08257268 0.096219674
000150 a4 65 b9 bc a9 23 ab 3c 0f 47 1a 3d 6a e8 b6 3c
       -0.022631474 0.020891028 0.037665423 0.02232762
000160 db 8b c9 bd de d5 ea 3d 2b 06 9e 3d 25 53 dc bd
       -0.098411284 0.11466573 0.0771602 -0.10758046
000170 eb 68 e1 bd 19 9b af 3d f4 2a d7 bd 24 66 75 bd
       -0.1100634 0.085745044 -0.105062395 -0.059911862
000180 51 14 a5 3b ae 99 16 bc bb bc 4e 3c 7c 98 8a bd
       0.0050378223 -0.0091919135 0.012618239 -0.06767365
000190 2c e0 e4 bc 69 ec 3f bd 1a af 5f bd 6d 14 62 3d
       -0.027938925 -0.046856318 -0.05461035 0.05519526
0001a0 2d 81 3b 3d e6 84 06 bc ad d9 b3 3d 15 74 13 bd
       0.04577749 -0.008210396 0.08781753 -0.035999376
0001b0 1d 6a cf bd 6b 66 f8 3c c0 5f a6 3d 61 e6 d7 bd
       -0.101276614 0.030322274 0.081237316 -0.10541988
0001c0 37 58 75 bd 55 53 8a bd e2 fa 7f bd 8e 19 03 bd
       -0.05989858 -0.067541756 -0.06249512 -0.032006793
0001d0 f6 46 ac bd e4 80 bd 3d cc fa d1 bd b1 bc c7 3c
       -0.08411972 0.092530996 -0.10252914 0.024381967
0001e0 a0 72 85 bd 05 7d fd bd 41 6b 28 3d 64 13 d8 3d
       -0.065160036 -0.12377361 0.04111791 0.105505735
0001f0 27 48 8a bd 4c 60 e5 3d af 94 e3 bd 62 68 0f 3c
       -0.06752043 0.11200008 -0.111123435 0.008752914
000200 a4 0e 6e 3c 96 8d 64 3d c2 b0 a2 bd c9 0c 8e bd
       0.014529858 0.05579909 -0.0794387 -0.06936032
000210 1f 44 c1 bd d2 e1 7d bd e0 92 9f 3c 91 b0 04 3e
       -0.09436821 -0.061982937 0.019479215 0.1295798
000220 69 7d c1 bb 20 63 ae 3c 98 50 d6 bd fd c1 d5 3c
       -0.0059048426 0.0212875 -0.10464591 0.026093477
000230 51 05 88 bc 58 3d c2 3d 53 e4 8b 3d 30 19 d6 3d
       -0.016604098 0.09484357 0.06830659 0.10454023
000240 20 d8 b1 bd 4b 5d ae 3d 65 d6 4f 3d 9a e7 31 bd
       -0.08683801 0.08513888 0.050741572 -0.043433763
000250 bc cd c2 bd 1f b4 00 3e ae 36 ba bd f1 1e e1 3c
       -0.09511897 0.1256871 -0.090924606 0.027480574
000260 18 4b b3 bc 70 e2 54 3d 4f af 58 3d 5c c0 db 3d
       -0.021886393 0.05197376 0.052901562 0.10730049
000270 f8 a7 ca bd 92 6c a5 bd a8 0c 8e bd bd 26 19 bd
       -0.09895319 -0.08077349 -0.06936008 -0.03739046
000280 de e4 ab bd 62 c4 c2 bd 7d 17 6c bc 6b 23 dc 3d
       -0.08393262 -0.09510113 -0.014409897 0.10748943
000290 12 89 db 3d f9 8d ec 3b 52 46 ef bd c9 64 2d 3d
       0.107195035 0.007219073 -0.116833344 0.042332444
0002a0 c5 83 2c bd a1 24 af bd 16 54 f1 bd 24 a4 b2 3c
       -0.042117853 -0.08551908 -0.11783616 0.021806784
0002b0 03 00 3d bc b8 d1 ed 3d 83 84 b0 bd 52 67 ca bd
       -0.011535647 0.11612266 -0.086190246 -0.09882988
0002c0 70 b0 eb 3d 22 6b 8c bc 00 05 c5 3d b3 63 f9 3d
       0.11508262 -0.017140929 0.09620094 0.12177219
0002d0 b1 23 83 3d 70 c9 99 bd e2 a2 ac 3d ba f9 03 3e
       0.06403292 -0.07509124 0.08429505 0.12888232
0002e0 2b 93 2d bc ba 38 4a 3d 67 1f ae bd cb b6 a8 bd
       -0.01059417 0.049370505 -0.08502083 -0.0823799
0002f0 b8 b7 40 3d be 27 02 bc d5 d2 57 bd 5f c4 43 3c
       0.047050208 -0.007944046 -0.0526913 0.011948674
000300 ae f1 03 be f8 e0 55 3c 35 a0 05 3d 7a 94 13 bd
       -0.12885162 0.013054125 0.03262349 -0.03603027
000310 e3 cf a8 bc 25 c2 df 3d 94 d6 0f 3d b1 9e a3 bd
       -0.02060694 0.10925702 0.035116747 -0.07989252
000320 05 12 95 3d 61 99 f0 3c b6 28 a7 bd 08 f9 3f 3d
       0.072788276 0.029370012 -0.08162062 0.046868354
000330 42 0a 39 3d 45 e5 28 3b 96 fb b5 bd 15 ab 45 bd
       0.0451758 0.002577142 -0.08885877 -0.04825886
000340 78 4a d0 bd f5 1c 12 bc 2f ce d4 bc ef d2 17 3d
       -0.10170454 -0.008918037 -0.025977222 0.037066396
000350 9c b2 c2 bd 6b 91 7c 3d b2 8d 9a bd 8c 2d d7 ba
       -0.09506723 0.06166212 -0.075465575 -0.0016416772
000360 13 fb b5 bd 33 8a 37 3b d4 03 e6 bc 0f 3b 54 3b
       -0.08885779 0.0028005957 -0.028077997 0.0032383834
000370 98 af a2 3d 5f c7 97 bd de c1 bf bd 8e 80 c1 3c
       0.07943648 -0.07411074 -0.09363149 0.02362087
000380 87 11 82 bb 6a cd 56 bd 48 80 93 3d 37 c7 67 3d
       -0.0039693746 -0.052441992 0.07202202 0.05658647
000390 8c ac df 3d 7a c0 55 3d 12 0a 67 3c f6 eb 28 3d
       0.109215826 0.052185513 0.014101522 0.041240655
0003a0 5a 43 97 3d 9a 4e de bd 0e e4 b4 3d 04 c6 d0 bd
       0.07385893 -0.10854836 0.088325605 -0.101940185
0003b0 05 59 19 3d b1 c8 86 3c cc 18 87 bd 94 d6 67 bc
       0.03743841 0.016453119 -0.065965265 -0.0141502805
0003c0 67 89 f9 bc 01 f0 a3 b9 9c 0f c7 bd d1 0c 88 bd
       -0.030461026 -0.000312686 -0.09719774 -0.066430695
0003d0 e4 48 e2 bd c5 ca 68 3c 2a c7 17 bd 40 a5 c1 3d
       -0.11049059 0.0142085 -0.037055172 0.09455347
0003e0 51 d7 28 3d dd 05 bb 3d 8a 04 c4 bc d7 44 ef bd
       0.041220967 0.09131978 -0.023927946 -0.11683052
0003f0 3f bf 2b 3c e2 bc d0 3d c8 3e d6 bd 2f cf c7 bd
       0.010482608 0.101922765 -0.10461193 -0.09756314

attn_layers.layers.1.0.0.weight f4 [74]
000000 15 a9 80 3f e8 76 7e 3f 3e 18 7d 3f 80 1d 80 3f
       1.00516 0.99400187 0.98865116 1.0009003
000010 91 92 80 3f 29 4c 7f 3f 0d 6d 80 3f af 82 7f 3f
       1.0044729 0.99725586 1.003328 0.9980878
000020 2c b2 7f 3f 9d a5 7f 3f 90 37 7f 3f 1d ee 80 3f
       0.99881244 0.9986208 0.99694157 1.0072666
000030 68 af 7f 3f 7b 33 80 3f 33 ce 80 3f 45 7c 7d 3f
       0.99877024 1.001571 1.0062927 0.99017745
000040 90 b7 7d 3f fd cd 80 3f 60 9c 81 3f 09 59 80 3f
       0.9910822 1.0062863 1.0125847 1.0027171
000050 c2 33 7d 3f 12 63 80 3f c4 2b 80 3f 83 cb 7e 3f
       0.989071 1.0030234 1.0013356 0.99529284
000060 57 12 82 3f 4c 28 7e 3f c0 7d 80 3f 8e 06 80 3f
       1.0161847 0.9928024 1.0038376 1.0002
000070 75 9e 81 3f ce 3c 81 3f eb e6 81 3f 6c 13 7f 3f
       1.0126482 1.0096681 1.0148596 0.9963901
000080 2b 70 81 3f e5 b3 80 3f 3f 1e 7f 3f 78 e5 80 3f
       1.0112356 1.00549 0.99655527 1.0070028
000090 32 63 81 3f 43 5f 7b 3f e2 db 7e 3f 7b ab 7c 3f
       1.0108397 0.9819223 0.99554265 0.9869916
0000a0 22 81 7c 3f 05 76 7f 3f ea 84 7e 3f 36 63 7e 3f
       0.9863454 0.9978946 0.9942156 0.99370134
0000b0 bd d0 7f 3f 47 2f 7e 3f c6 3c 7d 3f 57 fd 7f 3f
       0.99927884 0.9929089 0.9892086 0.9999594
0000c0 bb 15 80 3f 8b a9 7e 3f ea 5a 7c 3f 09 a8 7c 3f
       1.0006632 0.9947745 0.98576224 0.986939
0000d0 69 02 80 3f 91 35 7f 3f a9 66 80 3f ea 10 7e 3f
       1.0000736 0.9969111 1.0031329 0.9924456
0000e0 19 31 7e 3f 4c cc 80 3f 84 f1 80 3f 89 84 80 3f
       0.9929367 1.0062346 1.0073705 1.0040447
0000f0 d6 df 81 3f 1f c7 7f 3f d8 5e 7d 3f 7a 4b 81 3f
       1.0146434 0.9991321 0.98972845 1.0101159
000100 11 8b 80 3f b4 8f 7e 3f e1 70 80 3f a8 aa 80 3f
       1.004244 0.99438024 1.0034448 1.005208
000110 7b 68 80 3f a2 8f 7d 3f fe 1b 7d 3f 81 c2 83 3f
       1.0031885 0.9904729 0.9887084 1.0293733
000120 64 41 81 3f 74 c2 7e 3f
       1.0098081 0.9951546

attn_layers.layers.1.0.0.bias f4 [74]
000000 df 0b 8a 3a 50 0b 86 3b 9b bc ea 3b 04 3a 04 3c
       0.0010532102 0.004090704 0.007163597 0.008070473
000010 3f 9e 0c bb 55 2e a0 39 e5 fd 4e 3c bf b5 80 3b
       -0.0021456627 0.00030552098 0.012633775 0.003927916
000020 60 cc f7 b8 46 ae 8a 3a 69 42 d0 3a 82 e1 2a 39
       -0.000118159456 0.0010580502 0.0015888932 0.00016296472
000030 02 de 4a 3b e5 64 88 3b 5e be 71 bb 51 fb 27 3c
       0.003095508 0.004162418 -0.003688715 0.01025279
000040 68 53 d8 ba 87 c9 38 3b 93 8b 45 bb 29 13 83 ba
       -0.0016504349 0.0028196292 -0.0030143007 -0.0010000217
000050 2e 95 af bb c2 7c 9a 3b cf ae cd 3b 37 f3 13 3c
       -0.00535836 0.0047145793 0.0062769423 0.009030155
000060 31 44 af b9 5e 73 ca 3a 28 8c 9c bb 93 1d 29 3b
       -0.00033429408 0.0015445759 -0.00477745 0.002580498
000070 2f 9c 83 39 9a b8 bd ba b7 ad 41 3b 0a 0c 8c 3b
       0.00025102633 -0.0014474571 0.0029553005 0.004273896
000080 4e 56 26 3b 89 02 f3 3b 82 d7 db 3a d9 e3 09 3a
       0.0025381031 0.0074160737 0.00167726 0.0005260087
000090 5a f7 2f 3b 04 30 02 3c 37 e5 7c 3b e7 f8 19 bb
       0.0026850314 0.007946018 0.003858877 -0.0023494305
0000a0 47 dd 6f 3a 68 2b 81 3b 34 2c d9 3b d8 4e ba bb
       0.00091500994 0.003941942 0.006627584 -0.0056856684
0000b0 32 c1 6f 3a 37 4e e2 bb 41 75 f9 3b e8 07 0e bb
       0.0009145915 -0.0069062966 0.0076128547 -0.0021672193
0000c0 92 77 33 3b 0e ed c6 3a ca 06 a1 ba 92 00 09 ba
       0.0027384502 0.0015176849 -0.0012285348 -0.000522622
0000d0 73 67 c8 ba a4 65 41 3a f8 1c fa 3b 25 c5 0e 3c
       -0.0015289619 0.00073775114 0.007632848 0.008713995
0000e0 8b ef b8 bb ce 0f 2b 3b e2 02 ed 3a 8a ac e3 bb
       -0.00564379 0.002610195 0.0018082524 -0.0069480585
0000f0 f6 2c 0d bc d7 37 02 bc 5f 3a 5c bc de 8e 8d 3b
       -0.008616677 -0.007947884 -0.013441651 0.0043200096
000100 2d 4c 92 ba c6 78 0f bc d8 8c be ba 30 c5 02 bc
       -0.0011161618 -0.008756822 -0.0014537824 -0.0079815835
000110 24 47 2d bc 82 ee 4d bc 6c e6 99 bc f1 0b 1b bb
       -0.010576043 -0.012569072 -0.018786632 -0.002365824
000120 29 9b 00 bc e5 e9 d4 bb
       -0.007849493 -0.006497609

attn_layers.layers.1.1.ff.0.0.weight f4 [296, 74]
000000 86 55 b7 bd 0b 4c c8 bd 57 cb cf bd 85 39 9c bd
       -0.08951859 -0.09780129 -0.10146206 -0.076281585
000010 db f9 b8 3d e5 9f d6 3d 7e ec 98 bd 33 a3 c7 3d
       0.09032031 0.10479716 -0.07466982 0.09747925
000020 8c 3f 09 3d 48 c2 83 bc d3 cd 6f bd eb 12 ac bd
       0.03350787 -0.016083851 -0.0585459 -0.08402046
000030 5b 75 be bd a5 d1 0f be ea b7 19 3d 17 71 dc 3d
       -0.092997275 -0.14044817 0.03752891 0.10763758
000040 37 ea 58 bd 92 43 ae 3d 24 2b bf ba 9b fc b7 3d
       -0.05295774 0.08508982 -0.0014585 0.089837275
000050 e6 3e 9d 3d 73 b4 ee 3a de 0d 88 bc 58 15 b1 bc
       0.076780125 0.0018211737 -0.016608175 -0.021616623
000060 8a 37 aa bd 62 65 c5 bc 38 66 80 bd 73 2b 8b 3c
       -0.083113745 -0.024096195 -0.06269497 0.016988492
000070 5f cc 0d 3d f6 2b e0 3b 49 f4 c2 3c 30 42 7b bb
       0.03461873 0.006841178 0.023798125 -0.0038339011
000080 bd b0 c1 bd 42 57 28 3d 28 f1 73 bd 1c 47 f7 3c
       -0.09457538 0.04109884 -0.059556156 0.030185275
000090 11 bc 4a bd 80 03 d0 bd 89 99 8b 3d 1b 92 8b 3d
       -0.04949576 -0.101569176 0.06816394 0.06814977
0000a0 33 4c 0e 3d 70 71 93 3d 96 ec 86 bd e4 43 26 bc
       0.034740638 0.07199371 -0.06588094 -0.010148022
0000b0 1d 50 9a bc e4 76 a7 3d 06 78 f3 3d 02 29 5f bd
       -0.01883703 0.081769735 0.11888127 -0.054482467
0000c0 91 bc 94 bd ff 81 80 3c 56 76 a3 bb c1 60 5d bc
       -0.07262529 0.015686987 -0.004988472 -0.013511837
0000d0 69 61 d0 bc cb e1 64 3d bf 4f 4e bd 84 69 9c bd
       -0.025437074 0.055879395 -0.05036902 -0.07637313
0000e0 d4 f6 90 bc fb 8a c8 3d 1c 2c 49 3d e7 28 a1 bc
       -0.017695822 0.097921334 0.04911433 -0.019672824
0000f0 0c d6 dc bb 34 4e e5 3c 88 ff e5 3d 5a 8f 1a bd
       -0.0067393836 0.027991392 0.11230379 -0.037734367
000100 82 7a 9b 3d 9e cb a3 3d 04 57 e6 bd 54 89 ad 3d
       0.07591726 0.07997821 -0.11247066 0.08473459
000110 a7 42 2b bd bf ec 35 bd 71 be 38 bc b4 98 c3 3a
       -0.04181161 -0.04441523 -0.0112758735 0.0014922828
000120 46 4d ba 3d 63 05 c3 3d 0c 11 1b bd 74 e9 8e bc
       0.0909677 0.09522512 -0.037858054 -0.017445303
000130 5c 8e fd 3d 63 ea 73 bd 6a b5 95 bb 21 4f c9 3d
       0.123806685 -0.0595497 -0.0045687454 0.09829546
000140 47 46 34 3d c2 f8 8c bd a1 f8 84 3d a8 5d d3 bd
       0.044012334 -0.06883384 0.06492735 -0.10320598
000150 5e f7 37 3c 95 cc 9a bb 2e 08 cf 3d a9 7e 8e 3c
       0.0112284105 -0.004724095 0.10108982 0.01739438
000160 46 37 d7 3c 34 3f 85 bb c7 1d 83 3c 68 6b 74 3d
       0.026271474 -0.0040663723 0.01600541 0.059672743
000170 57 02 8f 3d 20 b1 1f 3d 5c a7 d2 bd e8 e5 00 3d
       0.06982868 0.03898728 -0.102858275 0.031469256
000180 c8 70 65 bd e9 d8 b5 3c cf ef c6 3d a7 e4 f9 3c
       -0.05601576 0.022198157 0.097137086 0.030504538
000190 c2 76 61 bd 7b 9f 0b bd 6d 04 3c bd c5 b5 2c 3d
       -0.055044897 -0.03408764 -0.04590266 0.042165536
0001a0 db 89 02 3c c0 94 a2 3d 08 0a 32 bd 78 6e 71 3d
       0.007967438 0.07938528 -0.043466598 0.05894324
0001b0 0f 96 ca 3c 88 1b c0 3d 74 d5 dd bd 14 12 98 3d
       0.024729757 0.09380251 -0.108317286 0.07425323
0001c0 37 7b d1 3d e6 17 10 3d 99 63 8d 3d 89 e0 c2 bd
       0.102285795 0.03517904 0.06903762 -0.09515483
0001d0 9a 3a 9a 3d 25 15 b7 bc 74 d4 ca 3c 24 46 35 bc
       0.075307086 -0.02234895 0.024759509 -0.011064086
0001e0 fd 27 86 bc bc 14 55 bd 27 92 5d bd f5 01 97 bd
       -0.01637649 -0.052021727 -0.05409446 -0.0737342
0001f0 3b 31 25 bd bb cb 15 bd 76 2d e4 3b eb de 56 bd
       -0.040330153 -0.036571246 0.006963427 -0.052458685
000200 92 99 17 3d cb 52 12 3d 6c 21 89 3d 38 08 a4 bd
       0.03701169 0.03572349 0.06695828 -0.0800938
000210 e0 05 8c 3d b3 70 f9 bd 7c b9 a3 3d 13 8e e8 bd
       0.06837058 -0.12179699 0.07994363 -0.113552235
000220 1b ef b1 3d bd 72 b3 bd 96 a0 98 3d 55 1e d0 bd
       0.08688184 -0.08762119 0.07452504 -0.101620354
000230 70 e7 9b bc dc f5 b4 bd cf 17 22 bc f9 89 ca bd
       -0.019031256 -0.088359565 -0.009893372 -0.098895974
000240 b3 f3 27 bc d5 07 8d bd 77 04 03 bd be 7e e8 bd
       -0.0102509735 -0.068862595 -0.03198668 -0.11352299
000250 bd 49 f1 bd c9 69 8c 3c 21 9b 96 3d c5 65 82 3d
       -0.117816426 0.017140286 0.07353807 0.06367067
000260 c5 86 09 3d 07 7b b5 bd 08 2e 80 3d 94 b7 c5 bd
       0.033575792 -0.08861356 0.0625878 -0.096541554
000270 92 f2 10 ba 3f 51 9a bd 4d ac cc bd d1 e4 ea bd
       -0.000552931 -0.07535028 -0.09993801 -0.114694245
000280 33 dc b8 bd 77 37 40 bd 88 77 a4 3d be c7 dc bc
       -0.09026375 -0.046927895 0.08030611 -0.026950713
000290 25 fc ef bd 7f 00 c0 bc e6 7c 3c 3d e6 f1 c1 3d
       -0.11718015 -0.023437737 0.04601755 0.094699666
0002a0 52 45 a6 3b ca 7a 44 bd f5 0c 96 3d b3 98 67 bc
       0.0050741816 -0.047968663 0.0732669 -0.014135527
0002b0 41 a5 36 bd d2 50 4d 3d f3 b9 63 bd e3 1a 88 3d
       -0.044591192 0.050125904 -0.055597257 0.06645753
0002c0 1b 7d cd 3a 61 67 b0 3c 3f c3 00 3c 6b 86 7d 3d
       0.0015677543 0.02153367 0.00785905 0.06189577
0002d0 fa c1 ab bc 96 ef 31 bd e8 8c c3 bd 54 e6 50 bc
       -0.020966519 -0.043441378 -0.0954836 -0.012750227
0002e0 48 9e 43 3d 31 6a ad bd 32 9c 87 3d 67 af e7 bd
       0.04775837 -0.0846752 0.06621589 -0.11312752
0002f0 1f b6 7d 3d b1 05 67 bd f6 ec ea bd 89 bc e2 3c
       0.061941262 -0.056401912 -0.11470978 0.027677791
000300 c9 b3 4d 3d e4 29 86 bd 9e f4 eb bb 8d 3e 88 3d
       0.050220285 -0.06550959 -0.0072007915 0.066525556
000310 72 20 1a bc 21 34 b1 bd c2 20 ae bd ca ca 8d 3d
       -0.00940715 -0.08652521 -0.08502342 0.069234446
000320 20 52 ae bc 5d 53 f3 3c 68 d3 8e bb 0e 4a 11 bc
       -0.021279395 0.029702837 -0.0043586977 -0.008867754
000330 89 b2 8b 3d 1e 97 cc 3d 20 1e be bd 99 69 78 bc
       0.06821162 0.09989761 -0.0928309 -0.015161895
000340 b4 df 6d bd 55 3d d8 3d 96 02 f5 bb 9c cb 48 bd
       -0.058074668 0.10558573 -0.007477115 -0.049022302
000350 e0 06 09 bd 36 f5 f0 3d eb 71 aa bd f9 12 c7 bd
       -0.033453822 0.1176552 -0.083225094 -0.097204156
000360 7a 75 52 bd 1b a2 98 3d 1c d8 de bd 77 ef 38 bd
       -0.051381566 0.07452794 -0.10881063 -0.045150246
000370 b0 53 ea bc 49 d2 9b 3d 6d 3d e2 3d f4 ce f2 bd
       -0.028604358 0.07608468 0.11046872 -0.118558794
000380 dd 59 9a bd d4 6d 5b 3c d4 5f e9 39 92 9a 69 3c
       -0.07536671 0.013392884 0.0004451262 0.014258044
000390 60 32 af 3d 25 ec 9b bd ab a9 91 bc cb bf ee bd
       0.0855453 -0.076134 -0.0177811 -0.11657675
0003a0 f7 b2 b6 3d f7 94 2d 3d 7f c2 d4 3b 3a 6f 91 bd
       0.089208536 0.042378392 0.0064929123 -0.07101293
0003b0 4c 7b aa bd b2 c0 dc 3d b6 2b 5b bd a5 9d 95 bd
       -0.08324298 0.10778941 -0.053508483 -0.07305459
0003c0 2f 56 c7 bb 10 d7 dd 3d 3a a1 d2 3d 41 ed 45 bd
       -0.006083272 0.108320355 0.10284658 -0.048321966
0003d0 5f 2e 93 3c 6f 9a 88 bd ea 04 66 3d f4 a7 64 3d
       0.017966447 -0.06670081 0.05615703 0.055824235
0003e0 ff cc be 3d a6 35 d1 ba 28 93 7b 3d e5 80 0c 3e
       0.09316444 -0.0015961423 0.061419636 0.13721044
0003f0 c8 0b 85 bd 93 28 8e bd 62 f1 e3 3d 77 af 83 3c
       -0.06496388 -0.06941333 0.111300245 0.01607488
